res/model/new_model.pth (torch, 225876 bytes, 10 tensors)

layers.0.linear.weight f4 [128, 42]
-0.15574747 0.12703511 0.11195913 0.092033066 -0.047800407 -0.17837541 0.039479446 0.1163714
-0.1751063 0.075402126 -0.1255496 -0.07507678 -0.020413259 0.026379446 -0.087138936 0.14843008
0.17274936 -0.28136018 -0.1528426 0.22138844 -0.081639946 -0.03073101 -0.087773725 -0.13383216
-0.25041187 0.053692732 -0.1772442 -0.12450478 0.090773605 -0.0766527 -0.035854135 -0.043256722
0.23592176 0.045357093 0.041289866 -0.003139125 0.07117581 0.060783226 0.015317632 -0.0034588908
-0.027266 0.011518214 0.09075672 0.089105554 -0.0905014 -0.0077484897 0.08458616 0.011281807
-0.15133186 -0.023531418 -0.1061652 0.050270557 0.16309842 0.10167181 0.35771486 -0.1474782
-0.07824416 0.10860942 -0.08463099 -0.12814704 0.027742572 -0.11950917 0.2247717 -0.0026907297
-0.19471614 -0.06837813 0.13787478 -0.02132298 0.08635966 0.14085443 -0.0867284 -0.21113056
0.114939265 -0.057261884 0.054921765 0.043032758 -0.00021534917 -0.0083100945 0.00042238928 -0.084781215
-0.002927804 -0.029535752 0.019436058 0.0109869335 0.019156082 0.06235093 0.11139641 -0.15201294
0.015754534 0.09443339 -0.10888312 -0.017315779 0.081891015 -0.035860203 0.042678963 0.088697344
0.11530201 0.16234936 -0.049192302 -0.10313648 0.08472404 -0.049333062 -0.14112225 0.1569927
-0.1321701 0.12526995 -0.14324456 -0.07163027 -0.11069501 -0.12346395 -0.1938389 -0.03998902
-0.18207195 0.07784251 0.0075223045 -0.024078023 0.07776649 0.1787181 0.052909274 0.009887326
-0.06252443 0.018384906 -0.018397115 -0.009593072 -0.027125599 -0.0080144 0.12955685 0.14584765
-0.061762713 -0.07690537 -0.02780189 -0.11343382 0.062413283 0.13968515 -0.05994683 -0.0010238162
-0.19573687 0.0617312 -0.21239516 0.12114801 -0.12831923 0.15705965 0.10812713 -0.022881769
0.10611727 0.07245578 -0.22510666 0.17649916 0.12102838 -0.28199646 -0.18757638 0.1909334
0.048937455 0.060925305 -0.11928249 -0.12681565 0.017807633 0.03837351 0.13724145 -0.04775131
-0.049996786 -0.02224467 0.03801613 -0.05648698 -0.030389251 -0.003000011 -0.019909045 -0.015525789
0.023721935 0.14106056 0.11572889 0.017828913 -0.10959541 -0.011823183 0.13954656 0.09881792
-0.11237235 -0.101593606 0.060655467 -0.058696028 -0.005777159 -0.0049833246 0.16261321 0.0037137044
0.039785482 -0.1791402 -0.0066487766 0.1516906 0.03494588 -0.16405769 -0.1956004 0.13176021
0.10074996 -0.2016802 0.18252952 0.03698717 0.16476044 -0.1478866 -0.20968911 0.11524048
-0.0032611722 0.023988422 -0.092255324 0.018202297 0.10912506 -0.012018355 0.0055904123 -0.020031773
0.0016298603 3.8361986e-06 0.014628825 0.1251797 -0.13583629 -0.12059819 0.12485102 0.022635464
0.11141695 -0.10092635 0.0043005976 0.046813708 -0.07135008 0.044695072 -0.11827697 -0.037501346
-0.12558414 -0.042732272 -0.099532954 -0.09679783 0.16480492 0.14482859 -0.029962545 0.085605636
0.13290702 0.09275557 -0.107718304 -0.10770747 0.06890984 0.0043883533 0.06057026 0.04192232
-0.2091248 0.044385534 -0.042921234 0.116111375 -0.04840239 -0.051972095 -0.011291857 0.02544835
0.023468962 -0.0067738127 0.007693889 0.007473781 -0.009109531 -0.21983951 0.0758471 0.0906449
00000000: 447c 1fbe 7e15 023e d44a e53d d57b bc3d
00000010: 5cca 43bd 0ba8 36be 33b5 213d 2154 ee3d
00000020: 114f 33be 6e6c 9a3d 1390 00be dbc1 99bd
00000030: b539 a7bc b519 d83c e675 b2bd 0efe 173e
00000040: 35e5 303e 710e 90be c582 1cbe a7b3 623e
00000050: d832 a7bd 99bf fbbc b6c2 b3bd 4c0b 09be
00000060: fc35 80be e9ec 5b3d 817f 35be 5dfc febd
00000070: 83e7 b93d 17fc 9cbd c9db 12bd f62d 31bd
00000080: 7995 713e 5cc8 393d 901f 293d c7b9 4dbb
00000090: a0c4 913d d5f7 783d cef6 7a3c 8fae 62bb
000000a0: f25c dfbc e4b6 3c3c a9de b93d f97c b63d
000000b0: cc58 b9bd 0be7 fdbb 823b ad3d 54d7 383c
000000c0: bdf6 1abe f6c4 c0bc 246d d9bd 80e8 4d3d
000000d0: 4603 273e 4f39 d03d 6726 b73e 8604 17be
000000e0: 793e a0bd 9e6e de3d 0353 adbd fa38 03be
000000f0: 6444 e33c 39c1 f4bd 8d2a 663e f456 30bb
00000100: ab63 47be d509 8cbd 0c2f 0d3e 88ad aebc
00000110: 55dd b03d 253c 103e a99e b1bd 9c32 58be
00000120: 4765 eb3d 708b 6abd a5f5 603d 1e43 303d
00000130: 5acf 61b9 1027 08bc 2174 dd39 c6a1 adbd
00000140: 66e0 3fbb f6f4 f1bc 5e38 9f3c 8a02 343c
00000150: 37ed 9c3c b063 7f3d cd23 e43d 48a9 1bbe
00000160: a70f 813c 4b66 c13d 1dfe debd d2d9 8dbc
00000170: 7ab6 a73d 26e2 12bd 23d0 2e3d f4a6 b53d
00000180: 7623 ec3d e93e 263e de7d 49bd 3839 d3bd
00000190: cc83 ad3d 7711 4abd 5a82 10be b2c2 203e
000001a0: 9957 07be c446 003e b4ae 12be e4b2 92bd
000001b0: 11b4 e2bd abda fcbd b47d 46be 87cb 23bd
000001c0: 1271 3abe e56b 9f3d aa7d f63b 463f c5bc
000001d0: 0a44 9f3d e101 373e 65b7 583d 73fe 213c
000001e0: cf0c 80bd f19b 963c 8cb5 96bc 432c 1dbc
000001f0: 8136 debc d44e 03bc 8daa 043e 1659 153e
00000200: e6fa 7cbd 9080 9dbd cac0 e3bc fe4f e8bd
00000210: 12a5 7f3d a009 0f3e cf8a 75bd 9231 86ba
00000220: 3f6f 48be dbd9 7c3d 1e7e 59be 731c f83d
00000230: 1e66 03be 3fd4 203e c271 dd3d 8c72 bbbc
00000240: 0354 d93d b263 943d 5c82 66be 32bc 343e
00000250: badd f73d d761 90be 0614 40be 0c84 433e
00000260: a472 483d d08c 793d 614a f4bd f6db 01be
00000270: 50e1 913c 8b2d 1d3d 0689 0c3e e196 43bd
00000280: 6ec9 4cbd 743a b6bc cdb6 1b3d e45e 67bd
00000290: e1f2 f8bc d59b 44bb 4b18 a3bc e15f 7ebc
000002a0: 8154 c23c 2e72 103e 4503 ed3d f10d 923c
000002b0: 8f73 e0bd 06b6 41bc 4be5 0e3e 0d61 ca3d
000002c0: 7a23 e6bd 4f10 d0bd de71 783d 3f6b 70bd
000002d0: 524e bdbb 284b a3bb 1484 263e 9f61 733b
000002e0: 1af6 223d 8770 37be fbdd d9bb c854 1b3e
000002f0: 6923 0f3d bdfe 27be 794b 48be 26ec 063e
00000300: ff55 ce3d 4185 4ebe 05e9 3a3e dc7f 173d
00000310: f6b6 283e 966f 17be beb8 56be 3303 ec3d
00000320: 64b9 55bb 5e83 c43c 5cf0 bcbd fc1c 953c
00000330: f67c df3d a2e8 44bc c72f b73b ac19 a4bc
00000340: 09a1 d53a b2b8 8036 bdad 6f3c 1b2f 003e
00000350: ab18 0bbe 2ffc f6bd e4b1 ff3d 026e b93c
00000360: 922e e43d 79b2 cebd 07ec 8c3b bbbf 3f3d
00000370: fe1f 92bd 2e12 373d 323b f2bd 039b 19bd
00000380: 2199 00be 0908 2fbd efd7 cbbd f13d c6bd
00000390: 9fc2 283e f24d 143e 0374 f5bc 0252 af3d
000003a0: c718 083e a2f6 bd3d 6a9b dcbd bc95 dcbd
000003b0: 9a20 8d3d 2dcc 8f3b 8518 783d bdb6 2b3d
000003c0: d024 56be 9bcd 353d 2dce 2fbd cdcb ed3d
000003d0: 9641 46bd b1e0 54bd 7b01 39bc 0f79 d03c
000003e0: fb41 c03c dcf6 ddbb 051d fc3b 9ee6 f43b
000003f0: 2440 15bc 9c1d 61be b955 9b3d 09a4 b93d

layers.0.linear.bias f4 [128]
0.043535173 0.019354952 -0.00848832 0.07795818 -0.03223045 -0.00687107 0.037459634 0.037304956
0.13374193 -0.1519834 -0.015506675 -0.17346038 0.09512598 0.14403328 0.044583302 -0.09347067
-0.035115283 -0.09938795 -0.06459343 0.016956685 -0.08849487 -0.031657435 0.1262947 -0.12934579
0.11340177 -0.023087984 0.025147768 -0.04801062 -0.15624386 0.031444523 0.08850737 0.024638614
-0.008392636 0.04163538 0.111253954 0.16396044 0.012354177 0.005171813 -0.08198746 0.11465017
0.07730365 -0.12854856 -0.026725786 -0.090182 -0.097664416 0.007034819 0.114283726 0.10191355
-0.08494184 0.08988461 0.1413428 -0.07349404 0.061506834 0.011257051 -0.07700102 -0.0426464
-0.14529003 -0.129287 0.013793194 -0.07234453 -0.15470685 -0.040645897 -0.027042963 -0.08717315
-0.112806715 -0.1306318 0.04252909 0.029801413 0.03060978 -0.08661212 0.058855165 0.0036344978
-0.060005248 0.06512214 -0.055396657 0.14252065 0.16508618 0.03845104 -0.15657279 0.1350495
0.14245528 0.15473899 -0.107731394 0.020471185 -0.099149995 0.13567236 -0.07944325 -0.0151166
-0.0797323 -0.13275813 -0.0901365 -0.10652536 -0.14267182 0.025053093 0.14159675 0.0676054
0.07959844 -0.15585104 -0.11601636 -0.05159167 -0.07037238 0.025465526 -0.10448786 -0.0105618965
-0.16550112 0.012257244 0.13140614 -0.057514958 0.083221145 -0.11599217 0.08927768 -0.13994913
0.040308524 0.028410321 -0.031138916 0.10110534 0.058275804 0.033717636 -0.103932135 0.09464317
-0.10299695 -0.044710875 0.077018715 -0.05772159 -0.079793155 0.0863176 -0.014074256 -0.019412547
00000000: f051 323d 478e 9e3c 9812 0bbc 8aa8 9f3d
00000010: 1404 04bd b626 e1bb 466f 193d 15cd 183d
00000020: a5f3 083e 89a1 1bbe b50f 7ebc 999f 31be
00000030: 69d1 c23d 767d 133e fb9c 363d 8d6d bfbd
00000040: 0bd5 0fbd e98b cbbd 8f49 84bd bfe8 8a3c
00000050: cc3c b5bd 3aab 01bd 6653 013e 3973 04be
00000060: 303f e83d 0323 bdbc b102 ce3c c9a6 44bd
00000070: 64fe 1fbe f9cb 003d 5a43 b53d ebd6 c93c
00000080: 4481 09bc dc89 2a3d 1dd9 e33d 3fe5 273e
00000090: 2d69 4a3c 5078 a93b 0be9 a7bd b5cd ea3d
000000a0: 6051 9e3d 3ca2 03be 09f0 dabc 57b1 b8bd
000000b0: 4804 c8bd 5784 e63b 960d ea3d 0db8 d03d
000000c0: fdf5 adbd 6c15 b83d 2bbc 103e 0b84 96bd
000000d0: 97ee 7b3d 7e6f 383c b6b2 9dbd fead 2ebd
000000e0: e9c6 14be d063 04be d9fc 613c 5e29 94bd
000000f0: 796b 1ebe 507c 26bd 3489 ddbc d687 b2bd
00000100: 3507 e7bd 58c4 05be fc32 2e3d 1822 f43c
00000110: 5dc1 fa3c b261 b1bd 1d12 713d c130 6e3b
00000120: 10c8 75bd c25e 853d 9be7 62bd eff0 113e
00000130: 5a0c 293e d67e 1d3d 9e54 20be 6b4a 0a3e
00000140: ccdf 113e e673 1e3e 47a2 dcbd 30b3 a73c
00000150: 270f cbbd b2ed 0a3e 25b3 a2bd 9eab 77bc
00000160: b04a a3bd bff1 07be 7c99 b8bd f829 dabd
00000170: 9018 12be 253c cd3c bdfe 103e b374 8a3d
00000180: 8204 a33d 6a97 1fbe fc99 edbd c951 53bd
00000190: 651f 90bd 149d d03c bbfd d5bd ce0b 2dbc
000001a0: 2079 29be 9cd2 483c 558f 063e ce94 6bbd
000001b0: d96f aa3d 4e8d edbd 37d7 b63d d34e 0fbe
000001c0: 8d1a 253d c3bc e83c 0a17 ffbc 5110 cf3d
000001d0: 9cb2 6e3d 811b 0a3d 5fda d4bd 47d4 c13d
000001e0: 11f0 d2bd c022 37bd fdbb 9d3d 796d 6cbd
000001f0: 986a a3bd 48c7 b03d b597 66bc 1007 9fbc

layers.2.linear.weight f4 [128, 128]
0.021811692 0.070901364 0.022493891 -0.095045604 -0.016114064 0.0019239128 -0.005892618 0.08585476
0.0781001 0.006899074 0.041288182 -0.03690453 0.006525074 0.028976617 0.044673227 -0.00048983004
0.010669382 -0.041047193 -0.018352624 -0.09671877 0.07872419 -0.08380376 -0.07842455 -0.09625394
-0.030124746 -0.13382635 0.016090788 0.089879364 0.066279635 0.031089442 0.106644906 0.06608366
0.07660376 0.073032044 -0.07457889 -0.06695564 0.04937096 -0.08898446 -0.025552722 -0.10198521
0.022722201 0.06583081 -0.016666988 -0.07574335 0.08254594 -0.09196264 -0.045605823 0.023883035
0.07214691 0.013425156 0.021913964 0.029555261 0.016753018 -0.054113124 -0.08155854 0.10623905
-0.041409668 0.10607576 -0.08358766 -0.01816768 -0.051557723 -0.056801 0.069208816 -0.04389122
0.032533746 0.04082928 -0.011425727 -0.062657446 -0.06606969 -0.03266487 0.068776004 -0.08749469
0.037217036 -0.03758985 -0.036565155 0.05345858 0.0134551525 0.044478066 -0.0072532385 -0.058010876
0.026826212 0.014848749 0.13748583 -0.05256492 -0.16463624 -0.053830646 0.16210502 -0.00079118117
0.08932604 -0.07284046 -0.0051971613 -0.14473264 -0.034821153 -0.004845664 0.048411813 0.02207598
-0.040863343 -0.043109123 0.07988035 -0.038489345 0.027514735 -0.02546754 -0.029018814 -0.0118389595
0.10497405 -0.02936356 -0.0032560835 -0.029022895 -0.069401465 -0.0025520416 -0.09682447 0.008085078
-0.0026589076 -0.067255095 -0.015463305 -0.021617671 0.015626559 0.06772076 0.038185675 0.009097627
-0.021447543 0.003967781 -0.041437324 -0.017437806 0.076549165 0.038633328 0.071952395 -0.014180066
-0.033089858 0.089412026 0.017805748 -0.05407823 -0.049300626 -0.011293472 -0.052767172 0.01757111
0.029925557 -0.12182341 0.073664404 -0.058098607 0.06795102 0.08865908 0.06088513 0.019711066
-0.042605273 0.10298274 0.05718822 -0.03936206 -0.045345604 -0.09903909 0.07595657 -0.10781114
0.021384494 0.035184145 -0.04728355 0.06235125 0.06963971 -0.12291181 -0.13857363 0.0003058689
0.07992139 -0.06781761 -0.0898693 0.045699984 -0.032915905 -0.025882173 0.022855518 0.024446053
0.050246555 -0.0184978 -0.022020241 0.12504545 0.08872196 0.056588426 0.0009756211 0.09784694
-0.05006317 -0.01965026 -0.022942271 -0.03943212 0.032161847 0.021328771 0.052911907 -0.066873714
0.011843649 -0.024458757 0.08386273 0.0017847607 -0.044604737 -0.037586402 -0.0051281517 0.01736172
-0.01005131 -0.06966731 -0.019735515 -0.05736862 0.08179197 0.06927395 0.035508268 -0.028955592
0.10193603 -0.009278984 -0.096527666 -0.04885159 0.045859538 0.10953219 -0.02711914 0.012181463
0.009518173 -0.051157042 -0.013588306 -0.0028707027 -0.11953574 -0.0101460805 -0.07181606 -0.11711254
-0.013960848 0.021429341 -0.0740131 -0.113501705 -0.015765823 -0.006616539 -0.10401227 0.049059685
-0.035847563 0.05937845 -0.037467916 0.13506296 0.060037516 0.029454628 0.019843416 0.038206745
-0.038981855 -0.012453438 -0.06281703 0.06008031 0.053282373 0.07956267 0.08730459 -0.13070907
0.0024732274 0.07022868 0.025849693 0.10603804 -0.041087843 -0.09269195 -0.014808572 -0.05417432
-0.018224953 -0.03736907 -0.13442057 0.029077932 0.035577517 0.0004327503 -0.068208165 -0.01751211
00000000: 6fae b23c bc34 913d 1c45 b83c 45a7 c2bd
00000010: a401 84bc cd2b fc3a dd16 c1bb 9fd4 af3d
00000020: f2f2 9f3d a111 e23b cc1d 293d 3429 17bd
00000030: 4ad0 d53b 5f60 ed3c 46fb 363d f067 00ba
00000040: a2ce 2e3c 1a21 28bd 3e58 96bc 7e14 c6bd
00000050: 263a a13d 4ea1 abbd 0d9d a0bd c920 c5bd
00000060: 2cc8 f6bc c609 09be d4d0 833c ac12 b83d
00000070: 9ebd 873d 49af fe3c a568 da3d df56 873d
00000080: 6fe2 9c3d d391 953d d1bc 98bd 0a20 89bd
00000090: 3439 4a3d 7c3d b6bd f153 d1bc 9fdd d0bd
000000a0: e923 ba3c 4ed2 863d 3589 88bc 541f 9bbd
000000b0: d90d a93d e956 bcbd 2ccd 3abd 5ba6 c33c
000000c0: c2c1 933d 2ff5 5b3c ea84 b33c e01d f23c
000000d0: a03d 893c b9a5 5dbd 2a08 a7bd dc93 d93d
000000e0: 2f9d 29bd 403e d93d 0230 abbd 63d4 94bc
000000f0: 312e 53bd 2aa8 68bd 5abd 8d3d 48c7 33bd
00000100: 1b42 053d 9a3c 273d f932 3bbc 8c52 80bd
00000110: 8c4f 87bd 99cb 05bd 6fda 8c3d 6b30 b3bd
00000120: e470 183d d1f7 19bd 58c5 15bd 62f7 5a3d
00000130: 0073 5c3c a22e 363d 93ac edbb d09c 6dbd
00000140: a5c2 db3c 2b48 733c 16c9 0c3e 504e 57bd
00000150: 6796 28be 867d 5cbd dcfe 253e 4567 4fba
00000160: 92f0 b63d 612d 95bd f34c aabb cb34 14be
00000170: a0a0 0ebd 60c8 9ebb 774b 463d b0d8 b43c
00000180: 5260 27bd 3193 30bd 4f98 a33d 01a7 1dbd
00000190: 9566 e13c 4da1 d0bc ddb8 edbc 32f8 41bc
000001a0: a2fc d63d d98b f0bc 0464 55bb 6cc1 edbc
000001b0: 5b22 8ebd 2740 27bb e84b c6bd 4677 043c
000001c0: 1141 2ebb 0abd 89bd cd59 7dbc 8b17 b1bc
000001d0: 4503 803c 2fb1 8a3d 9568 1c3d 370e 153c
000001e0: c2b2 afbc 2904 823b 2fba 29bd bbd9 8ebc
000001f0: cfc5 9c3d fb3d 1e3d c75b 933d 8253 68bc
00000200: 3b89 07bd a71d b73d 5cdd 913c 2281 5dbd
00000210: 74ef 49bd 4108 39bc 6422 58bd 4af1 8f3c
00000220: 7126 f53c 8d7e f9bd 5ddd 963d cef8 6dbd
00000230: e829 8b3d e492 b53d b062 793d 1a79 a13c
00000240: de82 2ebd 9de8 d23d 323e 6a3d 1d3a 21bd
00000250: 50bc 39bd 02d5 cabd 1e8f 9b3d 16cc dcbd
00000260: 892e af3c 401d 103d 65ac 41bd 0664 7f3d
00000270: 449f 8e3d 30b9 fbbd 3fe6 0dbe 075d a039
00000280: d3ad a33d f6e3 8abd 650d b8bd e82f 3b3d
00000290: d4d2 06bd da06 d4bc 7f3b bb3c 1743 c83c
000002a0: 55cf 4d3d b388 97bc cb63 b4bc ea0b 003e
000002b0: dcb3 b53d 44c9 673d d3c0 7f3a fa63 c83d
000002c0: 0a0f 4dbd 95f9 a0bc 6ef1 bbbc 9383 21bd
000002d0: 24bc 033d adb9 ae3c 28ba 583d 16f5 88bd
000002e0: dd0b 423c bb5d c8bc 39c0 ab3d a2ee e93a
000002f0: 75b3 36bd 33f4 19bd 0e0a a8bb 2a3a 8e3c
00000300: 40ae 24bc bcad 8ebd 60ac a1bc 5cfb 6abd
00000310: 8c82 a73d 80df 8d3d 1e71 113d 4734 edbc
00000320: d6c3 d03d e106 18bc 4cb0 c5bd 9b18 48bd
00000330: 36d7 3b3d 6a52 e03d f528 debc c294 473c
00000340: 1cf2 1b3c 0c8a 51bd 7ca1 5ebc 6622 3cbb
00000350: 27cf f4bd bf3b 26bc 4c14 93bd b3d8 efbd
00000360: 0abc 64bc 968c af3c 2e94 97bd 9573 e8bd
00000370: 5427 81bc 8dcf d8bb 6304 d5bd cff2 483d
00000380: e5d4 12bd d136 733d f577 19bd f24d 0a3e
00000390: e6e9 753d d54a f13c a98e a23c ad7e 1c3d
000003a0: 70ab 1fbd 8109 4cbc 37a6 80bd c516 763d
000003b0: 9e3e 5a3d c1f1 a23d c0cc b23d 99d8 05be
000003c0: df15 223b 0ed4 8f3d bcc2 d33c 792a d93d
000003d0: ba4b 28bd 47d5 bdbd a79f 72bc e4e5 5dbd
000003e0: 7f4c 95bc 4f10 19bd 8ca5 09be d834 ee3c
000003f0: bbb9 113d c3e2 e239 b9b0 8bbd 8e75 8fbc

layers.2.linear.bias f4 [128]
0.060183305 -0.07589051 -0.062448017 0.09517291 0.04835668 -0.085588664 -0.002401149 -0.03686228
0.034480017 -0.07068539 0.07968469 0.032836515 0.009176289 0.009384846 -0.040931523 -0.07513263
-0.05575549 0.065506525 -0.070370995 -0.039159615 0.083635114 0.08712515 0.058142256 -0.01291068
-0.028032806 -0.014324721 0.08978201 -0.004389963 -0.06823357 0.0744266 0.08562633 0.05164573
0.04805246 -0.040298037 0.048049264 0.058849357 -0.075478375 -0.10685698 0.027806131 0.089182496
-0.0021484627 -0.045810413 -0.014196603 -0.08249739 0.055483025 0.009567121 0.0018477397 0.03144265
0.03754735 0.0660568 0.03485695 -0.0076285885 0.062952615 -0.03480216 -0.031956106 0.06949518
-0.05340185 -0.05133628 0.045605037 0.02441206 -0.06274758 -0.025199875 0.0074593606 -0.063024715
0.009587135 -0.0545933 0.02894621 -0.08092743 -0.10011088 -0.032419365 -0.03656775 0.07061735
0.066339 0.0055264323 0.006366656 -0.06423279 0.035042845 -0.048000183 -0.07207267 -0.020874722
-0.051381342 0.07963569 0.09136159 -0.0894272 0.042801935 -0.0970329 -0.073755056 -0.071456015
0.068710335 -0.032282557 -0.09381828 0.053004075 0.023943124 -0.0154542215 -0.092927694 -0.07269212
-0.045581073 -0.08967369 -0.02152247 0.031892244 0.083965644 0.008030638 0.08764421 0.009867311
0.0571918 -0.0012385071 -0.0052816817 -0.048420046 -0.08284186 0.06614954 0.06533959 -0.06301993
-0.049633212 -0.05284864 0.03636753 0.009783478 -0.08632159 -0.035393763 0.06444533 -0.06894314
-0.054057978 -0.04677363 0.071036175 -0.08919994 -0.061590433 -0.0042693876 0.08550489 0.066923074
00000000: c582 763d 7c6c 9bbd 7ec9 7fbd 04ea c23d
00000010: a711 463d 1c49 afbd 985c 1dbb e7fc 16bd
00000020: eb3a 0d3d 80c3 90bd ba31 a33d 957f 063d
00000030: 2558 163c e6c2 193c d0a7 27bd 23df 99bd
00000040: de5f 64bd 4928 863d ab1e 90bd d565 20bd
00000050: e348 ab3d ac6e b23d 9326 6e3d 5187 53bc
00000060: 0ea5 e5bc 3cb2 6abc a1df b73d aed9 8fbb
00000070: 0bbe 8bbd f96c 983d db5c af3d 798a 533d
00000080: a8d2 443d 8e0f 25bd 4ecf 443d 060c 713d
00000090: 6894 9abd d5d7 dabd afc9 e33c 50a5 b63d
000000a0: 39cd 0cbb b3a3 3bbd de98 68bc 64f4 a8bd
000000b0: 2b42 633d 6abf 1c3c db2f f23a 02ca 003d
000000c0: 40cb 193d ca48 873d 29c6 0e3d 3df9 f9bb
000000d0: 4ded 803d b68c 0ebd 68e4 02bd 7d53 8e3d
000000e0: e6bb 5abd fe45 52bd 59cc 3a3d cdfb c73c
000000f0: ce81 80bd f86f cebc a76d f43b 1a13 81bd
00000100: 5c13 1d3c 399d 5fbd 9a20 ed3c 48bd a5bd
00000110: ef06 cdbd 2bca 04bd 11c8 15bd d49f 903d
00000120: bedc 873d 1317 b53b 629f d03b 7b8c 83bd
00000130: 1689 0f3d d79b 44bd d69a 93bd 7701 abbc
00000140: 3e75 52bd 0918 a33d c91b bb3d 9c25 b7bd
00000150: 1551 2f3d 2fb9 c6bd e40c 97bd 8857 92bd
00000160: 01b8 8c3d b73a 04bd cc23 c0bd cd1a 593d
00000170: 5f24 c43c b433 7dbc e050 bebd 9bdf 94bd
00000180: 38b3 3abd d7a6 b7bd e44f b0bc 71a1 023d
00000190: 2ef6 ab3d f092 033c cf7e b33d 81aa 213c
000001a0: f341 6a3d 6755 a2ba f511 adbb 1954 46bd
000001b0: fea8 a9bd 6979 873d c3d0 853d 9810 81bd
000001c0: 324c 4bbd d177 58bd 1ef6 143d e24a 203c
000001d0: 60c9 b0bd 0df9 10bd eafb 833d 1032 8dbd
000001e0: e66b 5dbd b595 3fbd 6a7b 913d 75ae b6bd
000001f0: 4046 7cbd 38e6 8bbb 301d af3d f70e 893d

layers.4.linear.weight f4 [128, 128]
-0.008019333 -0.037469413 -0.059557356 -0.0599451 0.0010764936 -0.061475173 -0.039330814 -0.04129191
-0.043097842 0.003270853 0.07745296 0.04215877 -0.098278 -0.08543913 -0.032066554 -0.0022099554
-0.06859342 0.01498588 0.07459161 0.0066590323 0.07159258 -0.04871922 0.013634426 -0.047025412
-0.05485909 0.07290154 -0.08852496 0.009966423 0.016371852 -0.048764493 0.051569086 -0.037981443
0.053918276 0.051663734 0.021952786 -0.08800795 -0.06333337 0.05274364 0.076969534 0.06553284
-0.05934752 0.017316885 -0.009254767 0.0132581685 -0.020268641 0.05702406 -0.046627544 -0.024396278
-0.06108184 -0.06270384 0.031288963 -0.03932716 0.012644524 0.025453381 -0.017007096 -0.017060729
-0.022050673 0.012667323 0.04748941 -0.04286435 0.016877439 0.033888426 -0.07954139 -0.052292243
0.062362086 0.070465006 0.0007914172 0.02105317 -0.035907328 0.016642366 -0.03588224 -0.016900372
-0.018912425 -0.0945418 -0.035933323 -0.023164518 -0.059492942 0.057022177 -0.10027555 -0.020068375
0.060960855 -0.0628271 0.055329926 -0.08732949 -0.059834592 0.03707204 -0.004457139 0.021687208
-0.06308433 -0.008949761 0.024929848 -0.0016898691 0.03449675 -0.0074730837 -0.023572784 -0.06794106
-0.04390646 0.023864288 -0.08024625 -0.070339836 -0.054407854 0.063514985 0.064627565 -0.02559764
0.050052073 -0.061469 -0.03552008 0.01874017 -0.0833424 -0.033411507 0.0394491 -0.059560683
-0.08860485 0.07222662 0.00013358891 0.052490417 -0.011564058 0.051631443 -0.07159736 -0.03242224
-0.04293143 -0.0984904 -0.031846028 -0.048315335 0.030954858 0.05788847 -0.07533473 0.0018703432
0.03274058 0.053250466 -0.0062427134 -0.021128984 -0.0076329364 0.0753701 -0.065390185 0.026198722
-0.064187005 0.0810646 0.054039583 0.026169486 0.06674332 -0.053139683 0.036609124 0.09043628
0.053752255 0.10154265 0.048732787 -0.072767854 0.09968119 0.045359336 -0.15572783 0.08053578
0.0049930047 0.082581215 -0.044943564 -0.013405701 -0.040435817 -0.026210306 0.04005892 -0.06989147
-0.074517444 -0.036416534 -0.06530061 -0.054085273 0.07229478 -0.0013578058 0.11648912 -0.006630345
0.050813064 0.055114973 0.024315575 -0.08566084 -0.045934062 0.09343148 0.09555033 0.00030806707
-0.043436203 0.0035662402 0.037144106 -0.020166393 0.06642079 0.09458483 0.059109785 0.023588121
0.12300477 -0.061583374 0.09095983 0.04464501 0.04756146 0.07633167 0.1165481 -0.030912727
-0.051332906 -0.0049099335 0.0252214 -0.048737854 0.062908106 0.07114157 0.051332787 0.0009400553
0.09929434 -0.06663892 0.03778191 0.053327408 0.07443462 -0.15561086 0.017387228 0.0784139
-0.009500408 0.026897497 0.015531351 0.023442665 -0.058993027 -0.056571048 -0.038934715 0.027041852
0.061366078 0.07665551 -0.043465976 -0.02683007 0.020182293 0.25810724 -0.0119713005 0.21434121
0.0027772887 0.054231785 -0.026262255 0.03589237 -0.014694157 0.025158746 -0.00876499 0.07504661
-0.0638161 -0.04958702 -0.069610074 0.019482477 0.09929077 -0.002338417 0.08351368 0.006000316
0.038005274 -0.013279747 -0.032581422 0.0026127542 -0.06846423 -0.10066733 -0.03623555 -0.080177635
-0.06207731 0.07373812 -0.020269679 0.09337592 0.09456357 0.07184204 -0.027417237 -0.034801796
00000000: 8563 03bc 8779 19bd 6af2 73bd fe88 75bd
00000010: 2219 8d3a 64cd 7bbd 5919 21bd b521 29bd
00000020: 5d87 30bd cf5b 563b a89f 9e3d adae 2c3d
00000030: fa45 c9bd b6fa aebd 3858 03bd e6d4 10bb
00000040: b57a 8cbd 5687 753c 7cc3 983d 0334 da3b
00000050: 219f 923d ce8d 47bd ed62 5f3c b89d 40bd
00000060: edb3 60bd 674d 953d 934c b5bd 354a 233c
00000070: 431e 863c 47bd 47bd 1b3a 533d 6e92 1bbd
00000080: 69d9 5c3d 5a9d 533d 54d6 b33c 833d b4bd
00000090: edb4 81bd b709 583d 34a2 9d3d 1536 863d
000000a0: 6316 73bd 24dc 8d3c 4ea1 17bc ca38 593c
000000b0: 6c0a a6bc 1092 693d 86fc 3ebd b4da c7bc
000000c0: f430 7abd df6a 80bd db28 003d 8415 21bd
000000d0: fa2a 4f3c 9c83 d03c 7752 8bbc f1c2 8bbc
000000e0: 9da3 b4bc 9b8a 4f3c 4184 423d 8792 2fbd
000000f0: 8e42 8a3c 97ce 0a3d 99e6 a2bd 6430 56bd
00000100: 636f 7f3d f54f 903d 1c77 4f3a b377 ac3c
00000110: 9013 13bd 9255 883c 41f9 12bd a672 8abc
00000120: 3bee 9abc 229f c1bd d22e 13bd 84c3 bdbc
00000130: dfae 73bd 1690 693d 445d cdbd 6f66 a4bc
00000140: 17b2 793d 7fab 80bd a2a1 623d ced9 b2bd
00000150: 1e15 75bd dad8 173d 310d 92bb 5fa9 b13c
00000160: 5b32 81bd 05a2 12bc ae39 cc3c 997e ddba
00000170: 774c 0d3d c5e0 f4bb b61b c1bc af24 8bbd
00000180: 43d7 33bd 0a7f c33c 2558 a4bd 550e 90bd
00000190: c5da 5ebd 2514 823d 755b 843d 24b2 d1bc
000001a0: 6703 4d3d ebc6 7bbd 817d 11bd fc84 993c
000001b0: 6caf aabd 81da 08bd 6195 213d e7f5 73bd
000001c0: 7676 b5bd 8deb 933d 0014 0c39 3100 573d
000001d0: 2d77 3dbc 7e7b 533d a3a1 92bd 2fcd 04bd
000001e0: ded8 2fbd 56b5 c9bd fb70 02bd 4de6 45bd
000001f0: 0b95 fd3c 761c 6d3d 1849 9abd 4e26 f53a
00000200: fd1a 063d 291d 5a3d ad8f ccbb b116 adbc
00000210: b61d fabb a45b 9a3d 4aeb 85bd b49e d63c
00000220: 7a74 83bd 3205 a63d 9c58 5d3d 6461 d63c
00000230: b9b0 883d ffa8 59bd 73f3 153d a836 b93d
00000240: 532b 5c3d 98f5 cf3d 089c 473d 5007 95bd
00000250: a725 cc3d b6ca 393d 1e77 1fbe f1ef a43d
00000260: 5c9c a33b 5720 a93d be16 38bd 96a3 5bbc
00000270: 07a0 25bd ffb6 d6bc d214 243d 4223 8fbd
00000280: 9a9c 98bd 8129 15bd 54bc 85bd 8588 5dbd
00000290: 490f 943d 67f8 b1ba d991 ee3d 5d43 d9bb
000002a0: 5c21 503d 3dc0 613d 7531 c73c f36e afbd
000002b0: 5b25 3cbd 0159 bf3d e4af c33d 1084 a139
000002c0: 29ea 31bd 95b7 693b 6b24 183d fe33 a5bc
000002d0: a007 883d b1b5 c13d 1a1d 723d e03b c13c
000002e0: ede9 fb3d d93e 7cbd 2649 ba3d b0dd 363d
000002f0: cecf 423d c753 9c3d c5b0 ee3d b03c fdbc
00000300: 7442 52bd 82e3 a0bb 1c9d ce3c 58a1 47bd
00000310: f7d5 803d acb2 913d 5442 523d 0b6e 763a
00000320: d55a cb3d fc79 88bd 34c1 1a3d d76d 5a3d
00000330: 2e71 983d 7458 1fbe a96f 8e3c 7897 a03d
00000340: 99a7 1bbc 2458 dc3c 3577 7e3c d50a c03c
00000350: aca2 71bd 0bb7 67bd 027a 1fbd e086 dd3c
00000360: ff5a 7b3d 90fd 9c3d 6109 32bd bcca dbbc
00000370: 5655 a53c a226 843e 4623 44bc 437c 5b3e
00000380: 2c03 363b 2622 5e3d f123 d7bc e103 133d
00000390: c3bf 70bc b719 ce3c 089b 0fbc 09b2 993d
000003a0: 04b2 82bd c21b 4bbd ba8f 8ebd b799 9f3c
000003b0: f658 cb3d 2140 19bb 3809 ab3d 4c9e c43b
000003c0: 6bab 1b3d 4c93 59bc 1974 05bd be3a 2b3b
000003d0: f936 8cbd ac2a cebd ba6b 14bd 2c34 a4bd
000003e0: c744 7ebd 0304 973d 990c a6bc e03b bf3d
000003f0: 8caa c13d eb21 933d 1d9a e0bc 548c 0ebd

layers.4.linear.bias f4 [128]
-0.035167158 -0.02705857 0.0061107697 0.08828632 0.04291049 -0.056175873 -0.0055023506 -0.039947458
-0.038125243 0.063224725 -0.07344116 -0.081754886 -0.0097650355 0.03498979 0.06643833 -0.0718216
-0.03469422 -0.06630749 -0.002077227 0.0053079682 -0.004503237 0.079596415 -0.03778629 -0.04859407
-0.07070325 -0.02768422 0.06872545 -0.04751275 -0.029481186 -0.017753357 -0.072774336 0.0051222094
-0.0830397 -0.064596094 -0.039740633 -0.014854444 -0.078737184 -0.041462928 -0.016138714 0.07432753
-0.050145704 -0.06560077 -0.06758313 -0.04136271 -0.07156199 -0.04661628 0.01716511 -0.008727107
0.045051105 0.04226785 0.04926833 -0.005048874 0.068196885 -0.07038916 0.037294045 0.04435185
0.075645454 -0.054211956 0.03539259 0.07529022 0.030234624 -0.06954994 -0.050401304 0.030837484
0.03328469 -0.010572822 -0.0139693795 -0.0089749005 0.03110687 -0.05231128 -0.03416666 -0.026056552
-0.04413293 -0.046206865 0.06710309 0.042329237 0.007277934 -0.086881824 0.03039462 -0.07695612
0.07333683 -0.04525291 0.005803518 0.025278931 0.033569876 -0.058842693 -0.061604276 -0.053418014
0.071257815 0.0152100185 -0.06433284 -0.027434463 0.0412717 0.007775035 -0.07649664 0.04785586
-0.0031328464 0.07673427 0.010038176 0.059729546 -0.09099199 0.0019641062 0.06986516 -0.0936601
0.038814615 0.08816605 -0.062082607 0.08048118 -0.0044194697 0.008384769 0.0038311556 0.073502734
0.06990809 -0.03651733 0.072565645 -0.027923672 0.076740496 0.0259949 0.040823154 0.15091404
0.0028469283 -0.113368295 0.07316117 -0.0021113765 -0.0040196683 0.06983316 -0.015686018 0.0154104065
00000000: 700b 10bd efa9 ddbc da3c c83b 75cf b43d
00000010: e9c2 2f3d ac18 66bd 104d b4bb f29f 23bd
00000020: 3729 1cbd f77b 813d 5268 96bd 1b6f a7bd
00000030: 87fd 1fbc 7451 0f3d d210 883d 3417 93bd
00000040: 871b 0ebd 39cc 87bd 1622 08bb 77ee ad3b
00000050: e48f 93bb 7203 a33d ccc5 1abd 930a 47bd
00000060: decc 90bd 04ca e2bc eebf 8c3d bb9c 42bd
00000070: 8782 f1bc 7d6f 91bc b60a 95bd 35d8 a73b
00000080: b810 aabd f54a 84bd 13c7 22bd 0e60 73bc
00000090: f640 a1bd 08d5 29bd 5635 84bc 0839 983d
000000a0: 9565 4dbd b259 86bd 0669 8abd f26b 29bd
000000b0: 188f 92bd b6f0 3ebd d89d 8c3c 24fc 0ebc
000000c0: 8287 383d 0e21 2d3d 97cd 493d 0671 a5bb
000000d0: cfaa 8b3d 3128 90bd a4c1 183d 49aa 353d
000000e0: 01ec 9a3d 5b0d 5ebd d2f7 103d c231 9a3d
000000f0: 9aae f73c 3370 8ebd 9971 4ebd e49e fc3c
00000100: 8755 083d a139 2dbc d3df 64bc 760b 13bc
00000110: d6d3 fe3c 5a44 56bd 57f2 0bbd 8d74 d5bc
00000120: bbc4 34bd 6943 3dbd 586d 893d 6c61 2d3d
00000130: bc7b ee3b 19ef b1bd 23fe f83c 2c9b 9dbd
00000140: 9f31 963d 1e5b 39bd 702b be3b c315 cf3c
00000150: 9180 093d 0905 71bd c454 7cbd d9cc 5abd
00000160: 9eef 913d 7133 793c f0c0 83bd 3dbe e0bc
00000170: 840c 293d b9c5 fe3b 45aa 9cbd 8204 443d
00000180: 7150 4dbb db26 9d3d 2977 243c f8a6 743d
00000190: 025a babd 3cb8 003b 7715 8f3d ded0 bfbd
000001a0: 13fc 1e3d 6790 b43d 554a 7ebd 51d3 a43d
000001b0: 33d1 90bb 4560 093c 2014 7b3b 9a88 963d
000001c0: f92b 8f3d 3293 15bd 4c9d 943d 2fc0 e4bc
000001d0: 1f2a 9d3d 42f3 d43c 2e36 273d 3689 1a3e
000001e0: 8893 3a3b a32d e8bd 86d5 953d 055f 0abb
000001f0: 6cb7 83bb b004 8f3d f77f 80bc ee7b 7c3c

layers.6.linear.weight f4 [128, 128]
0.0501757 -0.055674136 -0.085892275 0.008074297 -0.041918594 -0.025050998 0.015046293 0.032206327
-0.078968346 -0.081326656 -0.058929265 -0.07363932 -0.019817524 -0.09604839 0.037655085 0.011217871
-0.082720116 0.04403032 -0.07477103 0.009937904 0.06426783 -0.021531696 0.013593088 -0.040480852
0.04931695 0.06701706 -0.07158041 -0.014839078 -0.07849269 -0.07357674 -0.0427324 -0.07252064
-0.028283216 -0.049180977 0.026260471 0.010127428 -0.03194362 -0.06928073 -0.06736829 0.019243807
0.043966677 0.045138072 -0.07145788 0.056492608 -0.08222698 0.07971383 0.0667305 -0.039132666
0.043137413 0.039785776 -0.037341222 -0.05292152 0.051033657 0.020388624 -0.09704756 0.026497154
0.07587792 0.04077745 0.048998352 0.039754186 -0.09856744 0.053713266 0.010803807 -0.096970424
-0.076861516 -0.071188055 0.07993846 0.07466644 -0.100258805 0.04591705 -0.004987969 0.03944335
-0.08507133 0.07634033 0.053196825 -0.09834507 0.04027287 -0.037607513 -0.06299158 -0.08087603
-0.087414145 0.008997087 -0.01828173 -0.07192654 0.07426795 -0.084722556 -0.058517072 0.030415999
-0.07759873 -0.06705859 -0.027973006 -0.05306218 0.008597404 -0.029729078 -0.05170279 0.052972693
0.06569159 -0.012556075 -0.032045443 -0.041371267 -0.061540045 -0.040420678 -0.03973772 0.07135785
-0.044530883 -0.046445172 0.039546985 -0.029423498 -0.037044365 0.047607947 0.02898533 -0.080095164
-0.06471567 0.019983383 -0.041120928 0.037345015 0.02986488 0.0069440953 -0.058922645 0.01600753
-0.052392334 0.06930393 0.057228357 -0.04692679 -0.027649939 0.06816564 -0.082648605 -0.056540847
-0.097087584 0.008828208 -0.085197926 0.040541604 0.013780085 -0.06761581 -0.10696587 -0.024389442
-0.26255116 -0.04735537 -0.1022721 -0.12358075 0.25552285 -0.0062076803 0.03403061 -0.10612408
0.33901146 0.05366624 0.006515037 -0.39251038 -0.2676516 -0.00198745 -0.0037959795 -0.032021604
0.0092674615 0.048451215 0.028450303 -0.07777405 0.07385013 -0.39708665 -0.09169623 0.18203396
-0.07903343 0.0673743 0.14197402 0.037950177 -0.08668105 -0.035726532 -0.2919018 0.047535095
0.059472997 -0.014238848 0.04160368 0.054120217 -0.06315935 -0.23060189 -0.03234054 -0.062013656
-0.20599705 0.008370067 0.098405324 -0.4168725 -0.112769224 -0.39193493 0.009177904 0.02784629
0.0704073 0.07774705 -0.22432089 -0.05223559 0.06361449 -0.23951423 -0.33322564 -0.14831342
-0.2161629 -0.41833633 0.008497237 0.027503991 0.052307017 0.04663385 0.08864679 -0.2945982
-0.07603557 -0.029146813 0.06005223 0.106852345 -0.08714273 -0.044640962 -0.028167592 0.07710302
-0.14885817 0.029787647 -0.026598584 -0.24571308 0.07242696 0.15121436 -0.13223924 -0.052644342
-0.22692372 0.05758317 0.6230246 -0.018470675 -0.01394307 -0.12536295 0.06861087 -0.027743759
0.011157881 -0.16426577 0.07698089 -0.06676892 -0.1438589 -0.040135525 -0.29184678 0.070008285
-0.022784906 -0.064231254 -0.04324579 -0.036950186 -0.06951948 -0.024541646 0.04848309 0.07951786
0.032390047 -0.03297284 0.016371673 -0.020594023 -0.060323834 0.054850556 0.045601 -0.015239932
0.09076651 -0.100434676 -0.013567183 0.0081784865 0.045405038 0.041867066 -0.057066955 -0.4027938
00000000: 0985 4d3d 900a 64bd 4ae8 afbd 0e4a 043c
00000010: d5b2 2bbd c037 cdbc ba84 763c c8ea 033d
00000020: 28ba a1bd 978e a6bd d05f 71bd 36d0 96bd
00000030: 5c58 a2bc 05b5 c4bd 383c 1a3d 29cb 373c
00000040: 2a69 a9bd 2359 343d 8e21 99bd 97d2 223c
00000050: da9e 833d 3d63 b0bc 8bb5 5e3c 40cf 25bd
00000060: 9200 4a3d 3e40 893d c098 92bd 9b1f 73bc
00000070: c7c0 a0bd 67af 96bd 2b08 2fbd b485 94bd
00000080: 34b2 e7bc fe71 49bd 3320 d73c 83ed 253c
00000090: 50d7 02bd 0ee3 8dbd 63f8 89bd 30a5 9d3c
000000a0: 6716 343d b3e2 383d 8258 92bd cb64 673d
000000b0: 9e66 a8bd 0141 a33d 00aa 883d 9349 20bd
000000c0: dbb0 303d 69f6 223d 1cf3 18bd 3cc4 58bd
000000d0: ab08 513d 0b06 a73c dfc0 c6bd 8f10 d93c
000000e0: e265 9b3d 4106 273d 7fb2 483d 49d5 223d
000000f0: badd c9bd 7102 5c3d 7302 313c 6e98 c6bd
00000100: 9269 9dbd 0bcb 91bd c6b6 a33d b8ea 983d
00000110: 7d54 cdbd 8413 3c3d 1e72 a3bb 5a8f 213d
00000120: e139 aebd 5258 9c3d eae4 593d 2469 c9bd
00000130: 2af5 243d 560a 1abd bb01 81bd 55a2 a5bd
00000140: 3006 b3bd 8568 133c 91c3 95bc 394e 93bd
00000150: cc19 983d 0583 adbd 99af 6fbd f92a f93c
00000160: 15ec 9ebd 0456 89bd a527 e5bc ba57 59bd
00000170: 20dc 0c3c 658a f3bc 4ec6 53bd e5f9 583d
00000180: 5089 863d ffb7 4dbc 1542 03bd eb74 29bd
00000190: 6a11 7cbd 2790 25bd 05c4 22bd 1124 923d
000001a0: 0466 36bd 4b3d 3ebd 05fc 213d 8c09 f1bc
000001b0: d5bb 17bd 8d00 433d a572 ed3c ef08 a4bd
000001c0: a689 84bd 31b4 a33c 6b6e 28bd 16f7 183d
000001d0: 31a7 f43c 4b8b e33b df58 71bd 3922 833c
000001e0: 5899 56bd 38ef 8d3d 4868 6a3d 4e36 40bd
000001f0: 2082 e2bc 6d9a 8b3d ac43 a9bd 6097 67bd
00000200: dbd5 c6bd 30a4 103c 407c aebd f40e 263d
00000210: dec5 613c 287a 8abd ec10 dbbd 5ecc c7bc
00000220: 1b6d 86be b4f7 41bd 0974 d1bd e717 fdbd
00000230: e4d3 823e cc69 cbbb ae63 0b3d 9557 d9bd
00000240: e992 ad3e 22d1 5b3d 177c d53b 1ff7 c8be
00000250: a109 89be e13f 02bb f8c5 78bb 1629 03bd
00000260: 8dd6 173c c874 463d 9c10 e93c 0048 9fbd
00000270: bd3e 973d f14e cbbe 3ccb bbbd 1c67 3a3e
00000280: 47dc a1bd 89fb 893d a361 113e a571 1b3d
00000290: d685 b1bd fc55 12bd 2774 95be 29b4 423d
000002a0: f599 733d 0f4a 69bc 9f68 2a3d 29ad 5d3d
000002b0: b059 81bd e722 6cbe 8477 04bd 0802 7ebd
000002c0: e4f0 52be 9b22 093c bb88 c93d 5070 d5be
000002d0: 8df3 e6bd b2ab c8be eb5e 163c e71d e43c
000002e0: b431 903d d839 9f3d 60b4 65be fcf4 55bd
000002f0: 5048 823d 3843 75be 8d9c aabe 79df 17be
00000300: cf59 5dbe 2e30 d6be ff37 0b3c 0d50 e13c
00000310: e23f 563d 2303 3f3d 738c b53d 93d5 96be
00000320: 89b8 9bbd 4cc5 eebc 54f9 753d 67d5 da3d
00000330: e377 b2bd 71d9 36bd b9bf e6bc 30e8 9d3d
00000340: 476e 18be 3905 f43c 46e5 d9bc 369c 7bbe
00000350: 9654 943d f0d7 1a3e b969 07be 98a1 57bd
00000360: b15e 68be 54dc 6b3d 8a7e 1f3f d04f 97bc
00000370: 7971 64bc 255f 00be db83 8c3d e146 e3bc
00000380: 8bcf 363c 4935 28be 28a8 9d3d 25be 88bd
00000390: bf4f 13be 2665 24bd f16c 95be 8160 8f3d
000003a0: 69a7 babc ad8b 83bd 7f22 31bd 1459 17bd
000003b0: 3b60 8ebd 900b c9bc 3496 463d 43da a23d
000003c0: 6dab 043d 870e 07bd e31d 863c ccb4 a8bc
000003d0: 2016 77bd faaa 603d 1dc8 3a3d e8b0 79bc
000003e0: cbe3 b93d b2b0 cdbd e448 5ebc 0fff 053c
000003f0: a2fa 393d cd7c 2b3d 0abf 69bd fd3a cebe

layers.6.linear.bias f4 [128]
0.052971315 -0.01627882 0.0010575049 -0.03746321 -0.035012625 0.038678087 -0.053542815 -0.008843149
0.092206955 0.0414009 -0.07705813 -0.046619862 0.06977588 0.08086143 0.028171197 -0.058206953
-0.017433217 0.071593724 0.010028562 -0.015631864 0.043437313 0.07774461 0.08038981 0.0941408
-0.011901111 -0.024792867 0.006633193 -0.026224343 0.017217668 0.048127845 0.06400593 0.081623904
-0.01796757 0.006168404 -0.07132252 -0.022048553 -0.049583267 -0.067999855 0.07774741 0.08384649
0.06318639 0.03291482 0.042939667 -0.05925389 -0.06519737 0.024071198 -0.011340358 -0.060415052
-0.050304025 -0.056442343 0.008970651 0.0843712 -0.050969105 0.06114006 -0.03499522 -0.06174134
-0.030156793 -0.027144454 -0.08340097 -0.019111432 -0.012769357 -0.058342706 -0.06474217 -0.086817764
-0.0007213692 -0.08389736 -0.021358974 0.06279285 0.07074432 -0.027585784 0.010911564 0.0348164
-0.080267765 0.017282374 -0.07351367 -0.02106325 0.009355297 -0.02116958 0.07332574 0.03275493
-0.04372305 0.07390657 -0.05020892 0.013531775 -0.0258733 -0.07774115 -0.06216817 -0.0752026
0.04159808 -0.0007239114 -0.035310376 0.012424682 0.0046688686 0.029673863 0.067080125 -0.010417052
-0.022298612 -0.018726535 0.020310186 0.07383674 0.059403658 0.085810296 0.045191966 0.015490496
0.06510734 0.069941 -0.05218724 0.03702984 0.047767837 -0.02126514 0.06459167 -0.007881137
-0.006668905 0.014440715 -0.093416534 -0.07495998 -0.042020123 -0.0002731316 -0.06440494 0.008486703
0.05889805 0.05584502 0.032825086 0.04757556 0.08175804 0.06651595 0.07291992 -0.018306468
00000000: 73f8 583d 295b 85bc fa9b 8a3a 0673 19bd
00000010: 6669 0fbd ea6c 1e3d b64f 5bbd dbe2 10bc
00000020: 00d7 bc3d fd93 293d a7d0 9dbd 78f4 3ebd
00000030: a8e6 8e3d ad9a a53d 48c7 e63c 6a6a 6ebd
00000040: 1bd0 8ebc bb9f 923d d64e 243c 650e 80bc
00000050: 53eb 313d 9138 9f3d 6aa3 a43d e4cc c03d
00000060: e1fc 42bc 691a cbbc 425b d93b 6fd4 d6bc
00000070: 110c 8d3c b421 453d 8b15 833d 6f2a a73d
00000080: ba30 93bc 5320 ca3b 8b11 92bd 2b9f b4bc
00000090: d317 4bbd 8243 8bbd 093a 9f3d b5b7 ab3d
000000a0: de67 813d b1d1 063d 81e1 2f3d 35b4 72bd
000000b0: 3386 85bd f630 c53c e9cc 39bc c675 77bd
000000c0: 980b 4ebd 1630 67bd a3f9 123c cfca ac3d
000000d0: fbc4 50bd 006e 7a3d 2657 0fbd 7de4 7cbd
000000e0: 610b f7bc 0c5e debc 21ce aabd 948f 9cbc
000000f0: 9136 51bc c3f8 6ebd 8b97 84bd 83cd b1bd
00000100: 441a 3dba 61d2 abbd 04f9 aebc 8a99 803d
00000110: 66e2 903d 95fb e1bc 6bc6 323c a49b 0e3d
00000120: 6d63 a4bd c493 8d3c 568e 96bd d68c acbc
00000130: f646 193c d46b adbc ce2b 963d 092a 063d
00000140: f116 33bd 545c 973d dea7 4dbd 61b4 5d3c
00000150: 3ef4 d3bc c136 9fbd 0da4 7ebd d203 9abd
00000160: c062 2a3d dfc4 3dba 9da1 10bd e590 4b3c
00000170: 4ffd 983b 9a16 f33c 4e61 893d 48ac 2abc
00000180: 94ab b6bc 6468 99bc 8c61 a63c b737 973d
00000190: 4051 733d 4fbd af3d 361b 393d d9cb 7d3c
000001a0: ff56 853d 3a3d 8f3d 4ac2 55bd 9aac 173d
000001b0: 35a8 433d 3b34 aebc a348 843d e21f 01bc
000001c0: d486 dabb c098 6c3c 2b51 bfbd 9e84 99bd
000001d0: 4b1d 2cbd 1a33 8fb9 bde6 83bd d00b 0b3c
000001e0: 153f 713d bfbd 643d 9973 063d 97de 423d
000001f0: c270 a73d 8439 883d 0a57 953d 72f7 95bc

layers.8.linear.weight f4 [3, 128]
-0.075895905 -0.11608264 -0.048020527 0.071120314 -0.046718143 0.0691419 -0.010175956 0.04015484
0.051947188 0.032712255 0.027546324 0.020069076 0.009539689 -0.014271422 0.0038385533 0.3599832
-0.47346205 0.019463524 -0.018897008 -0.45955124 0.09743677 -0.06397944 0.088437386 0.08943714
0.03231476 0.09329325 0.09509081 -0.01943791 0.20151274 0.09898119 0.01257132 0.07599506
-0.04223678 0.09889237 -0.030718619 0.053790208 0.16074876 0.008120161 0.06585564 -0.090203896
-0.00087078067 -0.03982066 -0.077039614 -0.0040466394 0.06576273 -0.06819917 0.034823455 -0.100318275
0.10777981 0.04748794 0.030306457 0.08622789 0.031432446 0.02454999 0.028834881 0.073027596
-0.062805794 -0.03378327 -0.045783013 -0.049112435 -0.094965756 -0.07451087 0.20548314 0.046138026
0.002177201 -0.06296978 -0.010360165 0.032521106 -0.019368222 -0.016609246 -0.06096842 0.07525904
0.038623177 -0.07222 -0.044760782 0.008914404 0.025014276 0.105108045 0.051208656 -0.039676353
-0.0281499 -0.027110869 0.07062494 -0.018187122 0.10962072 0.13282552 0.054887883 -0.02375556
-0.020290894 -0.027381744 0.08854211 -0.064500585 -0.042577695 0.090002894 0.047632083 0.14031608
-0.016954975 -0.012495657 0.03408439 0.06424557 0.03865703 -0.0422554 0.002871374 0.031406377
0.09380206 -0.007829937 0.13083069 -0.08214487 0.037587762 -0.05709622 -0.028449805 -0.06339004
-0.050407577 -0.10463881 -0.11001147 0.22330727 0.033419427 -0.016498853 0.1047878 0.026283279
0.054178197 0.11400215 0.013276817 -0.055689026 0.08298768 -0.03620185 0.07687936 -0.04220426
-0.011657704 -0.20336522 0.1298 0.040959876 0.007896894 -0.049971577 -0.0009902782 -0.00012588123
0.021294486 -0.063649096 0.11509209 -0.17224921 0.07668019 0.04306031 -0.06699194 0.22962672
-0.2440307 -0.070863955 -0.060805745 -0.31077987 0.0020849232 0.029042106 -0.0009112936 0.028775388
0.020041397 -0.071117334 -0.05867651 0.02577354 0.31916234 -0.03212384 -0.01780435 0.10022081
-0.06116637 -0.043871243 0.07428522 -0.005964202 0.013982591 -0.0020232347 0.06633965 0.0984884
0.014200801 -0.010395468 0.028601862 -0.008666678 -0.055935193 0.006004998 0.06969133 -0.10695843
-0.0688332 0.10415684 0.08568817 0.026890647 -0.300788 -0.049408488 0.06583405 0.1058103
-0.0076360796 -0.025336862 -0.081643745 -0.0041019768 0.0351502 0.022954773 0.20287752 0.05288183
0.087605104 0.008702733 -0.043679107 -0.041358326 -0.06471635 0.0111071 -0.06943647 -0.023630645
-0.036899798 -0.005915949 0.07937326 0.15846482 0.059641637 -0.0035184505 0.027840924 -0.046157923
-0.067963615 0.11718264 -0.06991358 -0.06498447 0.084776245 -0.15344475 0.083057426 -0.031212851
0.044165004 0.054063912 -0.02708822 -0.034056485 0.04276814 0.10945859 0.07534246 0.09827634
-0.06270264 0.04058624 0.051863533 0.011405812 0.080489025 0.116930135 0.063793965 0.0528177
-0.006990067 0.016038178 -0.035507463 0.11780937 0.05535685 -0.008791259 0.1070448 -0.06614475
-0.051357817 0.085641906 -0.041613296 0.4590045 0.11182209 0.09076319 0.07853006 -0.07546336
0.041447334 -0.06874527 0.038813643 0.011305835 0.06212523 0.04669556 -0.03503045 0.075492576
00000000: 506f 9bbd bcbc edbd 2cb1 44bd 87a7 913d
00000010: 865b 3fbd 459a 8d3d 0eb9 26bc 6779 243d
00000020: 93c6 543d 49fd 053d d4a8 e13c e767 a43c
00000030: 5b4c 1c3c afd2 69bc 3d90 7b3b b84f b83e
00000040: 9e69 f2be f871 9f3c e6cd 9abc 4d4a ebbe
00000050: ee8c c73d a707 83bd a91e b53d d22a b73d
00000060: 7b5c 043d 8810 bf3d f8be c23d 403c 9fbc
00000070: 5b59 4e3e a6b6 ca3d f0f7 4d3c 4ca3 9b3d
00000080: 7900 2dbd 1588 ca3d 9da5 fbbc 1f53 5c3d
00000090: 539b 243e 6c0a 053c 52df 863d d2bc b8bd
000000a0: 1a45 64ba fd1a 23bd f2c6 9dbd ac99 84bb
000000b0: 9cae 863d 02ac 8bbd 0aa3 0e3d ab73 cdbd
000000c0: a9bb dc3d b782 423d 3f45 f83c 3f98 b03d
000000d0: 4fbf 003d 101d c93c 2137 ec3c 7e8f 953d
000000e0: 53a0 80bd 5360 0abd f886 3bbd 1f2a 49bd
000000f0: 687d c2bd 2899 98bd 2c6a 523e 3afb 3c3d
00000100: 5faf 0e3b 4df6 80bd aebd 29bc da34 053d
00000110: 1baa 9ebc 1d10 88bc 06ba 79bd 6921 9a3d
00000120: 5633 1e3d 14e8 93bd 1557 37bd b80d 123c
00000130: bdea cc3c e342 d73d 2bc0 513d ac83 22bd
00000140: 9e9a e6bc 9d17 debc cfa3 903d 29fd 94bc
00000150: d480 e03d 6a03 083e 1ed2 603d 059b c2bc
00000160: 1739 a6bc ae4f e0bc 9155 b53d e218 84bd
00000170: f365 2ebd 7053 b83d dc19 433d 05af 0f3e
00000180: 29e5 8abc 96ba 4cbc 139c 0b3d 2e93 833d
00000190: d556 1e3d 0014 2dbd a92d 3c3b f9a3 003d
000001a0: 4b1b c03d 2349 00bc 7bf8 053e 923b a8bd
000001b0: a0f5 193d badd 69bd 910f e9bc a3d2 81bd
000001c0: 2d78 4ebd df4c d6bd b24d e1bd a9aa 643e
000001d0: cfe2 083d 9a28 87bc fc9a d63d 0850 d73c
000001e0: f5e9 5d3d f679 e93d 0287 593c 2d1a 64bd
000001f0: 72f5 a93d 6448 14bd ed72 9d3d 60de 2cbd
00000200: f4ff 3ebc f93e 50be 4bea 043e 8bc5 273d
00000210: f961 013c ffae 4cbd 39cc 81ba fcfe 03b9
00000220: c671 ae3c 755a 82bd 67b5 eb3d 1962 30be
00000230: 810a 9d3d 0260 303d 1233 89bd 4423 6b3e
00000240: 2fe3 79be 1f21 91bd 720f 79bd 8a1e 9fbe
00000250: 35a3 083b b6e9 ed3c e1e3 6eba 5dba eb3c
00000260: db2d a43c f7a5 91bd c856 70bd 0823 d33c
00000270: 3f69 a33e 4a94 03bd 6eda 91bc 9140 cd3d
00000280: 9689 7abd 55b2 33bd d922 983d 5a6f c3bb
00000290: 3d17 653c 3f98 04bb 15dd 873d 49b4 c93d
000002a0: 7aaa 683c c151 2abc 744e ea3c affe 0dbc
000002b0: 4d1c 65bd 93c5 c43b 54ba 8e3d 050d dbbd
000002c0: 6cf8 8cbd 2e50 d53d 477d af3d c649 dc3c
000002d0: e200 9abe 8e60 4abd 01d4 863d 12b3 d83d
000002e0: 1438 fabb 408f cfbc d634 a7bd e069 86bb
000002f0: a8f9 0f3d a60b bc3c 20bf 4f3e 9e9a 583d
00000300: 4e6a b33d e895 0e3c dde8 32bd 5967 29bd
00000310: 018a 84bd 8efa 353c b534 8ebd 0e95 c1bc
00000320: 3e24 17bd 94da c1bb 738e a23d 9a44 223e
00000330: ca4a 743d ce95 66bb a612 e43c 1710 3dbd
00000340: 8230 8bbd 74fd ef3d da2e 8fbd 9416 85bd
00000350: 2b9f ad3d 9f20 1dbe 031a aa3d 18b2 ffbc
00000360: 5de6 343d 1f72 5d3d 1de8 ddbc d07e 0bbd
00000370: a52d 2f3d d32b e03d 264d 9a3d 1b45 c93d
00000380: 3e6a 80bd c23d 263d db6e 543d 71df 3a3c
00000390: 6ed7 a43d 1179 ef3d 69a6 823d 5f57 583d
000003a0: ef0c e5bb 7f62 833c 4670 11bd 0a46 f13d
000003b0: ddbd 623d 3609 10bc 4e3a db3d e676 87bd
000003c0: 935c 52bd 0665 af3d b472 2abd a302 eb3e
000003d0: fb02 e53d 0de2 b93d 5ed4 a03d 898c 9abd
000003e0: aec4 293d 52ca 8cbd 0efb 1e3d 1c3c 393c
000003f0: 0677 7e3d d843 3f3d 177c 0fbd da9b 9a3d

layers.8.linear.bias f4 [3]
0.025827007 -0.03402486 0.085563965
00000000: 2993 d33c a75d 0bbd 293c af3d
