res/model/new_model.pth (torch, 840916 bytes, 10 tensors)

layers.0.linear.weight f4 [256, 42]
0	0xbcb830c5	-0.022484193
1	0xbdc00840	-0.093765736
2	0x3daed432	0.08536567
3	0x3cd4051a	0.025881339
4	0xbe019f68	-0.12658465
5	0x3c6b9899	0.014379644
6	0x3d00fa33	0.03148861
7	0xbe152b06	-0.14567193
8	0xbdf0c57b	-0.117564164
9	0xbda5da2b	-0.08098253
10	0x3d751184	0.059831157
11	0x3dad4e9b	0.084622584
12	0xbe312875	-0.1730059
13	0x3df75d41	0.12078334
14	0x3cb85347	0.022500647
15	0x3d51620d	0.0511189
16	0x3d59064f	0.052984532
17	0x3d3faab3	0.04679365
18	0x3e56ef10	0.20989633
19	0x3c620c54	0.013796885
20	0x3d872308	0.065984786
21	0x3d9cd25e	0.07657312
22	0x3ddf4701	0.10902215
23	0x3e0472d3	0.12934427
24	0x3d9f4a88	0.077778876
25	0xbe2b193a	-0.16708842
26	0xbe1e57b4	-0.15463144
27	0xbe45d6ab	-0.1932017
28	0x3df624f1	0.12018765
29	0x3c4fbd47	0.012679405
30	0xbe3412ed	-0.17585345
31	0x3c3b3387	0.011425859
32	0x3df5bc46	0.11998801
33	0xbd852842	-0.06501819
34	0x3cbc3be4	0.022977777
35	0xbdc940d8	-0.09826821
36	0x3df22ce6	0.1182497
37	0xbbd9e474	-0.006649548
38	0xbc2e7169	-0.010647156
39	0x3e112b9b	0.1417679
40	0x3c4a9051	0.012363509
41	0xbdc8c8dd	-0.09803937
42	0x3d67cb0e	0.056590132
43	0xbd8c4c63	-0.06850507
44	0xbc935e14	-0.017989196
45	0xbe1347ba	-0.1438283
46	0x3dbb6659	0.09150381
47	0x3dfea329	0.12433464
48	0x3e15d799	0.14633025
49	0xbdf77c1f	-0.12084221
50	0xbe08f311	-0.13373972
51	0x3e548ad2	0.20756081
52	0x3c8ee1b2	0.017441604
53	0xbd32530c	-0.04353623
54	0x3d1cd3b4	0.038287833
55	0x3e0e2b41	0.13883688
56	0xbd8f8167	-0.070071034
57	0xbdac9976	-0.08427708
58	0x3d4ed268	0.050493628
59	0x3da492f6	0.08035843
60	0xbd5b4250	-0.053530037
61	0x3e144a96	0.14481577
62	0xbd0a6188	-0.03378442
63	0x3d22659c	0.039647684
64	0xbe2e5927	-0.17026196
65	0xbe2e7b3f	-0.17039202
66	0x3c863941	0.016384723
67	0xbc96f04f	-0.018425135
68	0xbc64be4d	-0.013961387
69	0xbdf3cbfc	-0.11904141
70	0xbe252d25	-0.16130503
71	0xbe0dea79	-0.13858975
72	0x3e0d907c	0.13824648
73	0xbdd40b06	-0.10353665
74	0x3df12704	0.1177502
75	0x3d0afb7d	0.033931244
76	0x3ceef845	0.029171119
77	0x3d2a961b	0.041647058
78	0xbc92fde4	-0.01794333
79	0x3e126489	0.14296164
80	0x3b9eb9c7	0.0048439237
81	0xbd8b1a62	-0.067921415
82	0x3c20528a	0.009785304
83	0xbda9b7ae	-0.08286987
84	0x3c214029	0.009841957
85	0xbe08054b	-0.13283269
86	0xbe3e82fb	-0.18604653
87	0xbd86bdad	-0.065791465
88	0x3e0be884	0.13662916
89	0xbd377d3b	-0.044797163
90	0xbd66ae39	-0.056318495
91	0xbd31f122	-0.043442853
92	0x3c4fa826	0.012674367
93	0x3da85cfd	0.08220861
94	0x3def9db9	0.11700005
95	0x3d5bbf87	0.05364945
96	0x3e43bd22	0.19115117
97	0x3c1e424b	0.00965936
98	0x3dd7451a	0.10511227
99	0x3df30928	0.11866981
100	0x3cd7e8c2	0.026356105
101	0xbe62507d	-0.22101016
102	0x3e371bb2	0.17881659
103	0x3d785a83	0.060633194
104	0xbd740a51	-0.05958015
105	0x3dc70457	0.09717625
106	0x3d8c06bc	0.06837222
107	0x3e25cf21	0.16192295
108	0xbd824244	-0.063602954
109	0x3e5fe5fb	0.21865074
110	0x3c7003ab	0.014649312
111	0xbe351716	-0.17684588
112	0xbd050791	-0.03247792
113	0x3daa0822	0.083023325
114	0x3e04fcaa	0.12987009
115	0x3de3bf03	0.11120417
116	0xbe377dec	-0.17919129
117	0x39bc05c5	0.00035862453
118	0xbdbf7cf6	-0.09350006
119	0x3dda20e1	0.106508024
120	0xbaa6dddf	-0.0012730918
121	0x3c798dd7	0.015231571
122	0x3c540452	0.012940483
123	0xbdda7061	-0.10665966
124	0xba053e02	-0.0005082787
125	0xbdce8091	-0.10083116
126	0xbcbfe34e	-0.023423817
127	0xbd16d73b	-0.036826354
128	0xbe061693	-0.13094549
129	0xbd0360c0	-0.03207469
130	0xbdfe57d3	-0.12419095
131	0xbbf87d1c	-0.0075832736
132	0xb818c6ce	-3.6424775e-05
133	0x3e1e793e	0.15475938
134	0x3dc982a5	0.098393716
135	0xbd328afa	-0.04358957
136	0xbd9d980a	-0.07695015
137	0x38fe2618	0.00012118759
138	0x3e1c5f35	0.15270694
139	0x3d17a863	0.03702582
140	0xbe367781	-0.17819025
141	0x3e1ccc6c	0.15312356
142	0x3dfbd661	0.12296749
143	0x3b2e8fb2	0.0026635942
144	0xbe1cd17d	-0.15314288
145	0xbda98bd9	-0.08278627
146	0x3e5e9a45	0.21738537
147	0x3e5e1ed6	0.2169145
148	0xbd82900d	-0.06375132
149	0x3da9d956	0.08293407
150	0x3cc0dd71	0.023543091
151	0x3e34d3ce	0.17658922
152	0xbe10ec8c	-0.14152735
153	0xbd69b666	-0.057058714
154	0xbdf0ba8e	-0.117543325
155	0x3e166387	0.14686404
156	0xbe1b210e	-0.15149328
157	0x3e504591	0.20339037
158	0x3d64369a	0.055716135
159	0x3cea08f5	0.028568724
160	0xba8537aa	-0.0010163684
161	0x3d8aaf4d	0.06771717
162	0xbc67921a	-0.014133954
163	0xbd921c23	-0.07134273
164	0xbcb0c422	-0.021577898
165	0xbda0cfb6	-0.07852118
166	0x3d143de5	0.03619184
167	0x3e0093f3	0.12556438
168	0x3d9617c4	0.07328752
169	0xbc941574	-0.018076636
170	0x3e209338	0.1568116
171	0x3d435437	0.047687735
172	0x3dc2cec1	0.095120914
173	0x3d0802b9	0.03320572
174	0xbd5bf0bf	-0.05369639
175	0xbe2bfcbc	-0.1679563
176	0x3ca20252	0.019776497
177	0xbd166ca1	-0.03672469
178	0xbe21d5f9	-0.1580428
179	0x3daad67a	0.083416894
180	0x3e0a6374	0.13514501
181	0x3e3de3fe	0.18544003
182	0x3e7c92ac	0.24665326
183	0xbc1e5e33	-0.0096660135
184	0xbe890eca	-0.26769096
185	0x3ccf519f	0.025307475
186	0x3dd677f3	0.10472097
187	0xbe2dd768	-0.16976702
188	0x3e1961b6	0.1497868
189	0x3e12ab5e	0.14323184
190	0x3dd41b5d	0.10356782
191	0x3d886c5f	0.06661295
192	0xbe4740ef	-0.19458364
193	0x3c64137b	0.01392066
194	0xbe0baa4f	-0.13639186
195	0xbbd93af9	-0.0066293445
196	0xbd968715	-0.073499836
197	0xbd9f83ea	-0.077888325
198	0xbce0f14b	-0.027458807
199	0xbde37cda	-0.11107798
200	0x3e28844e	0.1645672
201	0xbe2da4ba	-0.1695737
202	0xbc263597	-0.010144613
203	0xbc7547aa	-0.014970699
204	0xbced2588	-0.02894856
205	0x3cf07632	0.029353235
206	0x3c1d18b4	0.009588409
207	0xbcbb91a4	-0.022896595
208	0xbb39463d	-0.0028270625
209	0xbd30f073	-0.04319806
210	0xbd090872	-0.03345532
211	0xbdd322fe	-0.103094086
212	0x3d9f3f7d	0.07775781
213	0x3dc4826b	0.09595188
214	0xbdde1e58	-0.10845631
215	0xbdba3805	-0.09092716
216	0x3e2379c1	0.15964414
217	0xbde99d44	-0.11406949
218	0xbd465c75	-0.048428018
219	0x3b3b24f1	0.0028555954
220	0x3dc70d1d	0.09719298
221	0xbdfe4bed	-0.124168254
222	0xbdc31d7f	-0.0952711
223	0x3c41673b	0.011804397
224	0x3b49d4a3	0.0030796907
225	0x3e14bddc	0.1452555
226	0x3e327d61	0.17430641
227	0xbdb0b858	-0.08628911
228	0xbd7af2f7	-0.061266866
229	0x3d09e5bb	0.033666354
230	0x3de466e9	0.11152441
231	0xbc629d00	-0.013831377
232	0xbe488c58	-0.19584787
233	0x3e29aeb8	0.16570556
234	0x3e4fbf66	0.20287856
235	0x3dc45e02	0.09588243
236	0x3de344c3	0.110971
237	0xbcf9e9f9	-0.030507075
238	0x3d83b00b	0.06430062
239	0x3e550b6c	0.20805138
240	0x3cdb307f	0.026756523
241	0xbda3d3a4	-0.079993516
242	0xbe145de0	-0.14488935
243	0xbd9f7623	-0.07786205
244	0xbdaf4f02	-0.085599914
245	0xbe0bbadb	-0.13645498
246	0x3bd70631	0.0065620174
247	0x3d84a08c	0.064759344
248	0xbc64ce6f	-0.013965233
249	0x3d7e461e	0.062078588
250	0xbd59554c	-0.05305986
251	0x3c17a906	0.009256607
252	0xbdcb2070	-0.09918296
253	0xbe19e743	-0.15029626
254	0x3d4ae9ae	0.04953926
255	0x3bcac1e8	0.006187666

layers.0.linear.bias f4 [256]
0	0xbc07aae8	-0.008280493
1	0x3d3e1bee	0.046413355
2	0xbde75e89	-0.11297328
3	0xbcdd219a	-0.026993562
4	0x3dcaf167	0.09909325
5	0xbdadf2b7	-0.0849356
6	0xbdfdb6b8	-0.123883665
7	0x3da3c99d	0.07997439
8	0x3e07f143	0.13275628
9	0x3e20f5bb	0.15718739
10	0x3d90dcd5	0.0707337
11	0x3d416374	0.047213987
12	0xbcc9836a	-0.024598796
13	0xbc702872	-0.01465808
14	0xbddd07cf	-0.10792505
15	0x3d945ff4	0.07244864
16	0x3e05eff1	0.13079812
17	0x3dd972a9	0.10617573
18	0xbdb52d72	-0.08846559
19	0xbdb02d3c	-0.08602378
20	0xbdee3849	-0.11631829
21	0xbd6cc06e	-0.057800703
22	0x3d9222f6	0.071355745
23	0x3dd366bf	0.10322332
24	0xbd799a35	-0.06093808
25	0x3e127434	0.1430214
26	0x3d92683e	0.07148789
27	0xbdf9452a	-0.12171395
28	0xbde8e760	-0.11372256
29	0x3dc083d8	0.09400147
30	0x3d4afe35	0.049558837
31	0xbdd8ee3f	-0.10592317
32	0xbdabb677	-0.08384412
33	0xbdd5c864	-0.10438612
34	0xbcb801b6	-0.022461753
35	0xbd8b01f5	-0.06787483
36	0xbd10244c	-0.035190865
37	0x3df04c75	0.11733333
38	0xbe126532	-0.14296415
39	0x3e1f2415	0.15541108
40	0xbc1077ab	-0.008817594
41	0x3d4423c6	0.04788568
42	0x3d1cc327	0.03827205
43	0xbe214ade	-0.15751216
44	0xbdae4a32	-0.085102454
45	0xbdc5e13e	-0.09662102
46	0x3e0f5dd7	0.14000641
47	0x3cbab28c	0.022790216
48	0xbbb91420	-0.005648151
49	0x3d07cd4a	0.033154763
50	0xbd2b175c	-0.041770324
51	0x3c5b144b	0.013371537
52	0xbc29cd01	-0.010363818
53	0x3e02e38e	0.12782118
54	0xbe209577	-0.15682016
55	0x3e124d36	0.14287266
56	0x3d7aee38	0.06126234
57	0x3e0eb781	0.13937189
58	0xbda9908c	-0.08279523
59	0x3d6d43ea	0.057926096
60	0x3e13abc9	0.14421
61	0x3ddcf768	0.107893765
62	0xbd197de1	-0.037473563
63	0x3d98a934	0.07454148
64	0x3d7fc9c9	0.062448297
65	0xbe22b018	-0.15887487
66	0xbd1e799e	-0.038690202
67	0x3e071b28	0.13193953
68	0xbd0e6cef	-0.034771856
69	0xbd937f5d	-0.07202027
70	0x3c439e10	0.0119395405
71	0x3e0393aa	0.12849298
72	0xbd8a6e66	-0.06759338
73	0xbda27f50	-0.07934439
74	0x3d913cc5	0.07091669
75	0x3dac4cd7	0.084130935
76	0x3d217dbc	0.03942655
77	0xbe01a3e4	-0.12660176
78	0x3dee1d0e	0.116266355
79	0xbb8dce0f	-0.0043275426
80	0xbd5780be	-0.052613012
81	0x3dff91c9	0.12478978
82	0x3e10a2f6	0.14124665
83	0xbd733907	-0.059380557
84	0xbdf085a5	-0.11744241
85	0x3d317479	0.043323968
86	0x3d5de8c5	0.054177064
87	0xbdc25c06	-0.09490208
88	0xbdcabba5	-0.098990716
89	0xbd860541	-0.06543971
90	0x3d9140fb	0.07092472
91	0x3c0b9500	0.008519411
92	0x3dfa878f	0.12232887
93	0x3d0d1313	0.03444202
94	0x3d183aeb	0.037165564
95	0xbcbeda8e	-0.023297574
96	0x3d4310a9	0.04762331
97	0x3c661f49	0.014045545
98	0xbd8f49d9	-0.06996507
99	0x3da60272	0.08105935
100	0xbe301dbc	-0.17198843
101	0xbdf41aab	-0.11919149
102	0x3d1a7afb	0.03771494
103	0xbcf8b91e	-0.030361708
104	0x3ddf4940	0.10902643
105	0x3db575e5	0.08860377
106	0x3c5877f8	0.0132121965
107	0x3ca383a6	0.019960236
108	0x3dd88e4b	0.10574015
109	0x3d341ecf	0.043974694
110	0x3d9af440	0.07566118
111	0xbe29586e	-0.1653764
112	0xbdb29da9	-0.087214775
113	0xbe232bc2	-0.15934661
114	0x3dbe052a	0.09278329
115	0x3d919a12	0.07109465
116	0x3e0b6161	0.13611366
117	0x3e19e2f0	0.15027976
118	0x3b7d93fd	0.0038692944
119	0xbd81ecde	-0.06344007
120	0x3da6454d	0.08118687
121	0x3c57ab28	0.013163365
122	0xbe0764f0	-0.13222098
123	0xbdc5d671	-0.09660042
124	0x3d96217a	0.07330604
125	0xbd4bbd71	-0.049741212
126	0xbdbca525	-0.09211186
127	0x3e04d27c	0.12970918
128	0x3db4df3b	0.0883164
129	0xbe1a30ff	-0.15057753
130	0x3da15833	0.07878151
131	0xbd8dc21e	-0.069217905
132	0x3cba50ce	0.022743609
133	0xbda25c03	-0.07927706
134	0x3e1842bc	0.14869207
135	0xbdc35ec6	-0.09539561
136	0xbe15ea27	-0.14640103
137	0x3e0e64fb	0.13905708
138	0x3b3d6ab9	0.0028902723
139	0xbe087942	-0.13327506
140	0x3c9f5085	0.019447574
141	0x3d1d4228	0.03839317
142	0x3d843d6b	0.06457027
143	0x3ccd971f	0.025096474
144	0x3e0e975e	0.1392493
145	0x3ddd4399	0.10803909
146	0xbe0b1d21	-0.1358533
147	0x3e061c7f	0.13096808
148	0xbe01e180	-0.12683678
149	0xbdc35d13	-0.09539237
150	0xbe07a145	-0.13245113
151	0xbdcd75b8	-0.10032219
152	0x3db1a588	0.08674151
153	0xbd498a88	-0.04920438
154	0xbd29565f	-0.041342136
155	0x3da3b160	0.07992816
156	0x3da17acb	0.07884749
157	0xbda711bd	-0.0815768
158	0xbc99dcda	-0.018782068
159	0x3d7b8a69	0.061411295
160	0xbd94d065	-0.072663106
161	0xbe0ba88f	-0.13638519
162	0xbcefe079	-0.029281842
163	0x3cfd48f5	0.030918578
164	0x3dea2471	0.11432732
165	0x3df056ce	0.11735307
166	0xbde0aa59	-0.10969991
167	0xbd715723	-0.05892099
168	0x3d4fdbc8	0.05074671
169	0xbde95861	-0.1139381
170	0x3d96d992	0.07365717
171	0xbde846d2	-0.11341633
172	0xbcd2a82c	-0.025714956
173	0xbd88fefd	-0.0668926
174	0x3db49c26	0.088188455
175	0xbdbeb164	-0.09311178
176	0xbdfbfb9f	-0.12303852
177	0xbd602835	-0.054725844
178	0x3e100d99	0.14067687
179	0x3ca63bc3	0.020292168
180	0xbd8a4503	-0.06751444
181	0xbd89a97f	-0.06721782
182	0x3dc7b375	0.097510256
183	0xbc699105	-0.014255767
184	0xbd943dea	-0.07238372
185	0x3e0736ea	0.13204542
186	0xbd0b2bf5	-0.033977468
187	0x3e17ec9e	0.14836356
188	0x3da04d7b	0.07827278
189	0xbc9f2ffc	-0.01943206
190	0x3ceb1519	0.028696584
191	0x3c40f4f4	0.011777151
192	0x3e159c13	0.14610319
193	0xbe273c92	-0.163317
194	0xbc8d0032	-0.017212007
195	0x3e0718b4	0.13193017
196	0x3e0f3b8c	0.13987559
197	0x3e089c12	0.13340786
198	0x3d373cb5	0.04473563
199	0xbd02b13f	-0.031907316
200	0xbe0fdcb7	-0.1404904
201	0xbe0974cb	-0.13423459
202	0xbe0ad492	-0.13557652
203	0xbdfb64e0	-0.122751
204	0x3d87c844	0.066299945
205	0xbdd43fa3	-0.103637
206	0x3deeea31	0.11665762
207	0xbd851545	-0.064981975
208	0xbc5d504d	-0.013507915
209	0xbdf7e1b1	-0.12103594
210	0xbda885b3	-0.08228626
211	0xbce7a38d	-0.02827623
212	0x3dc9fe75	0.09862987
213	0xbcbe5cbc	-0.023237579
214	0x3deec877	0.116593294
215	0xbe0be2d8	-0.13660753
216	0x3c22b2b3	0.0099303005
217	0xbd903489	-0.0704127
218	0x3cf3fe2e	0.029784288
219	0x3d58acdd	0.05289923
220	0x3e0b51da	0.13605443
221	0x3de84cc9	0.113427706
222	0x3db84b89	0.08998782
223	0x3db223d8	0.08698243
224	0xbc9d4cb2	-0.01920161
225	0xbd24ea23	-0.040262353
226	0x3d5992a7	0.053118374
227	0xbe10146c	-0.1407029
228	0xbc9735d9	-0.018458294
229	0x3dc37df7	0.0954551
230	0xbd0f2ff2	-0.034957834
231	0x3cfaae3a	0.030600656
232	0x3cfb2eec	0.030662023
233	0x3e11323e	0.14179322
234	0x3d94d574	0.072672755
235	0xbbe73d6c	-0.0070568826
236	0xbddc6683	-0.1076174
237	0xbd07f36e	-0.033191137
238	0xbe12e585	-0.14345367
239	0x3db4a9ec	0.088214725
240	0xbb83ffe1	-0.004028306
241	0xbd845b91	-0.064627774
242	0x3e0a0d2c	0.13481587
243	0x3d253a6a	0.04033891
244	0x3e0d9ebd	0.13830085
245	0x3d761ec6	0.06008794
246	0x3cc6f2d0	0.024285704
247	0x3d51dd98	0.05123672
248	0xbe164e76	-0.14678368
249	0x3d7123d1	0.058872048
250	0x3e0f7fb6	0.14013562
251	0xbb95b0a1	-0.004568175
252	0xbe0e2190	-0.1387999
253	0xbd292df5	-0.041303594
254	0xbd9c5106	-0.076326415
255	0x3c33333b	0.010937507

layers.2.linear.weight f4 [256, 256]
0	0x3bdf86b4	0.006821478
1	0x39e37418	0.0004338331
2	0x3dfb2af7	0.12264054
3	0xbd25d4c3	-0.04048611
4	0xbd6f2a44	-0.058389917
5	0x3da39948	0.079882205
6	0x3b1a7240	0.0023566633
7	0x3d470ecd	0.0485981
8	0xbd99f33f	-0.07517099
9	0x3d1bdc60	0.038051963
10	0xbd861e2d	-0.06548724
11	0xbd918d7d	-0.07107065
12	0xbdcb8fd3	-0.09939542
13	0x3cfa1d02	0.03053141
14	0xbd034a01	-0.032052997
15	0x3cff24bf	0.031145452
16	0xbd9a825a	-0.07544394
17	0x3d9eacfc	0.07747838
18	0xbc146ee2	-0.00905964
19	0xbdca1c15	-0.098686375
20	0x3c3a7bc4	0.011382047
21	0x3d01846c	0.031620428
22	0x3c367c70	0.011138067
23	0x3cac7b20	0.021054804
24	0x3c3a6636	0.011376908
25	0x3d5e8ada	0.054331638
26	0x3cd1dab2	0.025616977
27	0xbd82c110	-0.0638448
28	0xbd9a0810	-0.07521069
29	0xbda97940	-0.0827508
30	0xbc115c20	-0.008872062
31	0x3d11584a	0.03548459
32	0xbcf89826	-0.030345988
33	0xbd4725e5	-0.048620123
34	0xbca588d7	-0.020206852
35	0x3caaee66	0.02086563
36	0x3dc23dde	0.094844565
37	0x3d887d1c	0.06664488
38	0xbd293fc4	-0.041320577
39	0x3cb70d46	0.022345196
40	0xbc961c31	-0.01832399
41	0xbdafe400	-0.085884094
42	0x3d18b841	0.037285093
43	0xbd9d2bef	-0.07674395
44	0xbd19435e	-0.037417762
45	0xbe1b67da	-0.15176335
46	0xbb63d685	-0.0034765315
47	0xbd3be2dc	-0.045870647
48	0xbd8bd0fe	-0.068269715
49	0xbe06fb16	-0.13181719
50	0xbc0d0012	-0.008605974
51	0x3c8a0921	0.016850056
52	0xbcadf851	-0.02123657
53	0x3da50818	0.080581844
54	0x3e012bd0	0.1261437
55	0xba5a3c2d	-0.0008325007
56	0xbc2743d4	-0.010209043
57	0x3c04c91a	0.008104587
58	0x3d8d75bc	0.06907222
59	0xbddbb55c	-0.10727951
60	0xbcd68a97	-0.026189132
61	0xbc4430fb	-0.0119745685
62	0x3cd43981	0.025906326
63	0xbdaa8c09	-0.08327491
64	0x3c47a249	0.012184688
65	0xbe0238aa	-0.12716928
66	0x39c25826	0.0003706824
67	0x3d1dcaa6	0.03852334
68	0x3d903422	0.070411935
69	0xbd6584df	-0.05603492
70	0xbd0ade1d	-0.03390323
71	0x3c4bafdb	0.012432064
72	0xbd95d7bd	-0.073165394
73	0x3d6eda94	0.05831392
74	0x3d72b411	0.059253756
75	0x3cfc29fb	0.030781737
76	0xbe48fffc	-0.196289
77	0xbc3a20a0	-0.0113603175
78	0xbc95def7	-0.018294794
79	0xbe037c33	-0.12840347
80	0x3d26a485	0.04068424
81	0xbd849ea1	-0.064755686
82	0xbcb434d7	-0.021997852
83	0xbc1c519d	-0.0095409425
84	0x3c9ed5ce	0.01938906
85	0xbd8b70a2	-0.068085924
86	0x3dc58131	0.09643782
87	0xbdd174a8	-0.102273285
88	0xbd033d38	-0.032040805
89	0xbce74046	-0.02822889
90	0x3bfe07a3	0.007752375
91	0xbda051a6	-0.07828073
92	0xbd7c2b28	-0.061564595
93	0xbd26c313	-0.04071338
94	0x3cf82eb1	0.030295702
95	0x3c5f0e03	0.0136141805
96	0x3cde1907	0.027111543
97	0x3d06ce1e	0.032911412
98	0x3d4d4a6c	0.050119802
99	0xbba85ad9	-0.005137783
100	0xbe80d047	-0.25158903
101	0xbd4374c1	-0.047718767
102	0xbd6226dd	-0.055212844
103	0x3bfd7622	0.00773503
104	0x3d47ad51	0.04874927
105	0xbcdac724	-0.026706286
106	0x3c986b56	0.01860587
107	0x3d1c2701	0.038123135
108	0xbd8f26eb	-0.06989845
109	0x3db426e6	0.08796482
110	0xbcc0a87f	-0.023517845
111	0x3d409291	0.047014777
112	0xbd90e053	-0.070740364
113	0xbdede3d7	-0.116157226
114	0x3d695d46	0.056973718
115	0xbce14336	-0.027497869
116	0xbd499870	-0.04921764
117	0x3d32606c	0.043548986
118	0xbd2d6b09	-0.042338405
119	0xbdc61600	-0.09672165
120	0xbe11e792	-0.14248493
121	0x3d93506c	0.07193074
122	0xbd48b652	-0.049002
123	0xbcf192d5	-0.02948896
124	0x3d4f03f4	0.05054088
125	0xbc27636b	-0.010216574
126	0xbd2d1081	-0.042252067
127	0xbd9221c6	-0.07135348
128	0x3da77f98	0.081786335
129	0x3da09c21	0.07842279
130	0x3d2f8041	0.04284692
131	0x3bcda491	0.0062757214
132	0xbd0cfa9a	-0.03441868
133	0x3c406ba8	0.011744417
134	0x3beee235	0.0072901496
135	0xbd0d2cec	-0.03446667
136	0xbc5a3c32	-0.013320016
137	0x3d15c92f	0.036568817
138	0xbc007fa9	-0.007842937
139	0xbd93be0c	-0.07213983
140	0xbcc2e0c5	-0.02378882
141	0xbe1df914	-0.15427047
142	0x3de74636	0.112926885
143	0x3cb7f972	0.022457812
144	0x3d12e1ea	0.03585998
145	0xbdedffaa	-0.1162103
146	0x3cdfd8fc	0.027325146
147	0x3b9e00f9	0.0048218933
148	0x3c775a8e	0.0150972735
149	0x3d3132e6	0.04326143
150	0xbd91d8aa	-0.071214035
151	0xbdc578a4	-0.09642151
152	0xbd612518	-0.054967016
153	0xbd755a0b	-0.059900325
154	0x3d7488e5	0.059700865
155	0xbdc4a100	-0.09601021
156	0xbd18fa6c	-0.037348196
157	0xbcc57d5a	-0.024107624
158	0xbce4077b	-0.027835598
159	0x3d5579e8	0.052118212
160	0x3d8b7252	0.06808914
161	0x3cae46f6	0.021274071
162	0xbdb9af3f	-0.09066629
163	0x3abb9c2e	0.0014313513
164	0xbdd0ce04	-0.10195544
165	0x3cecb47b	0.028894654
166	0xbd299ae1	-0.04140747
167	0x3d37268d	0.0447145
168	0x3cc4a4a5	0.02400429
169	0x3ced36ef	0.028956858
170	0xbc264484	-0.010148171
171	0x3e03ad4c	0.12859076
172	0xbd966c3f	-0.07344865
173	0xbdadade2	-0.08480431
174	0xbcff47de	-0.031162199
175	0x3b45f2f2	0.003020462
176	0x3dbedb22	0.0931914
177	0x3d565eae	0.052336387
178	0x3d0e7b25	0.03478541
179	0x3d1b66c6	0.03793981
180	0xbd8d7eec	-0.06908974
181	0xbcad4bf9	-0.02115439
182	0x3ba61afb	0.0050691343
183	0xbd097d3e	-0.033566706
184	0x3c9ca2fe	0.01912069
185	0x3ce8a5bf	0.028399346
186	0x3d873436	0.06601755
187	0xbc9f555e	-0.019449886
188	0x3d43aaf2	0.047770448
189	0x3d1e2c06	0.038616203
190	0x3a35e702	0.0006939025
191	0xbd871fa5	-0.065978326
192	0x3ba06d4e	0.0048958426
193	0xbcaf8b03	-0.02142859
194	0xbd3b759f	-0.04576647
195	0x3dd3c96d	0.10341153
196	0xbd8e1a13	-0.06938567
197	0x3d1a01bd	0.037599314
198	0xbd058d9a	-0.032605745
199	0xbdad4f8e	-0.084624395
200	0x3d1fdb47	0.03902748
201	0xbe404c1e	-0.18779036
202	0xbdd02309	-0.101629324
203	0x3d96bf47	0.07360702
204	0xbeaef1df	-0.34168908
205	0x3ccc0251	0.024903448
206	0xbbb2dc59	-0.0054583964
207	0xbdf9849b	-0.121834956
208	0xbe0d53b3	-0.1380146
209	0xbdb60753	-0.08888116
210	0x3d3ce4c1	0.046116594
211	0x3d4c2eb7	0.04984924
212	0x3d8697b2	0.06571902
213	0x3db89b40	0.090139866
214	0xbd9f5599	-0.07779998
215	0xbcc18efb	-0.023627749
216	0xbd849c5d	-0.064751364
217	0x3d70dde7	0.058805373
218	0xbc8a26f9	-0.016864287
219	0x3cf01dba	0.02931105
220	0x3d0cb6cc	0.034354016
221	0xba9acc27	-0.001181011
222	0xbd6bc17a	-0.05755756
223	0xbda2aeb2	-0.07943477
224	0xbda2accf	-0.07943117
225	0xbd83892d	-0.064226486
226	0x3d40f9ff	0.047113415
227	0xbe126e2c	-0.1429984
228	0x3cad5459	0.021158384
229	0xbcc74193	-0.02432326
230	0x3d5e085b	0.054207187
231	0x3b78dd0e	0.0037973556
232	0x3d6ce0e3	0.057831656
233	0xba769df1	-0.00094076904
234	0x3d777aae	0.06041973
235	0xbcaabdfe	-0.020842548
236	0xbdf05f5c	-0.11736938
237	0xba9163b4	-0.0011092336
238	0x3d5dbe44	0.05413653
239	0x3df58afe	0.11989401
240	0x3c77b085	0.015117769
241	0x3d53a5fe	0.051671974
242	0xbd5ce7e7	-0.053932097
243	0xbb6ab593	-0.0035813793
244	0x3c862fcc	0.016380213
245	0x3c7a58d5	0.015279968
246	0x3be74c32	0.0070586437
247	0x3c5d02e7	0.0134894615
248	0x3cd2450b	0.025667688
249	0x3d372090	0.04470879
250	0x3b963e7b	0.004585085
251	0x3de58c9b	0.11208459
252	0xbd658548	-0.05603531
253	0x3ccd91ed	0.025093997
254	0x3dc79b81	0.09746457
255	0xbd2be687	-0.041967895

layers.2.linear.bias f4 [256]
0	0x3c369bdb	0.011145557
1	0x3c154d3d	0.009112653
2	0xbd7a0419	-0.061039064
3	0x3c5892c5	0.013218586
4	0xbbfe889d	-0.0077677504
5	0x3d7d99ef	0.06191438
6	0xbd33f6ce	-0.043936543
7	0x3d6288d7	0.055306282
8	0x3d60e167	0.05490246
9	0xbd2d1c2e	-0.042263202
10	0xbd10384a	-0.03520993
11	0x3ce795f9	0.028269755
12	0x3d1eabcc	0.038738057
13	0xbd460011	-0.048339907
14	0x3d5ef09f	0.054428693
15	0xbc53b4dc	-0.012921538
16	0x3be35794	0.0069379304
17	0xbc520634	-0.012818862
18	0xbca727a9	-0.020404654
19	0x3d06b7b1	0.032890026
20	0xbcf2a846	-0.029621255
21	0x3d22ca24	0.039743558
22	0x3d84cf99	0.064849086
23	0xbbead176	-0.007166083
24	0x3c47821b	0.012177016
25	0x3bb7e015	0.0056114295
26	0x3cf8e659	0.030383276
27	0xbd00b19e	-0.03141939
28	0xbbba6b4e	-0.0056890612
29	0xbb85d108	-0.0040837564
30	0xbd51f801	-0.051261906
31	0xbd3fb896	-0.046806894
32	0xbd7a7e5b	-0.06115566
33	0x3be33896	0.006934236
34	0x3d85bded	0.06530366
35	0xbcc371bf	-0.02385795
36	0x3cbf186f	0.02332708
37	0x3d0b2141	0.03396726
38	0xbd0bf86b	-0.034172457
39	0x3d604721	0.054755334
40	0xbd046b1a	-0.032328703
41	0xbc0de6da	-0.008660996
42	0xbd436c35	-0.047710616
43	0xbd2e6859	-0.042579982
44	0x3d2a5aab	0.041590374
45	0x3d094607	0.03351405
46	0x3cce1fc0	0.025161624
47	0xbced8eb8	-0.028998718
48	0xbc75fa92	-0.015013354
49	0x3d7c689e	0.06162321
50	0xbd361e8c	-0.044462726
51	0x3c476bd8	0.012171708
52	0xbc75f3ae	-0.015011711
53	0x3d2d0759	0.042243335
54	0xbd6c264d	-0.057653714
55	0xbc90062c	-0.017581068
56	0x3ceec482	0.029146437
57	0x3d287922	0.041131146
58	0xbb66643c	-0.003515496
59	0x3d45c348	0.048281938
60	0x3d3a8d9c	0.045545205
61	0xbc095a10	-0.008383289
62	0x3d153c49	0.036434446
63	0x3ce94a91	0.028477939
64	0x3cc7a105	0.024368772
65	0xbd77d2b2	-0.06050367
66	0xbbbbaa89	-0.0057271165
67	0x3bbbb75c	0.0057286453
68	0xbd85cc3f	-0.065330975
69	0xbc9d1221	-0.019173684
70	0xbd81695a	-0.06318922
71	0xbd5501aa	-0.05200354
72	0x3d2e55fc	0.04256247
73	0xbd3433ed	-0.043994833
74	0xbc11e450	-0.008904532
75	0x3d00853d	0.031377066
76	0x3cd1cd31	0.025610538
77	0x3d29c62f	0.04144877
78	0xbb803097	-0.0039120424
79	0xbd0a91b9	-0.03383038
80	0xbc2a112f	-0.010380073
81	0xbd972036	-0.073791906
82	0xbc491f8a	-0.012275586
83	0x3b5af54c	0.0033410368
84	0x3bfd1174	0.007723028
85	0xbd3cd2f3	-0.046099614
86	0xbca59e9c	-0.020217232
87	0x3d195c8f	0.037441786
88	0x3d5062fc	0.05087565
89	0xbd2a6023	-0.04159559
90	0x3cc3f72b	0.02392157
91	0xbd7e648a	-0.0621076
92	0x3d30310a	0.043015517
93	0xbccf5ad5	-0.025311867
94	0xbd69510d	-0.05696206
95	0x3c8ee926	0.017445158
96	0xbbb4d396	-0.005518387
97	0x3d4a6955	0.04941686
98	0xbcbdafbc	-0.023155086
99	0x3cb10825	0.021610329
100	0xbaa3f5e1	-0.0012509191
101	0xbd0bd37a	-0.034137227
102	0xbd1d8edf	-0.03846633
103	0xbd24f4e4	-0.04027261
104	0xbd2f95fe	-0.042867653
105	0xbcae76ff	-0.021296976
106	0xba12155d	-0.00055726414
107	0x3b0d1123	0.0021525107
108	0x3d35741e	0.04430019
109	0x3d13e502	0.03610707
110	0xbc991a59	-0.018689321
111	0xbd93a29b	-0.07208749
112	0xbd4b2885	-0.04959919
113	0xbd7d10ef	-0.061783727
114	0xbd4dad67	-0.050214197
115	0xbd1f4020	-0.038879514
116	0x3d469faa	0.04849211
117	0xbc7ecfdd	-0.015552488
118	0xbd8525d0	-0.06501353
119	0xbc32c732	-0.01091175
120	0xbcd249d2	-0.025669966
121	0xbab9742b	-0.0014149001
122	0x3bd2a4fd	0.0064283595
123	0x3d6aa1e0	0.057283282
124	0x3c89c4f3	0.016817546
125	0xbc3a233e	-0.011360941
126	0xbd57cca3	-0.05268539
127	0xbd655268	-0.05598679
128	0x3d3f2558	0.046666473
129	0x3d49f332	0.049304195
130	0x3d46cd2b	0.048535507
131	0xbd44c966	-0.04804363
132	0xbc0865bd	-0.008325038
133	0xbd126220	-0.03573811
134	0xbb654b25	-0.0034987417
135	0x3c8e5e44	0.017378934
136	0xbc09e870	-0.008417234
137	0xbd16cbcf	-0.03681546
138	0xbc5a002e	-0.013305707
139	0xbd92c7de	-0.07167028
140	0xbd22f9f7	-0.039789166
141	0xbc14044f	-0.00903423
142	0x3d1c5ab4	0.03817244
143	0x3b979765	0.004626202
144	0x3d5fab9a	0.05460701
145	0x3d4cb622	0.049978383
146	0xbd312770	-0.0432505
147	0xbc9561f7	-0.01823519
148	0x3c4ee6fa	0.012628311
149	0xbd1deefc	-0.03855799
150	0x3d1b0baa	0.03785292
151	0x3d674a94	0.056467608
152	0xbca6dbdd	-0.02036851
153	0xbd8b9521	-0.068155535
154	0x3c8c4043	0.017120486
155	0x3d435756	0.047690712
156	0x3cf0ef60	0.029411018
157	0x3cefc88e	0.029270437
158	0x3d5d44d9	0.054020736
159	0x3d889d2c	0.06670603
160	0xba016f7a	-0.0004937571
161	0x3d6ff1a6	0.058580063
162	0xbd8f31fd	-0.069919564
163	0xbc833b92	-0.016019616
164	0x3d067f0f	0.032836016
165	0x3b40a327	0.0029394121
166	0xbd282806	-0.041053794
167	0xbc704fd4	-0.01466747
168	0xbcec0ea9	-0.028815584
169	0x3d352f33	0.044234466
170	0x3cf65e3a	0.030074228
171	0xbd3f9cc3	-0.04678036
172	0xbd0291b7	-0.031877246
173	0x3cfb27a9	0.03065856
174	0x3b80c1a3	0.0039293333
175	0x3d35522b	0.044267815
176	0x3d831c66	0.06401901
177	0x3d6f12b8	0.05836746
178	0xbb067e90	-0.0020522214
179	0xbc089ea4	-0.008338604
180	0x3d2083b6	0.03918811
181	0xbcfce680	-0.03087163
182	0xbd1f0d87	-0.03883126
183	0xbd7ef1bd	-0.06224226
184	0x3c0f9422	0.008763345
185	0x3d6bcebf	0.057570215
186	0xbd4464d4	-0.04794772
187	0xbbef9283	-0.0073111667
188	0xbca329f1	-0.01991746
189	0xbd623f9a	-0.055236436
190	0xbd22def6	-0.039763413
191	0x3d62cddb	0.0553721
192	0xbd53704a	-0.05162076
193	0xbd6e9575	-0.058248002
194	0xbc18ab12	-0.00931813
195	0xbb2e3231	-0.002658021
196	0xbd7b00ba	-0.06127999
197	0x3b86dab5	0.0041154274
198	0xbcefdbc3	-0.029279595
199	0x3ce98734	0.028506853
200	0x3d63e5f3	0.05563922
201	0x3c7a835e	0.015290109
202	0xbc4e53b8	-0.012593202
203	0xbd685d25	-0.056729455
204	0xbcbc5128	-0.022987917
205	0x3b908dd1	0.004411437
206	0x3bdb497a	0.0066921087
207	0xbd8fc11e	-0.07019256
208	0x3d430887	0.047615554
209	0x3b63f3e3	0.003478282
210	0xbd2bb9c5	-0.04192521
211	0xba99a675	-0.0011722582
212	0x3d515654	0.05110772
213	0xbce4ee7d	-0.027945751
214	0xbbe70719	-0.0070504067
215	0x3d2f7fca	0.04284648
216	0xbd951119	-0.07278652
217	0xbd40e7a0	-0.047095895
218	0xbd252f7b	-0.040328484
219	0x3d2b961c	0.041891202
220	0xbd55f5b0	-0.05223626
221	0xbd015fbb	-0.031585436
222	0x3d2fc1a1	0.04290927
223	0xbd2476a8	-0.040152222
224	0x3d16ece1	0.036847
225	0xbd7fdcce	-0.062466435
226	0xbd82e6ea	-0.063916996
227	0x3d1a5ec2	0.037688024
228	0x3c88cd86	0.016699564
229	0xbcaa1782	-0.020763163
230	0xbd556ecd	-0.05210762
231	0x3d4ba88f	0.049721297
232	0x3b5ba199	0.0033513068
233	0x3d21e27c	0.039522633
234	0xbd303633	-0.04302044
235	0x3d769198	0.060197443
236	0x3aa081fa	0.0012245767
237	0xbc2f1550	-0.010686234
238	0xbd5548ae	-0.052071266
239	0xbb858703	-0.0040749325
240	0x3d2c07ce	0.04199963
241	0xbc238b05	-0.009981875
242	0x3d54e3e8	0.05197516
243	0xbcb8fd47	-0.02258171
244	0xbc9a4272	-0.018830512
245	0xbd3bf830	-0.045890987
246	0xbd098148	-0.033570558
247	0x3c30ec1c	0.01079848
248	0xbc75e81a	-0.015008951
249	0xbd839685	-0.06425194
250	0xbd2dac2d	-0.042400528
251	0xbd6348bf	-0.055489298
252	0x3d4c46d5	0.04987224
253	0x3d049aa6	0.032374047
254	0xbbc709b8	-0.0060741566
255	0x3c52e213	0.012871283

layers.4.linear.weight f4 [256, 256]
0	0xbd51bd73	-0.051206063
1	0x3b4db7ff	0.0031390188
2	0x3c39b0ae	0.011333628
3	0x3d428f08	0.047499686
4	0xbcc0e147	-0.02354492
5	0xbd3b2590	-0.04569012
6	0xbd736f5d	-0.059432376
7	0x3c14d41c	0.009083774
8	0xbcbf9f47	-0.023391379
9	0x3d39cb8e	0.04536014
10	0x3d21233f	0.039340254
11	0xbcbd1c99	-0.023084925
12	0xbd4878bb	-0.048943263
13	0x3d552840	0.05204034
14	0xbd6eee3b	-0.058332663
15	0xbd556fba	-0.052108504
16	0x3d4f640f	0.050632533
17	0xbbe741d1	-0.0070574065
18	0xbcc7512d	-0.0243307
19	0x3b8f52cc	0.004373884
20	0x3c80b6f4	0.015712239
21	0xbd1f2841	-0.03885675
22	0x3d4a4019	0.049377535
23	0x3d0e6b72	0.034770437
24	0x3d5c3725	0.053763527
25	0x3cfb8369	0.03070231
26	0x3d616182	0.05502463
27	0xb8b985e9	-8.84643e-05
28	0xbd562bb6	-0.05228778
29	0xbd36ce0a	-0.044630088
30	0x3d1457c1	0.0362165
31	0xbcc3ed91	-0.023916991
32	0x3cecbf95	0.028899947
33	0xbc75bcf3	-0.014998662
34	0xbcf25e64	-0.029586025
35	0xbbaa3550	-0.0051943436
36	0x3c3fde36	0.011710694
37	0x3b79560e	0.0038045677
38	0xbd69c5ea	-0.05707351
39	0xbd36c2a5	-0.04461922
40	0xbc69272c	-0.014230531
41	0xbd0a4a15	-0.033762056
42	0xbd51ca54	-0.051218346
43	0x3d4a0fda	0.049331523
44	0x3cc7985c	0.024364643
45	0x3d535ad9	0.05160031
46	0x3cbd28fa	0.023090828
47	0x3cfa489d	0.030552203
48	0xbbc14766	-0.005898404
49	0xbd895214	-0.06705108
50	0x3cb5116a	0.02210303
51	0xbbb9825e	-0.005661293
52	0x3b817703	0.003950955
53	0xbd1a41ae	-0.037660293
54	0xbb929840	-0.004473716
55	0x3ca2a516	0.01985411
56	0x3d6241da	0.055238582
57	0x3cce2aa0	0.02516681
58	0xbd455468	-0.0481762
59	0xbc4a64ea	-0.012353161
60	0x3d0414c9	0.032246385
61	0xbcf444d0	-0.029817969
62	0x3ce03904	0.027370937
63	0x3d55bf79	0.052184556
64	0xbd824943	-0.0636163
65	0xbc962d92	-0.018332276
66	0xbd47711a	-0.048691846
67	0xbd62e1b9	-0.055391047
68	0x3ce688e9	0.028141456
69	0xbd117ac0	-0.035517454
70	0x3cf8ab07	0.03035499
71	0xbd1b54bc	-0.037922606
72	0xbccaece6	-0.024771165
73	0x3d0a840b	0.033817332
74	0xbb15b485	-0.0022843194
75	0xbcf189ba	-0.029484618
76	0x3d085408	0.033283263
77	0x3ce89ce4	0.028395124
78	0x3d2f2611	0.042760912
79	0xbd5faf30	-0.05461043
80	0xbd14200e	-0.036163382
81	0xbce24d74	-0.027624823
82	0xbd37c005	-0.04486086
83	0xbc54abeb	-0.012980442
84	0xbc63c2fd	-0.013901469
85	0xbd205e38	-0.039152354
86	0x3cbf37c6	0.023342025
87	0xbd8ad066	-0.0677803
88	0x3ccb8ffc	0.02484893
89	0x3cfeb411	0.031091722
90	0xbd89b03f	-0.067230694
91	0x3d51d2cc	0.051226422
92	0xbc2904ed	-0.010316116
93	0xbbc84f6d	-0.006112984
94	0xbd3866c9	-0.0450199
95	0xbd460a67	-0.048349764
96	0x3bb290c5	0.005449387
97	0x3d6bd577	0.057576623
98	0xbd90b4e9	-0.07065756
99	0x3c8e5593	0.01737479
100	0x3bb71e27	0.0055883112
101	0x3c671acd	0.014105511
102	0xbd59014c	-0.052979752
103	0xbb8ffaae	-0.004393897
104	0xbd6ddfc2	-0.05807472
105	0x3d3955f7	0.045247998
106	0x3cd79a0c	0.026318572
107	0xbc96821a	-0.018372584
108	0x3b196f1d	0.0023412176
109	0x3d172a85	0.036905784
110	0x3c5d7d07	0.013518578
111	0x3c38ba3a	0.011274869
112	0x3d5bdfb5	0.05368014
113	0xbcc88d01	-0.024481298
114	0xbd38bc32	-0.045101352
115	0xbd41b9d2	-0.047296353
116	0x3d4d67c5	0.05014779
117	0xbd4e37a0	-0.050346017
118	0x3d06bb87	0.032893684
119	0x3d6964c2	0.056980856
120	0x3cf7f1c8	0.030266657
121	0xbcdd7e8f	-0.027037887
122	0x3c893936	0.016750913
123	0xbc8954ff	-0.016764162
124	0xbd5e9cb0	-0.054348648
125	0x3ccdad69	0.025107102
126	0x3ce1ce34	0.027564146
127	0x3d221766	0.039573096
128	0xbca3282a	-0.019916613
129	0x3cb1b49a	0.021692563
130	0xbd3f0e20	-0.04664433
131	0xbd6c24b0	-0.057652175
132	0xbd785f5f	-0.060637828
133	0xbd0dddbf	-0.0346353
134	0xbb3502a7	-0.002761999
135	0xbcc2278c	-0.023700498
136	0x3d42f85b	0.04760013
137	0xbd4165a0	-0.047216058
138	0xbc31b6d0	-0.010846809
139	0x3b134314	0.0022470402
140	0xbd8721da	-0.065982535
141	0x3cfc7431	0.030817123
142	0xbbd13bc7	-0.0063853
143	0x3ca31e6c	0.019911967
144	0xbc4a2f31	-0.012340353
145	0x3cd43f59	0.025909113
146	0x3c8bafe8	0.017051652
147	0xbb36a49b	-0.0027869109
148	0xbab74c65	-0.0013984559
149	0xbbe67f95	-0.007034252
150	0x3c78e9c0	0.015192449
151	0xbd4eb08c	-0.050461337
152	0xbc05dbcf	-0.008170082
153	0x3cda1f02	0.026626114
154	0xbd64c966	-0.05585613
155	0xbbd06051	-0.006359138
156	0x3b6b5d99	0.0035913943
157	0x3d019c85	0.03164341
158	0xbd2360f5	-0.039887387
159	0x3c8c921d	0.017159516
160	0xbbfb65c8	-0.0076720454
161	0xbcdd0a04	-0.026982315
162	0xbd3854a6	-0.045002602
163	0x3c9b433e	0.018952962
164	0x3d53aa76	0.051676236
165	0x3c23c13c	0.009994801
166	0xbd18c8ad	-0.037300754
167	0x3d20abed	0.03922646
168	0x3d616e8d	0.05503707
169	0xbbc16490	-0.0059018806
170	0x3cee23da	0.02906983
171	0x3c9bf42c	0.019037329
172	0x3d43b1f4	0.04777713
173	0x3cca0806	0.024662029
174	0xbc84fbc4	-0.016233332
175	0xbc1c40fe	-0.00953698
176	0xbb34a938	-0.0027566683
177	0xbd1b1ce1	-0.037869338
178	0xbc54d6eb	-0.012990694
179	0xbd42ed0a	-0.04758934
180	0xbcfd0c57	-0.030889673
181	0x3cb82b12	0.022481475
182	0x3d04c7c2	0.032417066
183	0x3d226457	0.039646473
184	0xbd2cd349	-0.042193685
185	0x3cc71bee	0.02430531
186	0xbc811fd9	-0.015762256
187	0x3c2bdea4	0.010490093
188	0xbd0e2349	-0.03470162
189	0xbd067382	-0.032825
190	0x3d58cab2	0.05292768
191	0xbd5e7e2e	-0.054319553
192	0x3cfeef78	0.031120047
193	0xbcc9af8f	-0.024619846
194	0xbd9348e3	-0.071916364
195	0xbc500049	-0.0126953805
196	0xbd15b4c9	-0.036549363
197	0xbd56d711	-0.052451197
198	0xbd44995a	-0.04799781
199	0xbd2a5592	-0.041585512
200	0xbc2aee6b	-0.01043282
201	0xbd8209c4	-0.06349519
202	0xbd0afa4d	-0.03393011
203	0xbcc70396	-0.024293702
204	0xbd2b5dca	-0.04183749
205	0xbd3972b5	-0.04527541
206	0xbd462448	-0.048374444
207	0xbd346890	-0.04404503
208	0xbd66147e	-0.056171887
209	0xbbd2bb98	-0.0064310543
210	0xbd3d059c	-0.046147928
211	0xbd0b601e	-0.03402721
212	0xbc3f4ac7	-0.011675543
213	0x3c4f559d	0.012654689
214	0xbbf57189	-0.007490341
215	0xbd034983	-0.032052528
216	0x3d546a80	0.05185938
217	0x3d5e9f49	0.054351125
218	0xbd3f4deb	-0.046705168
219	0xbd7d37c4	-0.06182076
220	0x3ca52511	0.020159276
221	0xbbf85ac7	-0.007579181
222	0x3d429927	0.04750934
223	0xb62d7e49	-2.5852517e-06
224	0x3c4e99a4	0.012609873
225	0x3cfed241	0.031106116
226	0x3c77682c	0.01510052
227	0x3d4ed10e	0.05049234
228	0xbd63a1cc	-0.055574223
229	0xbced287a	-0.028949965
230	0x3abb51aa	0.0014291306
231	0xbc610373	-0.0137337325
232	0xbd8a0da7	-0.06740885
233	0x3c9a03af	0.018800585
234	0xbac2107f	-0.0014805942
235	0xbcdab4cc	-0.026697539
236	0x3c68df25	0.014213358
237	0x3d300010	0.04296881
238	0x3c24f3d3	0.010067898
239	0xbc75431a	-0.014969612
240	0xbd0c2618	-0.034216017
241	0x3c2a2540	0.010384858
242	0x3d11c88c	0.035591647
243	0x3d1f4a2d	0.0388891
244	0x3d31b49d	0.043385137
245	0xbcba9238	-0.0227748
246	0x3d148823	0.036262643
247	0xbd1746ff	-0.03693294
248	0xbd397fc7	-0.045287874
249	0xbcc95736	-0.024577718
250	0xbd8ab00d	-0.0677186
251	0x3d2e15f7	0.042501416
252	0x3d2d6cf0	0.04234022
253	0x3bb76376	0.0055965735
254	0xbd082761	-0.03324068
255	0x3af7d473	0.0018907919

layers.4.linear.bias f4 [256]
0	0xbd63a102	-0.05557347
1	0xbd1a77c9	-0.037711892
2	0x3d327af0	0.043574274
3	0xbd6a7a10	-0.057245314
4	0x3d0e51a5	0.03474583
5	0xbd1819de	-0.037134044
6	0x3d7e0df8	0.06202504
7	0x3b29b23e	0.0025893594
8	0xbd8c6409	-0.06855018
9	0xbc27a092	-0.010231154
10	0x3d35c07d	0.044373024
11	0x3d46c37d	0.048526276
12	0x3d401b28	0.0469009
13	0x3d5f0e62	0.054457076
14	0x3cf123fa	0.0294361
15	0xbca3dbeb	-0.020002326
16	0xbd52e56f	-0.051488336
17	0x3c620b7f	0.013796686
18	0xbb4b7ef6	-0.0031051016
19	0x3a06cbc6	0.0005142059
20	0xbd6b16a3	-0.057394635
21	0x3c80044c	0.015627049
22	0x3b895ddd	0.0041920976
23	0x3c9275cc	0.017878436
24	0x3c3aa17b	0.011391039
25	0x3d49c9c7	0.049264695
26	0xbd44b9b4	-0.048028663
27	0x3d10a56b	0.035314005
28	0x3d084ca4	0.033276215
29	0x3c545de3	0.012961837
30	0xbd452f63	-0.048140895
31	0x3cbbb419	0.022913026
32	0xbd184f36	-0.037184916
33	0x3cf35f40	0.029708505
34	0x3c6ff5ef	0.0146460375
35	0x3d6b15a6	0.057393692
36	0x3cf93f14	0.030425586
37	0x3d8e178c	0.06938085
38	0x3b365836	0.0027823574
39	0x3d681662	0.05666197
40	0xbcddbc0d	-0.027067209
41	0x3d3040e4	0.043030635
42	0x3d4a088d	0.04932456
43	0x3d39e9e2	0.045389064
44	0xbcbc8dd8	-0.023016855
45	0xbd399b4b	-0.045314115
46	0xbcabee00	-0.02098751
47	0x3cc7079f	0.024295626
48	0x3ca096e0	0.019603193
49	0xbd8b0a9f	-0.06789135
50	0xbc22b4f8	-0.009930842
51	0xbd3bb69e	-0.045828454
52	0x3cf46041	0.029831054
53	0x3d23251a	0.039830305
54	0x3d01c2d1	0.031679932
55	0x3d0a5ca1	0.033779744
56	0xbcdbcd95	-0.026831428
57	0xbd1a0b8f	-0.03760868
58	0xbd33e0b2	-0.043915458
59	0xbc4d8528	-0.012543954
60	0xbd734696	-0.059393488
61	0xbc13abe9	-0.009013155
62	0x3c5ece45	0.013598983
63	0x3cbe98da	0.023266245
64	0x3d0d2df5	0.034467656
65	0xbd78f850	-0.060783684
66	0x3ce9e21b	0.028550198
67	0xbccc9f12	-0.024978194
68	0xbd54fee9	-0.052000914
69	0x3bc64004	0.0060501117
70	0xbd76ca40	-0.060251474
71	0xbd17e6db	-0.037085395
72	0xbc8e2cc6	-0.017355334
73	0x3d172735	0.036902625
74	0xbd61cb89	-0.055125747
75	0xbb9c65c6	-0.0047728745
76	0x3bc1f4fe	0.005919098
77	0xbc86fab5	-0.016476968
78	0xbc48049f	-0.012208133
79	0xbcf5f15b	-0.030022314
80	0xbca7e643	-0.02049554
81	0x3c9a04b4	0.01880107
82	0x3b76b87d	0.0037646585
83	0x3cb55fb4	0.022140361
84	0xbcba0cbd	-0.022711152
85	0xbace3495	-0.0015732223
86	0xbd267448	-0.04063824
87	0xbd0c202e	-0.034210376
88	0xbc7f8aff	-0.015597104
89	0xbd4a2b60	-0.049357772
90	0x3c036a76	0.008020988
91	0x3d0394ce	0.032124333
92	0xbb4e461c	-0.0031474894
93	0x3cb76c34	0.022390462
94	0x3d4212a9	0.047381077
95	0x3d4487ab	0.047980946
96	0xbd4cf6ba	-0.050039984
97	0xbd7c922f	-0.06166285
98	0xbd2a832e	-0.04162901
99	0x3cf7d48c	0.030252717
100	0x3d10ae46	0.03532245
101	0xbc216057	-0.009849629
102	0x3d7b30d4	0.061325863
103	0xbb1ade0b	-0.0023630883
104	0xbbeba082	-0.007190765
105	0x3b5a4a31	0.0033308382
106	0xbc46c287	-0.01213134
107	0x3d304664	0.04303588
108	0xbc9e6b2a	-0.01933821
109	0xbb4cae76	-0.0031231917
110	0x3d182255	0.037142117
111	0x3c96cc08	0.018407837
112	0xbd313d59	-0.043271396
113	0x3c1bf6ea	0.009519318
114	0xbd3fbd60	-0.04681146
115	0xbd4359af	-0.04769295
116	0x3cbf67be	0.023364898
117	0xbd160f72	-0.036635824
118	0xbd4ab7d8	-0.049491733
119	0x3c780c0c	0.015139591
120	0xbd03f199	-0.032212827
121	0xbce4e723	-0.027942246
122	0x3a027b42	0.0004977473
123	0x3da93dff	0.08263778
124	0xbd6eef3d	-0.058333624
125	0xbd2bacf3	-0.041912984
126	0xbcfce2c4	-0.030869849
127	0xbd3618f2	-0.044457383
128	0x3b461a68	0.0030228142
129	0xbd011406	-0.031513236
130	0xbbc4b9d0	-0.006003596
131	0xbd4007de	-0.046882503
132	0x3d39c962	0.04535807
133	0x3c501e59	0.012702548
134	0x3d6148d9	0.055001114
135	0xbcb63616	-0.022242587
136	0xbd6cb883	-0.05779315
137	0xbd32e46b	-0.043674868
138	0xbcb3d0d3	-0.021950161
139	0x3b56c0bf	0.0032768694
140	0x3cef65f1	0.029223414
141	0x3c6488ea	0.0139486585
142	0x3d22ada4	0.039716378
143	0xbc94f222	-0.018181864
144	0xbd4d7be5	-0.050166983
145	0xbd7768ee	-0.060402803
146	0xbd8c842b	-0.068611465
147	0xbd593a9c	-0.05303441
148	0xbd351b74	-0.044215634
149	0x3d216569	0.039403353
150	0x3aeede3e	0.0018224192
151	0xbd830dce	-0.063991174
152	0xbc11ec63	-0.008906457
153	0xbd743356	-0.05961927
154	0x3c989d85	0.018629799
155	0x3cd9a159	0.026566194
156	0xbc259a2d	-0.010107559
157	0xbd6692a5	-0.056292195
158	0xbbcd3020	-0.0062618405
159	0x3c839848	0.016063824
160	0xbd7b43a7	-0.061343815
161	0xbd00428e	-0.03131347
162	0xbd30d01e	-0.043167226
163	0xbd28f00c	-0.04124455
164	0x3d58356d	0.052785326
165	0x3c7cdf8d	0.015434158
166	0x3c63ea53	0.013910848
167	0x3c9b7bd1	0.018979939
168	0x3d26b133	0.040696334
169	0xbd40e11f	-0.047089692
170	0x3d238a40	0.039926767
171	0xbc32d468	-0.010914899
172	0xbd3d05ac	-0.046147987
173	0x3d81e795	0.06342999
174	0xbd446659	-0.04794917
175	0xbd8590c7	-0.06521755
176	0x3cf7cb8b	0.030248424
177	0xbbebc314	-0.007194886
178	0xbd676865	-0.056496043
179	0x3d1e57ee	0.038658075
180	0xbd7404d8	-0.05957493
181	0xbd62e0a4	-0.055390015
182	0xbd114aa3	-0.03547157
183	0xbcbf2ea5	-0.023337672
184	0xbd0f6d85	-0.035016555
185	0x3d142bf2	0.036174722
186	0xbdab3996	-0.08360593
187	0xbd435070	-0.047684133
188	0x3ac32689	0.0014888804
189	0x3c96a9e1	0.018391551
190	0x3c5aaf30	0.013347432
191	0x3c990fbe	0.018684264
192	0x3d52e454	0.051487282
193	0xbd09c7ff	-0.033637997
194	0xb8ad4ed6	-8.263967e-05
195	0x3d1f591f	0.038903352
196	0x3d4eb559	0.050465915
197	0x3ca5f0cf	0.020256428
198	0x3cc9fc53	0.02465645
199	0xbd5f3c7c	-0.05450104
200	0x3d15d638	0.036581248
201	0xbc2a2ac3	-0.010386172
202	0xbaf3897b	-0.0018580401
203	0xbd3d749d	-0.04625379
204	0xbd1c5ffb	-0.03817747
205	0xbd9c8508	-0.07642561
206	0xbd2f62c2	-0.042818792
207	0xbd3c2a12	-0.04593856
208	0xbd2fa9de	-0.042886607
209	0xbca54369	-0.020173745
210	0x3c6616a5	0.014043485
211	0x3cccd223	0.025002545
212	0xbd70a51f	-0.05875122
213	0x3d3f9552	0.046773262
214	0x3cbe733f	0.023248313
215	0xbd138e3a	-0.03602431
216	0xbc85998a	-0.016308565
217	0xbd5f732a	-0.05455319
218	0x3cb13d3d	0.021635646
219	0x3c872fb6	0.016502243
220	0x3d73ec6d	0.059551645
221	0xbc4d853e	-0.012543974
222	0x3d79563c	0.060873255
223	0xbca9823e	-0.020691987
224	0xbd1d6442	-0.03842569
225	0xbc422e02	-0.011851789
226	0x3d2f5a65	0.042810816
227	0x3ccd0ce7	0.025030566
228	0x3c5ba69b	0.013406421
229	0x3cd1ede2	0.025626127
230	0x3d3a648a	0.045506038
231	0x3d32057a	0.043462254
232	0x3b87da64	0.0041459072
233	0xbc8f03b9	-0.01745783
234	0xbd3d4d5f	-0.046216365
235	0x3b996841	0.0046816175
236	0x3d3904ae	0.04517048
237	0x3cf1099a	0.029423524
238	0x3d421812	0.047386236
239	0x3cf7ca35	0.030247787
240	0xbd22ee89	-0.039778266
241	0xbcdfc744	-0.027316697
242	0xbd2c7b8d	-0.042110015
243	0xbd2acc35	-0.041698653
244	0xbc5a0c27	-0.013308561
245	0xbd79e2e3	-0.06100739
246	0x3d1faf47	0.038985517
247	0xbd58fb48	-0.052974015
248	0xbd39dd3f	-0.045377012
249	0xbc0f1726	-0.008733546
250	0x3bc47070	0.005994849
251	0xbd0a3f17	-0.033751573
252	0x3d77224f	0.060335454
253	0x3d1b7e45	0.037962217
254	0xbc64f56e	-0.013974531
255	0xbd27757f	-0.040883537

layers.6.linear.weight f4 [256, 256]
0	0xbb7c743e	-0.0038521434
1	0x3d6d1c07	0.057888057
2	0x3d4110f0	0.047135293
3	0x3d47958b	0.0487266
4	0x3d642d83	0.055707466
5	0xbd3a62a1	-0.045504216
6	0x3ca13961	0.01968068
7	0x3e214a6b	0.15751044
8	0xbc2b9c8d	-0.010474336
9	0x3cc2ac42	0.02376378
10	0xbbfc9b11	-0.007708915
11	0x3d8c5c23	0.06853511
12	0x3d394cd6	0.045239292
13	0x3d8ffdd5	0.070308365
14	0x3ca73618	0.020411536
15	0xbceb1eb8	-0.028701171
16	0x3d82feaa	0.063962296
17	0x3d5acb92	0.053416796
18	0xbe56c74e	-0.20974466
19	0x3b89719e	0.0041944524
20	0x3c614355	0.013748963
21	0x3c8d1a97	0.017224593
22	0xbcb70505	-0.02234126
23	0x3cdbf9bd	0.026852483
24	0xbcc7ba57	-0.024380846
25	0x3d7cf1f7	0.061754193
26	0x3ddc6a9d	0.10762522
27	0x3d262335	0.04056092
28	0xbd3676e2	-0.04454697
29	0xbd794109	-0.060853038
30	0x3d068051	0.032837216
31	0x3d1f7e91	0.038939063
32	0x3d99c841	0.075088985
33	0x3da98bd9	0.08278627
34	0x3d2428db	0.040078025
35	0x3c812db4	0.015768863
36	0x3c7f14c3	0.015568915
37	0x3cf7e1e1	0.030259075
38	0x3d7ecd8b	0.06220774
39	0xbc1e4202	-0.009659292
40	0x3d8e47af	0.06947266
41	0x3cd1b517	0.025599046
42	0xbd1d0047	-0.038330343
43	0x3ce75e67	0.028243257
44	0x3c90cf8f	0.017677097
45	0xbd5327ee	-0.05155175
46	0x3cf7c0d9	0.030243324
47	0x3d282651	0.041052166
48	0x3db752c7	0.089513354
49	0xbb6bd60e	-0.003598574
50	0xbd00ec5f	-0.03147542
51	0x3cc23e95	0.023711482
52	0x3d53800e	0.051635794
53	0x3d80ea8b	0.062947355
54	0x3cbfa87f	0.023395775
55	0xba5879fa	-0.0008257922
56	0x3cb2d9f9	0.021832453
57	0xbac71969	-0.0015190068
58	0x3d5e4194	0.05426176
59	0x3b93a5b5	0.004505838
60	0xbd3bc60c	-0.04584317
61	0xbca5cd37	-0.020239456
62	0x3d49d7b3	0.049277972
63	0x3d67ea7d	0.05662011
64	0xbd573daa	-0.05254904
65	0x3e520e87	0.20513354
66	0x3d4b37a7	0.04961362
67	0x3c8d80e7	0.01727338
68	0xbcfd5f26	-0.03092916
69	0xbd463c64	-0.048397437
70	0xbcf25ddd	-0.029585773
71	0x3d1034db	0.035206657
72	0x39436447	0.00018634005
73	0xbd1c5f69	-0.038176928
74	0xbc30a554	-0.010781605
75	0xbd5ed082	-0.054398067
76	0xbc129ae9	-0.008948066
77	0x3d84a24b	0.064762674
78	0x3c810e1a	0.015753794
79	0xbcfa078a	-0.030521173
80	0x3c935fd5	0.017990032
81	0x3d3d0114	0.046143606
82	0x3e5e048f	0.21681426
83	0x3d1db80c	0.0385056
84	0xbc3d5719	-0.01155641
85	0x3d4afadd	0.049555648
86	0x3c49814f	0.012298896
87	0xbd460571	-0.048345033
88	0x3d0e1ca0	0.034695268
89	0xbe50e7f4	-0.20400983
90	0xbdd910bf	-0.10598897
91	0x3d3b0327	0.045657303
92	0xbd314c5d	-0.043285716
93	0x3d80dc7c	0.06292054
94	0xbd373436	-0.044727527
95	0xbbd87126	-0.006605285
96	0xbcf2e51e	-0.029650267
97	0xbce038a9	-0.027370768
98	0x3d0a57aa	0.03377501
99	0x3b9818e4	0.004641639
100	0xba7d1534	-0.00096543436
101	0x3d6e382b	0.058159035
102	0xbc8e9365	-0.017404268
103	0x3dbc41aa	0.09192212
104	0x3d0ce332	0.034396358
105	0xbdc224bd	-0.094796635
106	0x3cf77713	0.030208146
107	0xbbb25bbc	-0.0054430645
108	0xbd3c84ed	-0.046025205
109	0xbc69122e	-0.014225526
110	0x3d89ffe0	0.067382574
111	0x3d560a27	0.052255776
112	0xbc9ddd12	-0.019270454
113	0x3d4b0569	0.049565706
114	0xbc828740	-0.015933633
115	0x3d41fa0f	0.047357615
116	0x3c8f48f2	0.017490838
117	0x3d74f044	0.059799448
118	0x3d291d04	0.041287437
119	0x3ce662e0	0.02812332
120	0x3c6900a7	0.014221347
121	0x3d0bc4a7	0.03412309
122	0x3d28df73	0.041228723
123	0xbdda0103	-0.10644724
124	0x3e05ef2b	0.13079517
125	0xbd4c5631	-0.049886886
126	0x3d44f1a2	0.048082
127	0x3d3f8ccd	0.046765137
128	0xbcea091c	-0.028568797
129	0xbd3c9fa9	-0.0460507
130	0x3d863117	0.06552332
131	0x3d5c2530	0.053746402
132	0xbc1d292d	-0.009592337
133	0x3c5a70de	0.013332574
134	0x3c86fb2f	0.016477196
135	0xbd48b044	-0.048996225
136	0x3caf4306	0.021394264
137	0x3d3c5628	0.045980603
138	0x3d988318	0.07446879
139	0x3d795346	0.06087043
140	0x3d107652	0.03526909
141	0xbc5975d9	-0.013272726
142	0x3d620a14	0.055185392
143	0xbd5a9bba	-0.05337117
144	0xbd1ead43	-0.038739454
145	0x3d1cf8da	0.03832326
146	0xbd4f8dda	-0.05067239
147	0x3cffa5bb	0.031206956
148	0xbd3b041e	-0.045658223
149	0xbd05ab64	-0.032634154
150	0x3da98b4e	0.082785234
151	0x3d64517e	0.05574178
152	0x3d2d44e8	0.042302042
153	0x3d778cda	0.06043706
154	0xbd02729b	-0.031847578
155	0xbd69e6ba	-0.057104804
156	0xbd88e508	-0.06684309
157	0xbd5408c0	-0.051766157
158	0x3d7702a2	0.060305245
159	0x3ba3a610	0.0049941614
160	0x3d6dcc88	0.058056384
161	0xbd0e52fc	-0.03474711
162	0x3cbf6297	0.023362441
163	0xbcd7e12f	-0.026352493
164	0x3caf9b6c	0.021436416
165	0xbd292899	-0.041298483
166	0x3cdac955	0.02670733
167	0x3c91337f	0.01772475
168	0x3cd210e0	0.025642812
169	0xbc00d46c	-0.007863145
170	0x3d0a0920	0.03370011
171	0x3c701152	0.014652567
172	0x3d2a5968	0.04158917
173	0xbc5ea65d	-0.013589469
174	0xbb356ac5	-0.0027682048
175	0xbd0cb6de	-0.034354083
176	0x3b148ec4	0.0022668103
177	0xbdb9e601	-0.09077073
178	0xbb337e34	-0.0027388455
179	0x3d85d1ab	0.065341316
180	0xbd050696	-0.032476984
181	0xbcbe4cc3	-0.023229962
182	0xbd55021b	-0.05200396
183	0xbe39a1d7	-0.18128143
184	0xbcc44c88	-0.023962274
185	0x3ca286d1	0.019839676
186	0x3dccacdf	0.0999391
187	0xbd3b16ba	-0.04567597
188	0xbdb645b5	-0.08900014
189	0x3cddbde6	0.02706809
190	0xbd361799	-0.0444561
191	0xbcd032f6	-0.025414925
192	0x3d12a9cd	0.035806466
193	0x3c83d805	0.016094217
194	0x3dec85ec	0.11548981
195	0x3c17f0d4	0.0092737265
196	0x3d020f28	0.031752735
197	0xbd2eb372	-0.0426516
198	0xbd000e61	-0.031263713
199	0xbc7d7c21	-0.015471489
200	0x3d314d14	0.043286398
201	0xbcbb0f2e	-0.022834387
202	0x3c2209c8	0.009890027
203	0xbd54774c	-0.051871583
204	0x3d5bd8e4	0.05367364
205	0x3e53b864	0.20675808
206	0xbd9fa5a9	-0.07795269
207	0xbcdb6dde	-0.026785787
208	0x3c7b706a	0.015346626
209	0x3e4bf79f	0.19918679
210	0x3d5fedaf	0.054670032
211	0xbd4f6a7e	-0.05063867
212	0xbba1e11b	-0.0049401647
213	0xbd053c03	-0.032527935
214	0x3dcc30ab	0.0997022
215	0xbbb38207	-0.005478147
216	0x3d7219c9	0.059106622
217	0x3dff895f	0.12477373
218	0x3dad23c2	0.08454086
219	0xbcf9db7a	-0.030500162
220	0xbcd60197	-0.026123805
221	0xbc0e7354	-0.008694489
222	0x3d46de3e	0.04855179
223	0x3bef80eb	0.0073090694
224	0xbd082b30	-0.03324431
225	0x3d33821f	0.043825265
226	0x3d0c6d8d	0.034284163
227	0x3d693b48	0.0569413
228	0x3e7aaaff	0.24479292
229	0xbcd3b669	-0.025843816
230	0xbcb8413a	-0.02249204
231	0x3d31b94e	0.04338961
232	0x3c6ea059	0.014564597
233	0xbbb642da	-0.0055621685
234	0x3e78a258	0.24280679
235	0x3d67bf2c	0.0565788
236	0xbd13a5cb	-0.036046784
237	0xbc08fa6d	-0.008360487
238	0xbd2fb885	-0.04290058
239	0x3d8048d5	0.062638916
240	0xbeb41efc	-0.3517989
241	0x3d8070b9	0.062715
242	0xbcc04b49	-0.023473399
243	0x3c78bb4b	0.015181373
244	0x3c820704	0.015872486
245	0xbc5bb080	-0.01340878
246	0x3d320dea	0.0434703
247	0x3cdd39ce	0.027005102
248	0xbc4f300b	-0.012645732
249	0x3d62b3bc	0.05534719
250	0xbc79d81a	-0.0152492765
251	0x3be7b308	0.0070709027
252	0xbc761603	-0.015019896
253	0x3d257c69	0.04040185
254	0x3c65bd03	0.014022115
255	0xbbfdcec4	-0.0077455956
