res/model/new_model.pth (torch, 840916 bytes, 10 tensors)

layers.0.linear.weight f4 [256, 42]
000000 2d 08 a7 3d a7 75 ab bd 6c 3f d8 bc d9 2e 6a 3d
       0.08155856 -0.0837205 -0.02639743 0.057173584
000010 ea 9b 29 be 02 db 94 3d f8 25 c4 bc a5 3e 84 3d
       -0.16563383 0.07268335 -0.023943886 0.06457261
000020 0b ff 5f bc b9 e8 74 bd 2e 26 7e 3d 92 b6 0b bb
       -0.013671647 -0.059792254 0.06204813 -0.0021318537
000030 ed 85 53 bd d8 c4 52 bd fd a6 71 bd 6f bb a1 bd
       -0.051641393 -0.051457256 -0.058997143 -0.07897078
000040 39 2b 6a bc 62 fe 19 bd 1d fd 31 3e cb a3 02 3d
       -0.014292532 -0.037596114 0.17381711 0.031894486
000050 2c 85 73 bd bd d6 07 be 02 81 ce bc a4 88 71 bd
       -0.059453174 -0.1326551 -0.025208 -0.0589682
000060 81 e9 ec bb d8 4f 13 bd e6 ab ea 3d 58 55 c8 3d
       -0.0072299843 -0.035964817 0.11458568 0.09781903
000070 99 2d 45 be ab 3f 43 3c 5f f5 a0 3d 86 ce 3f 3e
       -0.19255675 0.011917035 0.07859301 0.18731126
000080 30 7a 1b 3e 76 04 44 be 9d 95 ff bd 01 09 e0 bd
       0.1518333 -0.19142327 -0.12479708 -0.10939217
000090 4d 3e b9 3d 75 ce 8d bd 1f 3b bc 3c 82 53 a8 bd
       0.09045086 -0.06924144 0.02297741 -0.08219053
0000a0 bc 24 63 3d 85 4e de bd 9f ff d8 3d 32 d0 a9 bb
       0.055454955 -0.1085482 0.10595631 -0.0051822895
0000b0 fc 60 b7 bd 39 2c 96 3d 40 94 95 bd c3 da 5b 3d
       -0.08954045 0.073326536 -0.07303667 0.053675424
0000c0 d0 46 43 bd 8b 42 a1 bc ec ad e0 bd 78 cf 75 bc
       -0.047674954 -0.01968505 -0.10970673 -0.015003078
0000d0 7a 2a f6 3d cd 75 83 3c 75 36 1a 3e e4 59 0f 3e
       0.120198205 0.016047383 0.15059836 0.13999134
0000e0 aa f0 69 bd 30 8a 5e bd ff da 8a 3d e9 9e 20 3e
       -0.05711428 -0.054331005 0.067800514 0.1568562
0000f0 a3 7e 21 be d1 a3 0a 3e 3f e0 22 3e 48 0e 6e 3e
       -0.15770964 0.13539053 0.15905856 0.23247635
000100 39 22 b1 bd fb df 8f 3d 0e ee 67 3d 88 39 2e 3d
       -0.086491056 0.07025143 0.05662351 0.042535335
000110 8e a8 3e be 49 70 75 be 85 44 6f 3d 99 d1 94 bd
       -0.18618986 -0.23968615 0.058414955 -0.0726654
000120 09 16 91 3c 32 3f 4f 3d 19 13 1c 3d 12 d4 8c 3d
       0.017710702 0.050597377 0.03810415 0.06876387
000130 1c 7e 7b 3d db 03 a2 3c 71 a8 95 bd 69 66 d9 3d
       0.061399564 0.019777229 -0.07307518 0.10615236
000140 a6 56 38 bd ac 01 dc bd 36 77 8b 3c 7c 8a 5d bd
       -0.04500451 -0.107425064 0.017024618 -0.054087147
000150 3b 62 d4 3d 36 28 e9 bd 55 7d 00 be 58 53 b6 3d
       0.103702985 -0.11384623 -0.1254781 0.08902615
000160 bc f7 1b bd b7 71 a8 3d 61 ea 67 3d f6 f8 09 be
       -0.038078055 0.082248144 0.056620006 -0.13473877
000170 d1 73 4d bc e4 af 74 3d 8d ad 05 be cb 51 78 bd
       -0.01253982 0.059738055 -0.13054486 -0.06062488
000180 84 a4 9d bc f9 46 9f 3d e1 91 80 3c ef b1 cc bd
       -0.019243486 0.07777209 0.01569456 -0.09994876
000190 d9 f8 14 3e ad 7c 1c bd 30 4a ee 3d f3 ff 44 3c
       0.14548053 -0.038204838 0.11635244 0.012023914
0001a0 97 9a 22 be 2e 06 37 be 14 e0 04 3e dc 00 dd 3d
       -0.15879284 -0.17873451 0.12976104 0.107911795
0001b0 a4 87 31 3d 09 0a cd bd 33 86 d2 bd 67 76 2f 3d
       0.043342248 -0.1001168 -0.10279503 0.042837527
0001c0 26 ba 22 3e 91 75 30 bd 17 ab 12 3d 6b ff 45 3e
       0.15891322 -0.04308087 0.035807695 0.19335715
0001d0 a6 1e f2 3d 78 c4 b3 3d 66 10 d6 bd f1 b3 da bd
       0.11822252 0.08777708 -0.104523465 -0.10678852
0001e0 44 58 c2 bd be b4 e8 3c d2 ee df 3c b7 64 e9 bd
       -0.094894916 0.028406497 0.027335558 -0.11396163
0001f0 30 f9 d8 3b 80 ec cf bd e6 aa 04 be 22 e6 4a bd
       0.0066215023 -0.10152531 -0.12955818 -0.049535878
000200 1b ba d4 3d ec bb 03 3e 8a ff cc bd 30 40 1b 3d
       0.10387059 0.12864655 -0.10009678 0.03790301
000210 91 7e 15 3e 40 39 c3 3d ee ac 97 3d 11 f7 00 3e
       0.14599063 0.09532404 0.074060306 0.12594248
000220 38 d2 b9 3d 14 c7 93 3d 30 7d 40 be 06 e3 cc bd
       0.09073299 0.072157055 -0.18797755 -0.10004239
000230 e5 bb f0 bd e4 7e df bc 7c 13 a1 bd 9f c2 10 3d
       -0.11754588 -0.027282186 -0.078650445 0.035341855
000240 0a 74 16 3e 63 17 a9 bd 8e f1 ad 3d 76 bb 42 3d
       0.14692703 -0.08256414 0.084933385 0.047542058
000250 65 7f 54 3d cb 94 0b 3e 2b 0f da bd a5 f3 18 3e
       0.051879305 0.13630979 -0.10647424 0.14936693
000260 7e 3d 65 bb 04 57 f6 bc b0 24 40 be 8e 9a eb bd
       -0.003497928 -0.03007079 -0.18763995 -0.11504088
000270 ab f2 9e bd 44 e3 ad bc 1c 0f 5e 3d 1a ec b8 3c
       -0.07761129 -0.021226533 0.05421363 0.02257352
000280 bb 6f aa bd 30 60 9d 3c 02 e2 00 3c 6d fb e7 3d
       -0.08322092 0.019210905 0.007866384 0.113272525
000290 22 de 4c bc 79 2a 16 3d 59 1e f6 bc a6 68 32 bd
       -0.012504132 0.0366616 -0.030043768 -0.04355683
0002a0 81 f8 d8 bd 59 6a ae bd 44 8b fb bc ff 30 60 3d
       -0.10594273 -0.08516378 -0.030706055 0.054734226
0002b0 08 bd 13 3d 08 72 67 3d 0f d6 2a 3e 08 94 1b 3e
       0.036068946 0.056505233 0.1668322 0.15193188
0002c0 92 89 d6 3d a7 9d 84 3d 80 cd e2 bd 0e 48 41 3e
       0.10475458 0.06475382 -0.11074352 0.18875143
0002d0 79 1a 9a bd 0b a6 1d 3d ad 0e 34 be 33 00 21 bd
       -0.075245805 0.03848843 -0.17583723 -0.03930683
0002e0 4d 50 ab bc e0 52 a3 3d 93 7d f5 bd 6e 5e d0 bd
       -0.020912314 0.079747915 -0.11986842 -0.10174261
0002f0 9b a2 16 3d 26 95 f6 bd 3f 71 0b 3e 5c 07 ee bd
       0.036776166 -0.120401666 0.13617419 -0.116224974
000300 54 40 51 bd fd 69 2b bd fe 85 8b 3d 28 7e de bd
       -0.05108674 -0.041849125 0.06812666 -0.10863906
000310 f4 3a 3d bc 61 c6 2f 3e 21 6b 63 3d 3d b0 a5 bd
       -0.0115497 0.1716552 0.055522088 -0.080902554
000320 d9 af 76 3d 63 e9 df bd 53 77 a9 3d 1e 9b 9a bd
       0.060226295 -0.10933187 0.082747124 -0.075491175
000330 c5 3a 94 3d 8f f6 95 3d cc 96 e4 bb 76 15 c9 bb
       0.07237772 0.07322418 -0.006975984 -0.0061365915
000340 94 0c 4a 3c f2 01 81 3d 14 e2 88 3b 97 9e ea 3c
       0.0123321 0.06299199 0.0041773412 0.028640075
000350 b8 59 23 be b8 4e c3 3d 17 84 f1 3d c1 1c e4 3d
       -0.15952194 0.09536499 0.11792772 0.11138297
000360 f0 27 be 3d f1 47 fe bd b3 53 8b bd 7e d6 fc 3d
       0.09284961 -0.124160655 -0.06803074 0.12345599
000370 ce 4a 11 be 79 2e 0d 3e 4e 68 aa bd a3 ab fa bd
       -0.14188692 0.13787259 -0.08320676 -0.12239768
000380 a9 a7 d6 3d 9a 32 37 be ac 7f 54 bc bc ac 3a 3e
       0.104811974 -0.17890397 -0.0129698925 0.18229955
000390 33 c4 f8 3c 3e b3 2a 3e ba f3 cc bc bd 7a 19 be
       0.030366993 0.16669938 -0.025018562 -0.14988227
0003a0 d2 b3 05 3d 8a 98 8e 3c a9 39 b0 bd 80 90 09 bd
       0.032642193 0.01740672 -0.08604748 -0.03358507
0003b0 ed 64 bf bd 8e 38 f3 3c 7d fc b2 3d 4b 8e 78 be
       -0.09345422 0.029690053 0.087395646 -0.2427303
0003c0 32 ce e5 bd 19 ff 1a 3d b5 78 26 3d 87 80 89 bd
       -0.11220969 0.037840936 0.04064246 -0.06713968
0003d0 93 36 9d bd 9a 3c 63 3d 7a f4 e1 bd 79 4c 4c be
       -0.07676425 0.055477716 -0.11032958 -0.19951047
0003e0 cb 68 dd bc c6 46 1b 3e 37 c9 00 3d c1 48 b5 bd
       -0.027027508 0.15163717 0.031441893 -0.08851767
0003f0 89 41 f9 ba d7 71 5b 3d c9 f5 36 3c 60 9d b7 bd
       -0.0019016723 0.053575363 0.011166998 -0.08965564

layers.0.linear.bias f4 [256]
000000 74 aa 1c bd 73 c4 08 be d0 3b 12 3c 19 c3 7b 3c
       -0.038248494 -0.1335619 0.008925393 0.015366339
000010 15 cf e7 3d b6 e9 12 be 06 60 ce bd f4 f5 11 3e
       0.11318795 -0.14346966 -0.10076909 0.1425398
000020 4c 74 b6 bd b9 28 e0 ba 44 c9 0a 3e a5 43 1f 3e
       -0.089089006 -0.001710198 0.13553339 0.15553148
000030 d2 21 83 bb 94 78 31 be 15 fa eb bd 74 67 0b be
       -0.0040018344 -0.17331153 -0.11522309 -0.13613683
000040 d5 99 e1 bb 15 fb 26 be 91 a3 07 3e c1 e5 00 be
       -0.0068847933 -0.16306718 0.1324599 -0.12587644
000050 4e 5a 7a bc 61 e9 7e 3d 0a 7b 26 bd b2 68 04 3e
       -0.015280319 0.062234286 -0.040644683 0.12930563
000060 77 c3 24 3d 9d 37 21 3e 86 b2 ae 3c 9b 2b c0 3d
       0.040225472 0.15743871 0.021325361 0.09383317
000070 6c 28 f1 bd 5d a5 a0 bd 0e 1c ab 3d c5 fe 2f bd
       -0.11775288 -0.078440405 0.083549604 -0.042967577
000080 09 c8 7f 3d 7c 5d e3 bd 6c da c8 3c d0 f2 d9 3b
       0.062446628 -0.11101815 0.024518214 0.00665126
000090 a3 97 9d bd c8 80 60 bc 07 62 f5 3d 15 9b d3 bd
       -0.07694938 -0.013702579 0.11981588 -0.10332314
0000a0 ed 8e b8 3c 41 f1 5a 3d fa 9a 14 3e 14 72 13 be
       0.02252909 0.053452734 0.14512244 -0.14398986
0000b0 d1 d0 a1 3d fe 6e 26 3e 05 67 b3 3d 5f 64 18 be
       0.07901157 0.16253278 0.08759884 -0.14882039
0000c0 ce 64 93 bc 63 b4 de 3b 0c 2b e0 bc 09 eb f6 3c
       -0.017992403 0.006796406 -0.027364276 0.03014137
0000d0 73 a5 c4 bb f8 31 a6 3d 7c b9 d9 bd 73 15 c5 bd
       -0.0060011684 0.081149995 -0.106310815 -0.09623232
0000e0 74 2a 2d bc 94 f6 11 be 90 dd 1b 3e e9 8b 07 3e
       -0.010569204 -0.14254218 0.15221238 0.13236965
0000f0 d2 0e 9b bd a7 66 ff 3d 92 e8 9a bd 7e e9 47 bc
       -0.07571186 0.12470751 -0.075638905 -0.012201665
000100 8e 9a 02 be 29 94 00 3c 49 12 74 3d 30 5c 95 bd
       -0.1275427 0.007847824 0.05958775 -0.07292974
000110 cf c9 b6 3d 37 e5 9e bc 9e 12 93 3d e1 d3 1d 3e
       0.08925211 -0.019396408 0.07181285 0.15412857
000120 3e 91 a3 bd 3c 3a b8 bd 21 8b d7 3d ce 1a 32 bd
       -0.07986687 -0.08995482 0.105245836 -0.043482594
000130 12 4c d7 bd cd ea 29 3d 26 ef 9f bd bd 5d 14 3e
       -0.10512556 0.04148369 -0.07809286 0.14488883
000140 d7 c2 a9 3d 68 36 c4 3d 12 70 fc 3c f4 2f ea bd
       0.08289116 0.0958069 0.030815158 -0.114349276
000150 6b 25 06 be ef a5 68 bd 9f f6 84 3d 91 ed 09 3e
       -0.13100211 -0.05679887 0.06492352 0.1346953
000160 bd b5 e4 bd 14 f0 e6 3d a1 23 8a bd 2a 71 48 3c
       -0.11167476 0.1127626 -0.06745077 0.012234012
000170 b7 23 1a 3d 02 14 90 3b b6 28 02 3c 42 68 16 3e
       0.037631717 0.0043969164 0.007944277 0.14688209
000180 59 45 9e bd 7e 8a 06 3e 3a 56 7f bd de 80 81 bd
       -0.07728071 0.13138768 -0.06233809 -0.063234076
000190 f1 ee d8 bc 6b b3 04 be f0 22 26 be 01 ea 28 be
       -0.026481124 -0.12959068 -0.16224265 -0.16495515
0001a0 85 f3 2d bb de 11 66 bc 0c 42 fd 3d 5a 54 a3 bd
       -0.0026542854 -0.014042346 0.12366113 -0.07975073
0001b0 4f 49 86 bd 1b cb 14 bd 4d 0f 74 3d bc 5a 00 be
       -0.06556951 -0.03632651 0.059584904 -0.12534612
0001c0 ec f3 cb bd b6 ab e4 3c 36 cd a5 bd e4 f4 19 be
       -0.09958634 0.02791391 -0.080957815 -0.15034825
0001d0 68 37 00 3e 43 8d c8 bd 5f 7f b6 3d 9b de 2a bd
       0.12521136 -0.097925685 0.08911013 -0.0417162
0001e0 44 8d f2 3d 99 ba 8a bc 44 71 74 bd 34 fd 8e 3d
       0.118433505 -0.01693468 -0.05967833 0.069818884
0001f0 bd c5 85 bd a1 a2 6c bd 43 af 7d 3d dd 71 cd bc
       -0.06531856 -0.057772283 0.06193472 -0.025078708
000200 61 0d da bb 26 20 12 be a0 98 10 3e 19 cd 5b bd
       -0.006654427 -0.14270076 0.14120722 -0.053662393
000210 ff c4 04 3e 27 73 62 3d fb d8 1e bd 38 a0 d7 bd
       0.12965773 0.0552856 -0.038781147 -0.10528606
000220 d6 a2 53 bd 6e b9 a0 bd 6c 51 2d 3d 3e c0 3f bd
       -0.051668964 -0.07847868 0.042313978 -0.046814196
000230 8a b3 fd bd a7 e1 25 3e 3d b0 b9 bd 34 29 1e 3d
       -0.1238776 0.16199361 -0.09066818 0.038613513
000240 dd c2 dc bd 3b d2 a2 3d e8 b2 7a bd 66 ef ea bd
       -0.10779355 0.079502545 -0.061205775 -0.11471443
000250 31 34 10 3e 41 2c ad 3d f6 1e e6 3b f2 9e 0c be
       0.1408241 0.084557064 0.007022734 -0.13732508
000260 95 73 a1 3c 33 b9 b6 bd a7 53 17 3d 78 39 55 bd
       0.019708434 -0.08922043 0.03694501 -0.05205676
000270 12 86 b6 bd 9f fc 18 3e d7 66 ed 3d 99 51 bc bc
       -0.08912291 0.14940117 0.11591881 -0.022988128
000280 46 f1 c7 bc 8f ef 1c be 52 bd 91 bd e7 45 4c bd
       -0.02440704 -0.1532576 -0.07116188 -0.04987135
000290 d0 e5 f8 3d 01 fb 2b bd 0c 20 15 3e 15 af 32 3e
       0.12153208 -0.041987423 0.14563006 0.17449601
0002a0 ca 93 1a 3c a4 54 d6 3c 8e 4a 27 3e 11 69 a9 3d
       0.00943465 0.026163407 0.16337034 0.08271993
0002b0 f7 01 b9 3d ac 58 a1 3b 04 b0 15 3d a2 71 18 3e
       0.09033578 0.0049239006 0.036544815 0.14887097
0002c0 f7 ff fd 3d 45 99 ad 3d 90 5c 10 be 96 ce 08 3e
       0.12402337 0.084764995 -0.1409781 0.13360056
0002d0 98 b1 dc bd 81 0b eb bd 60 37 41 3d 28 ab 4f 3d
       -0.10776061 -0.114768036 0.04717195 0.050700337
0002e0 fd 51 de 3d 8c 05 97 3d ea d4 c8 3d 0a 57 42 3d
       0.10855482 0.07374105 0.09806235 0.04744629
0002f0 03 a2 d9 3d 9d 61 9b bd 9c 6b 02 be 48 24 3c 3d
       0.106266044 -0.07586978 -0.12736362 0.045933038
000300 87 e9 68 bd 30 10 a5 3c ec 56 87 bb 35 b7 f5 3d
       -0.056863334 0.02014932 -0.004130235 0.119978346
000310 67 9a 87 bd 9b 7c 2e bc 24 10 c5 bd 0a 92 00 be
       -0.06621247 -0.010649825 -0.09622219 -0.1255571
000320 44 98 29 3d 57 b7 09 3e 9d d9 01 bd 06 fc a9 bd
       0.041404977 0.13448845 -0.031701673 -0.08300023
000330 2c 2d 18 3e 7f 55 ea 3d 76 4b 92 bd 9d 43 5f bd
       0.14860982 0.11442088 -0.07143299 -0.05450784
000340 95 d6 83 3d ac 39 07 be 1d 09 54 3d 8b 2c 26 3d
       0.06437413 -0.13205594 0.051766504 0.040569823
000350 f5 de ad bc 0d 68 94 bd bb b4 71 bd 13 15 8f 3b
       -0.021224478 -0.072464086 -0.05901025 0.004366526
000360 e7 aa d2 3d 04 16 a7 bc 9c 10 05 be f7 3c b1 bd
       0.10286503 -0.02039624 -0.12994617 -0.08654206
000370 11 ff e2 3c f4 ae 2f 3d 33 79 51 bb a9 2f a1 3c
       0.027709516 0.042891458 -0.003196311 0.019676046
000380 1c 35 c6 3d 1d dc 56 bd 35 5f e1 bd 1f a3 0f 3e
       0.096780986 -0.05245601 -0.110044874 0.1402707
000390 6f 4f e5 3c c9 1a 1f be 9a ae 15 3d 23 33 a0 3c
       0.027991978 -0.15537561 0.036543466 0.019555634
0003a0 40 bc 0c be 89 52 08 3d d9 29 49 3d 00 48 15 be
       -0.13743687 0.033281837 0.049112175 -0.14578247
0003b0 4b 7f 88 3d 0d 2a f4 bd 7d b1 f2 bb b7 cd 28 3e
       0.06664904 -0.11922083 -0.007406412 0.16484724
0003c0 b7 b2 02 be 33 90 2c 3d 29 40 e9 bd ab 93 ea bd
       -0.12763487 0.042129707 -0.11389191 -0.11453947
0003d0 1f 77 d5 3d ff 72 0b 3d 76 1e 09 be 8f b9 48 3d
       0.10423111 0.034045216 -0.13390526 0.049005087
0003e0 ac 52 fb bd b5 9e 18 3e 2c ef 14 3e 0b 8b a6 3d
       -0.12271628 0.14904292 0.14544362 0.08131989
0003f0 e4 8d cd bc 02 c0 27 be 9e dc 8f 3d 9d 13 ac bd
       -0.025092073 -0.16381839 0.07024501 -0.084021784

layers.2.linear.weight f4 [256, 256]
000000 d4 99 86 bc 00 70 94 bd 27 fd 19 3b ea 52 ec 3c
       -0.016430773 -0.07247925 0.0023496838 0.02884813
000010 0b 8d 92 3d 70 70 69 3c da 49 71 bb f5 35 14 3d
       0.07155808 0.014247999 -0.00368177 0.03618427
000020 1b ac 4c 3c 6f 9c 23 bd 60 4e 7d bd d9 3a 39 bd
       0.012492205 -0.03994411 -0.061842322 -0.045222137
000030 bd 90 80 bc eb 36 38 3d 5b 13 91 3a fe 35 2e 3d
       -0.015694017 0.04497425 0.001106839 0.04253196
000040 c1 4f ad bc 35 8e 5d 3d f5 c3 0d bd 4e 91 05 3d
       -0.021156194 0.054090697 -0.034610707 0.032609276
000050 81 fc 81 3d 72 13 1c bd b5 02 b5 bc 9e 62 9f 3b
       0.063469894 -0.038104482 -0.022096017 0.004864051
000060 38 c4 74 bd 7a 26 8f 3c d2 6d a9 3d 96 e8 7e 3c
       -0.05975744 0.017474402 0.082729 0.0155583825
000070 4f c2 0e 3d 90 50 cd bc 37 74 35 3c 23 bb 8d bc
       0.034853276 -0.02506283 0.011075071 -0.017301148
000080 a2 1e bb ba b0 1f 83 3d 60 18 01 bc af 5f a1 3d
       -0.0014276097 0.06402528 -0.007879347 0.07879578
000090 22 51 a6 bd 34 6c f3 3c 05 2e 35 3c 55 f0 2a 3d
       -0.081209436 0.029714681 0.011058335 0.041733105
0000a0 33 a4 8d bc 49 f1 d7 3b 87 03 3c 3d 5a 82 99 3c
       -0.01729021 0.0065900427 0.0459018 0.018738914
0000b0 2e 79 64 bd 30 29 4c bd a6 a2 bc bc 9f 09 07 bd
       -0.05577963 -0.049843967 -0.023026776 -0.03296816
0000c0 66 21 67 bd 3e ca 02 bd da 38 e9 3c 9e 0b 8b 3d
       -0.056428336 -0.031931154 0.028469492 0.06789325
0000d0 f6 38 24 bc d6 5f 3b 3d a5 d4 bc 3d 67 52 a2 bc
       -0.010023346 0.045745693 0.09220246 -0.019814683
0000e0 2c 83 ad 3d 0c 68 10 3d 4e 16 9e 3d cf 2b 0b bd
       0.08472285 0.035255477 0.07719098 -0.033977326
0000f0 96 86 99 3d 64 1b 2c bc 4e e5 da 3c 9d e0 b7 bc
       0.07496373 -0.010504577 0.02672067 -0.022445971
000100 e3 9a ae 3c b9 3c b7 bd 69 69 06 bd 34 ed 7d bd
       0.02131409 -0.08947129 -0.03281537 -0.061993793
000110 1a 3d d4 3c 22 95 50 3d 2f fc 14 ba 9d 94 8e bb
       0.025908042 0.050923474 -0.000568333 -0.004351212
000120 28 dd 08 bc 03 f8 53 3d 9a 69 57 3d d5 86 6a 3d
       -0.008353509 0.051750194 0.052590944 0.057257492
000130 0f 85 2a bd 65 fa 77 bc b8 04 59 bd b2 51 3d bd
       -0.0416308 -0.015135382 -0.052983016 -0.04622049
000140 9b 39 e3 3c ec 0b ff bc 7a 93 1e bd c5 71 9a bd
       0.02773743 -0.031133614 -0.038714863 -0.07541231
000150 bc 1c c0 3a da b8 90 3d 45 f0 8a bc bd 92 60 3d
       0.0014657001 0.07066508 -0.016960273 0.05482744
000160 fc 80 05 3b 13 f5 80 3b 39 ca a7 bd 9a 4c bb bc
       0.002037107 0.003935465 -0.08192868 -0.022863675
000170 fe 19 3f 3d 3f d5 26 bd 86 39 47 3c f9 6c d4 bd
       0.046655647 -0.04073071 0.012159711 -0.103723474
000180 f2 97 14 3d bb 37 c4 bc a5 9a e0 bd 2f 33 50 bc
       0.03627772 -0.023952356 -0.10966996 -0.012707516
000190 ff ac ad bd 51 70 17 bd 29 2a 0f be 83 0a 2f 3d
       -0.08480262 -0.036972348 -0.13980927 0.042734634
0001a0 fc 2f e1 3c 7b e2 2f 3d 68 89 5a bd e5 da 84 bd
       0.027488701 0.042940598 -0.053353697 -0.06487063
0001b0 2e e5 d3 bc 8f 2e 12 3d 56 b6 5b bc 7a 7a 2f bd
       -0.025866117 0.035688933 -0.0134101715 -0.042841412
0001c0 db f7 84 bc 81 53 2a 3d 8f d1 e7 3b 5c d9 bb 3c
       -0.016231468 0.04158354 0.007074542 0.022930793
0001d0 59 cd b9 bb 78 f3 b2 bd de 47 ae bc b2 2d 66 3d
       -0.0056702313 -0.08737844 -0.021274503 0.056195922
0001e0 11 f4 96 3c b8 b0 09 bd 6c db 5e 3c 7c 9c 8b bc
       0.018426927 -0.033615798 0.013602119 -0.017042391
0001f0 02 40 a0 ba ce 55 82 bc a8 0b 54 bc da 4f 7c bd
       -0.0012226107 -0.015910055 -0.012942232 -0.06159959
000200 e2 4a 00 bd b6 04 b0 bd 04 32 ef bc a3 1e 20 bc
       -0.031321414 -0.085946485 -0.029198654 -0.009772929
000210 8d 7e 1a 3d c7 04 92 bd 3f 3c 80 3d a7 ac 6c 3d
       0.037718344 -0.071298175 0.06261491 0.05778184
000220 75 0a 73 bd b6 40 04 bd a0 4b eb 3b ac 87 c9 3c
       -0.059336144 -0.032288276 0.007180646 0.024600826
000230 5a 47 03 3d 05 6b 80 bc fb d0 a5 bd 2d 54 2a 3c
       0.032050468 -0.01567603 -0.080965005 0.010396046
000240 c7 7e c0 3d ec f8 c8 bc 69 5d 97 bd 8c 50 83 3d
       0.09399181 -0.024532758 -0.073908634 0.064118475
000250 2e 09 b0 bb 62 ed 28 3d dc 53 3b bd ee dd 02 bd
       -0.005372188 0.04124201 -0.04573427 -0.03194993
000260 70 f2 d1 3c 4b 1f 58 3d 78 67 6c 3d d8 07 a3 bc
       0.025628299 0.05276422 0.057715863 -0.019901201
000270 7b 60 1e bd d7 86 94 bc d7 11 51 3d cf eb 23 bc
       -0.03866623 -0.018130703 0.051042404 -0.010004952
000280 e9 49 ab bc de b1 78 bd 36 a6 84 3c 8c 69 92 bc
       -0.020909267 -0.060716502 0.016192537 -0.017872594
000290 d8 69 a0 3c 9a 48 b2 ba 06 f0 bb bc 47 db 3d 3d
       0.01958172 -0.0013601959 -0.0229416 0.046351697
0002a0 73 99 a4 bd ea 30 d7 3c 82 d8 62 bc 2a e0 04 bd
       -0.080370806 0.026268441 -0.013845565 -0.032440342
0002b0 fe 86 54 bd 89 14 f8 3a 9e 6a b0 bc 36 77 88 bd
       -0.05188655 0.0018927018 -0.021535214 -0.06663363
0002c0 b3 f3 75 bd a2 9a 9d 3c c0 80 e0 bd 9d 91 6f bd
       -0.060046863 0.019238774 -0.10962057 -0.058488477
0002d0 30 d0 ae 3d 55 34 06 3d d7 a1 35 3d 6d 44 a0 bc
       0.08535802 0.03276475 0.044343796 -0.019563878
0002e0 9d 01 41 3d a1 b5 f6 bc 9b 0e b2 bb d9 80 cb 3c
       0.04712068 -0.030115904 -0.00543387 0.024841713
0002f0 d0 fd f4 3c a7 42 18 bd a2 01 d5 3b 3b b9 0d bc
       0.029906183 -0.03717294 0.006500439 -0.008650119
000300 bc e8 a9 3d c6 26 a6 3d 0f 16 86 bc 05 b4 d7 3c
       0.08296344 0.08112864 -0.01636794 0.026330957
000310 7c 51 81 bd 9a 8e 23 3d 1f 48 6f 3d 88 a8 5e 3d
       -0.0631437 0.039930917 0.05841839 0.054359943
000320 0a be 81 3c e1 9c 04 bd 31 1c 81 3d 33 19 bb bc
       0.015837688 -0.032376174 0.06304205 -0.022839164
000330 c5 7a c8 3c 28 5c 56 bd 6c 69 5a 3d f2 5f 48 3d
       0.024472604 -0.05233398 0.053323194 0.048919626
000340 82 5e 50 bd d1 21 b6 bc 9e 4a cd bd b8 3a 1b bd
       -0.05087138 -0.022232922 -0.10023998 -0.037897795
000350 50 69 4f bd 95 bb 06 bc b4 3b 45 3d 70 6a 48 bb
       -0.050637543 -0.008223434 0.04815264 -0.003058102
000360 ef 7c c1 3d cb 00 85 bd a1 cc d9 3b 61 e0 3e bb
       0.09447657 -0.06494292 0.006646708 -0.002912544
000370 8e 6d 2c 3c 33 d3 5c 3d 4b 04 a6 3c 40 8f 0d bc
       0.010524167 0.053912353 0.020265719 -0.0086401105
000380 07 9b 1f bd f3 96 e3 bd 85 3f 62 3d 07 48 08 3b
       -0.038966205 -0.11112776 0.05523636 0.0020794885
000390 81 e9 6c bc 18 77 81 3d cb 03 b6 3b cb 1a f2 ba
       -0.014459969 0.063215435 0.0055546514 -0.001847112
0003a0 3f fd 16 3b 7f eb 44 3d 57 f5 d3 3c 71 b0 84 bd
       0.002303913 0.04807615 0.025873823 -0.06478966
0003b0 df 62 45 bd 68 54 eb bc f4 00 b7 3b bd 60 63 bd
       -0.048189994 -0.028726771 0.0055848304 -0.05551218
0003c0 02 d2 44 3d aa f6 61 3d fa 90 ca bc 08 0c 48 bd
       0.04805184 0.055166878 -0.024727333 -0.0488396
0003d0 6d cf 05 3b 76 e1 ac 3b b1 42 2b 3d 35 6e 10 3d
       0.0020417825 0.0052759005 0.04181165 0.03526135
0003e0 43 ac a4 bc 2a f1 41 3d a1 e4 14 bb fb ca ce bd
       -0.020101672 0.047349133 -0.0022719281 -0.10097309
0003f0 07 fb fd bb 74 f9 96 bd 84 04 cf 39 1c 85 11 bd
       -0.007750872 -0.07371798 0.0003948548 -0.035527334

layers.2.linear.bias f4 [256]
000000 cb 90 27 bd e6 da 35 3d 04 75 3c 3c 26 7b 31 3d
       -0.04090957 0.04439821 0.011502508 0.043330334
000010 7f 9e 13 bd dc 88 c9 bc e9 29 17 bc 0c 2c 8f bd
       -0.036039826 -0.024601392 -0.009226301 -0.06990823
000020 53 c5 18 3d f8 30 24 3d 94 dc 20 3c df cb 08 3d
       0.037297558 0.040085763 0.009818215 0.03339755
000030 9f f2 df bc 54 ed a3 3c c3 99 66 3d 7c ec 53 bd
       -0.02733737 0.020010628 0.056298982 -0.0517392
000040 ad 0c cb bc de 4a 9b ba d8 cf 87 3c 47 7e f5 39
       -0.024786318 -0.0011847874 0.0165786 0.00046824125
000050 76 db d3 3c 95 25 19 3d 8e 88 6b 3d 80 77 dc bb
       0.025861483 0.037389357 0.057503276 -0.0067281127
000060 4a d9 13 bd ac d4 0a bd 70 9e 21 3d 5b ee 97 3a
       -0.036095895 -0.033894226 0.03945774 0.0011591421
000070 d8 0c 2a 3d 87 60 d9 bc 97 d1 98 bc 78 78 c3 bc
       0.041516155 -0.026535286 -0.018654628 -0.023861155
000080 a0 a1 2d 3c 60 8d 65 3d fa b8 5f bc e6 8e 70 bd
       0.010597616 0.05604303 -0.013654942 -0.05873003
000090 8f 47 40 3b 98 49 4e bd 3d 5f 6b 3c a9 05 b0 bc
       0.0029339527 -0.050363153 0.014365968 -0.021487074
0000a0 e1 f8 59 ba b9 3b 34 bd b3 35 92 3c a3 88 0b bd
       -0.0008314979 -0.04400227 0.017847871 -0.034065854
0000b0 f3 8a 4d 3d e1 49 2a bb 27 61 53 bb e2 e9 3b 3d
       0.05018134 -0.0025983977 -0.0032253952 0.045877345
0000c0 e0 90 af 3c d0 03 b9 3c 9a 99 18 bd da e4 e2 3c
       0.021431386 0.022584826 -0.03725586 0.027697016
0000d0 0b e7 06 bd 45 ca ad bb 56 49 21 bd 2d ef cf 3a
       -0.032935183 -0.0053036534 -0.03937658 0.0015864127
0000e0 4d b3 e6 bc 98 ae 08 bc 63 0c 1f bc 34 da 91 3c
       -0.02816167 -0.008342408 -0.009707543 0.017804243
0000f0 8c cf bf bc bb d1 09 3c 7a e6 18 3d f1 34 0d 3d
       -0.023414396 0.00841182 0.037329175 0.034474317
000100 75 6f 11 bc c6 de 6b bd 8e 8e 38 bd 31 7a af 3b
       -0.008876671 -0.0575855 -0.045057826 0.0053551425
000110 6c 2a 8c bb db aa 53 3d 8e d1 d7 3c 0a 16 60 bd
       -0.004277518 0.051676612 0.02634504 -0.054708518
000120 b3 5d 24 bd 0a dc 82 bd 65 ed c2 b9 6e ce 94 3c
       -0.04012842 -0.06389625 -0.00037179436 0.01816484
000130 85 7a 1e 3c 95 f3 58 bd 0b d3 37 3c 29 f9 2b 3d
       0.009672766 -0.052966673 0.01121975 0.041985665
000140 37 b9 13 bd 51 f8 6f bd 73 72 65 bd ee d3 6d bd
       -0.036065307 -0.058586422 -0.05601735 -0.05806344
000150 03 08 80 3d 7c a9 4a 3d 87 08 0a 3c d6 38 44 bd
       0.06251528 0.04947804 0.008424885 -0.047905765
000160 b4 68 95 bb 03 c6 3a bd 36 15 2c bc 05 72 75 3d
       -0.0045596007 -0.045598995 -0.010503104 0.05992319
000170 c4 1b db bc 15 11 e4 3c cc ae 31 bc 87 0c 1d 3d
       -0.026746638 0.027840177 -0.0108448975 0.038342025
000180 20 4b 19 3d 6a d3 78 bd ba 57 f5 3c 3d 96 18 bc
       0.03742516 -0.060748495 0.029949058 -0.009313163
000190 99 b5 f4 bc 67 4a 73 3d db 7c 46 bd 0e 53 38 bd
       -0.029871749 0.059397127 -0.048458915 -0.045001082
0001a0 21 e6 4e 3d b2 16 3d 3c e0 aa 55 3c 6c 66 31 bd
       0.050512437 0.0115410555 0.013041228 -0.043310568
0001b0 7e 5f 0f 3d 29 c1 26 bd 3a ac 34 3d 30 92 11 bd
       0.035003178 -0.040711556 0.04410956 -0.035539806
0001c0 5f a9 f9 3c 07 2b 52 bc c4 ab 89 3c a6 c2 e6 bb
       0.03047627 -0.012827641 0.016805537 -0.007042247
0001d0 a7 0b 24 3d cb 89 2c 3d 8b c0 60 3c a3 95 6e bd
       0.040050175 0.042123597 0.013717781 -0.058248173
0001e0 41 31 a3 3c 0e d4 6a bd a1 73 92 3c 66 66 d0 3c
       0.019920947 -0.057331137 0.017877402 0.025439452
0001f0 c2 bf 2c bd 13 d8 5d 3d 8e 67 e0 3c e4 6f e2 bc
       -0.042175062 0.054161143 0.027393129 -0.027641244
000200 81 2f 95 bc 42 03 fa 3c 7d 88 8c bc 1f 8c 38 3d
       -0.018211128 0.030519132 -0.017154926 0.045055505
000210 84 7e 23 3d 82 e9 05 3d 29 76 2b 3d a5 11 7b 3d
       0.039915577 0.032693394 0.041860733 0.061296124
000220 1e 99 9d 3c 73 95 16 3d 53 d9 30 bd 42 a8 25 bc
       0.019238051 0.03676362 -0.043176007 -0.010110917
000230 1e c2 23 bd 15 ab 79 3a 02 7b 31 bd ee ee 18 3d
       -0.039980046 0.00095240894 -0.0433302 0.037337236
000240 b8 b7 5b bb 7c c3 29 bd d7 82 2c bb 94 66 74 bd
       -0.0033526253 -0.041446194 -0.0026323104 -0.05966814
000250 45 7b e6 3b 0f cd 52 bc b9 cb d1 bc e2 0f 59 bd
       0.007033738 -0.012866273 -0.025609838 -0.052993663
000260 76 4d 46 3c 39 35 4b bd 17 d6 ee 3c e3 6c 05 bc
       0.012103429 -0.049611304 0.02915482 -0.008143636
000270 e8 d2 a6 3c 17 e6 02 bd e6 64 50 3b c2 f7 63 3c
       0.02036424 -0.031957712 0.0031798421 0.013914051
000280 b8 3d 5a bd 62 11 08 bd 41 d1 37 bc 6a 29 43 bb
       -0.053281516 -0.033219703 -0.011219324 -0.0029779323
000290 7b c0 2e 3d 81 d5 ff 3b 39 83 db 3c b7 2c 6c 3c
       0.042664032 0.007807434 0.02679597 0.014414958
0002a0 bc 2f cb bc d5 2d f4 3c e1 40 80 bd 3a 26 fe ba
       -0.024803035 0.02980701 -0.06262375 -0.0019390055
0002b0 1e 56 7e bd 4c 00 63 bd 35 66 fc 3b 19 d4 ba bb
       -0.062093846 -0.055420205 0.0077026137 -0.0057015535
0002c0 86 a6 12 bc 7d 50 02 bd 8f dc 55 3d 3c 54 cc 3c
       -0.008950835 -0.03181504 0.052212294 0.02494251
0002d0 c9 da 1e 3d 98 2a 28 bd 20 4c b7 3b 20 2a 0e bd
       0.03878287 -0.041056246 0.0055937916 -0.034708142
0002e0 45 b1 2d bd 2d 2b 63 3d 5c 0f 2c 3d 2d 1c 1e bd
       -0.042405386 0.055461098 0.042006835 -0.03860109
0002f0 bf 9a 76 bc 7d 62 29 3d 70 bd b8 bc bf 42 0c 3d
       -0.015051543 0.04135369 -0.022551268 0.03424334
000300 fe c8 84 3d 55 2a ac 3c e9 f3 50 bd 3c d7 6a bd
       0.06483649 0.02101628 -0.05101386 -0.05733417
000310 98 9f 24 3d 76 77 b1 b7 17 39 9d 3b 59 ae 02 3b
       0.040191263 -2.1155673e-05 0.0047980654 0.0019940345
000320 d2 5f 09 bc f3 2b b4 3c 78 d3 e4 3c c4 21 1e bd
       -0.008384662 0.021993613 0.027932867 -0.03860642
000330 f2 e0 2d bc e5 60 b9 3a c1 57 2f 3d 2d 61 09 bd
       -0.010612713 0.0014143257 0.042808298 -0.03353994
000340 4d b8 56 bd f3 54 92 3c 84 1d 14 bd 65 28 3c 3d
       -0.052421857 0.017862773 -0.03616096 0.04593696
000350 7a df 3e bc 3c 11 4c 3d 39 08 d7 bc 82 25 9d 3c
       -0.011649961 0.049821123 -0.026249038 0.019182924
000360 b6 f7 ce bc dd 8c 46 3d 52 08 c7 bc e1 0b fc ba
       -0.025264602 0.04847418 -0.02429596 -0.0019229614
000370 0d 0e 40 3d c3 5f 81 bd 99 34 24 bc d4 42 f6 bc
       0.0468884 -0.06317093 -0.010022306 -0.030061163
000380 8f 39 39 3d 91 7a 42 bc e1 8c c3 3c 00 8a 0d bd
       0.045220908 -0.011870042 0.023870887 -0.034555435
000390 bd 89 f3 3c d5 08 ea 3b d1 1d af 3b 76 81 40 3d
       0.029728765 0.007142166 0.0053441306 0.046998464
0003a0 b2 a2 47 3d 4e b6 43 3c 75 7d 98 3b 3a eb 4b bb
       0.048739143 0.01194532 0.0046536275 -0.0031115548
0003b0 b0 ec f3 bb 7c 1d 85 bc 7e 03 63 bd e3 12 28 bc
       -0.007443987 -0.01624941 -0.055423252 -0.010258409
0003c0 9a fb 35 3c c8 71 c0 3c 7e ef 29 3d 63 73 4e 3a
       0.01110735 0.023491755 0.041488163 0.00078754703
0003d0 6c 1d 72 3c a7 83 3a bd aa 59 a1 bb 41 55 37 3b
       0.0147775225 -0.04553571 -0.004924019 0.00279744
0003e0 76 c8 9c 3c a5 26 0e bc dc 77 4b bd a7 9d 18 bd
       0.019138556 -0.008676206 -0.049674854 -0.037259724
0003f0 8f 94 de bb 0a 0e 2d 3d 9c 05 64 3c 0f 58 ec bc
       -0.006792612 0.042249717 0.013917353 -0.028850583

layers.4.linear.weight f4 [256, 256]
000000 5b 70 04 bd 4d e7 60 3d 0e 7d 55 bd e9 2b 34 3b
       -0.032333713 0.054908086 -0.052121215 0.0027491993
000010 dc 38 f3 3c b4 55 e4 3b cd 29 21 3d f8 3b 75 bd
       0.029690199 0.0069682244 0.039346505 -0.059871644
000020 82 8d ab 3a 39 30 a9 bb bf a0 e2 bc ef ae 88 bd
       0.0013088437 -0.0051632193 -0.02766454 -0.06673991
000030 b7 ad 43 3d 4e 8d b3 3c 2e ba 33 3d d6 cc 40 3d
       0.04777309 0.021917965 0.043878727 0.047070347
000040 92 f4 40 bd 0f 05 83 bc 0b 0d a3 3c ca aa 41 bc
       -0.04710824 -0.015993623 0.01990368 -0.011820504
000050 1d ba d6 3a 13 49 40 3c 55 5c 74 bd 7f 2e 3f 3a
       0.001638237 0.011736172 -0.059658367 0.0007293
000060 3c 66 e9 bc 20 be 69 bd fd ac 83 bc b7 c5 b3 bb
       -0.028491132 -0.057066083 -0.016073698 -0.005486216
000070 66 a7 50 bd 2d 01 7e bd 07 f2 6a bd 36 f1 aa bc
       -0.050940894 -0.06201284 -0.05735972 -0.020866971
000080 37 2e f2 3c d9 00 e9 bc d6 cd c7 3c 7f 97 35 bd
       0.029563053 -0.028442787 0.024390142 -0.04433393
000090 61 83 3d 3d 70 a5 02 bd db 14 60 bd 0a 52 c8 bb
       0.04626787 -0.031896055 -0.05470739 -0.0061132954
0000a0 46 07 12 bd d0 77 fd 3b be bb e2 3c 15 5e 5d 3d
       -0.035651468 0.00773523 0.027677413 0.0540448
0000b0 5d 85 1c bd 4a 33 09 bd f3 68 61 bd ef 92 78 3c
       -0.038213123 -0.03349618 -0.055031728 0.01517175
0000c0 4b 99 4a bd 48 42 70 bc 43 68 0a bd 43 12 3d bd
       -0.049462598 -0.01466424 -0.033790838 -0.046159994
0000d0 71 ba 36 bc 58 2a c3 bc e2 72 96 bb f3 2c 32 3d
       -0.0111528495 -0.023823902 -0.004591332 0.0434999
0000e0 7b 4c 66 bd d6 bc 44 bd 87 01 0d bd f7 f7 40 bd
       -0.05622528 -0.04803165 -0.034425285 -0.047111478
0000f0 f8 0e 44 bd f3 60 77 bb 6b b7 0f 3c ec ec 1d 3d
       -0.047865838 -0.0037746995 0.008771758 0.038556024
000100 cc 65 c1 bc a8 5b c5 ba 08 dd 0a bd bc e5 c2 3c
       -0.02360811 -0.0015057223 -0.033902198 0.023791187
000110 e1 0e 62 bd 97 a9 ce bc a6 7b a5 bc f3 56 73 bd
       -0.05518997 -0.025227351 -0.020200562 -0.059409093
000120 0d d2 9e 3c 4f 86 20 3d 88 b8 08 bd 53 0a 12 3c
       0.01938727 0.039190587 -0.033379108 0.008913594
000130 4d a3 1e bd 33 83 0a bd 48 91 0a bd 3c 42 59 3d
       -0.038729955 -0.033816528 -0.033829957 0.05304168
000140 8d 00 f3 bc ce 8f b7 3b 5d 51 8b bd 7d 57 48 bd
       -0.029663349 0.0056018597 -0.06802628 -0.04891156
000150 84 90 b2 bc 0e 6b ea bc dd cf ee bc f1 2f 50 bd
       -0.021797426 -0.0286155 -0.029151851 -0.05082697
000160 90 90 4c 3d d3 71 72 bd 62 b7 2b 3d 86 1a be 3c
       0.049942553 -0.059190582 0.041922934 0.023206007
000170 08 35 db 3c a1 cb 1c 3d 42 c9 24 bd bb d1 b8 bc
       0.026758686 0.038280133 -0.040230997 -0.022560945
000180 6e 33 01 3d 32 4e 85 bc 14 dc 4e bb dc 4d 0a 3d
       0.031543188 -0.016272638 -0.0031564282 0.03376566
000190 c4 fa 4b bd a0 5d 31 bd 18 8d d0 bb 93 bc e1 bc
       -0.049799696 -0.04330218 -0.006364476 -0.02755574
0001a0 2c 18 14 3d ce 26 ba bc b5 05 b8 3c 04 e1 1e 3d
       0.036155865 -0.022723582 0.022463659 0.03878881
0001b0 ec 22 ab 3c ee 7b 2f bd eb a2 51 bd 3f d1 4e 3d
       0.020890675 -0.042842798 -0.05118076 0.05049252
0001c0 ac 68 3d 3d 97 8f 5a 3c 78 2e b9 bc 66 87 c2 3c
       0.0462424 0.013339899 -0.022605166 0.023746204
0001d0 54 a0 82 bc 56 34 5d 3b c3 cc db bc fa 23 35 3d
       -0.015945591 0.0033753118 -0.026831036 0.044223763
0001e0 a5 9d 18 3d 55 19 24 3a 17 5e 67 3c 2b 8f fd bb
       0.037259717 0.0006259878 0.014121554 -0.007738014
0001f0 c1 41 81 bd 4c 45 0c 3d eb 48 26 3d 24 1a 0a 3c
       -0.0631137 0.034245774 0.040596884 0.008429084
000200 30 d1 8d bc 74 0e 12 bc 7f a8 17 bd 16 82 f6 bc
       -0.017311662 -0.008914579 -0.037025925 -0.030091327
000210 ca ef 3d bd a0 e5 95 3b 7e 24 fa 3a d5 51 0d bd
       -0.04637126 0.0045744926 0.0019084362 -0.03450187
000220 e5 ce c9 bc 21 e6 4c 3c e4 aa f4 3c 55 3d 10 3d
       -0.024634788 0.012506039 0.029866643 0.03521474
000230 d4 c1 4f 3d ea d2 21 3d c9 fa f8 3b 55 6d 09 3d
       0.05072196 0.039507784 0.0075982553 0.033551533
000240 e2 91 58 bd 56 50 3c 3d 1b 78 09 3d 68 29 f4 3c
       -0.0528735 0.04597505 0.033561807 0.0298049
000250 97 0f 57 bd ea 3a 11 3d 38 2a 7b bd 21 16 d1 3c
       -0.052505102 0.035456575 -0.06131956 0.025523247
000260 68 fa 3f bd 8c 29 57 3d 74 a5 39 bd 6f 7d 75 bc
       -0.046869665 0.052529857 -0.045323804 -0.014983519
000270 f9 75 85 bd 98 0b 28 3d 17 24 81 3b 2b 4a 26 3d
       -0.06516642 0.04102668 0.00394107 0.040598076
000280 69 ea 57 3d 7a 04 0d bb 37 c3 5b 3d 49 c2 4b bd
       0.052713785 -0.002151756 0.05365297 -0.04974583
000290 86 35 10 bd 5b 8a ea 3c 52 48 28 bd d4 e6 34 bd
       -0.035207294 0.028630426 -0.041084595 -0.044165447
0002a0 d7 01 80 bd 66 94 29 bd 17 7e f3 bc fb fa 84 bd
       -0.06250351 -0.04140129 -0.02972321 -0.06493183
0002b0 98 c4 08 bd 48 55 b8 bc 65 fd 56 bd e2 31 2e bc
       -0.03339061 -0.022501603 -0.05248775 -0.01063201
0002c0 e4 fb 08 bd 34 83 6a bd 1f ba 63 bd ce 32 e4 bc
       -0.033443347 -0.05725403 -0.05559742 -0.027856257
0002d0 72 62 7a bd ab 84 f8 3c c3 5c 51 bd 16 71 84 bd
       -0.06112904 0.030336699 -0.051113855 -0.06466882
0002e0 0d dd 85 bd 5e b1 2f 3c 26 ee 53 3d c3 97 5e bd
       -0.06536303 0.01072344 0.051740788 -0.05434395
0002f0 3f 46 30 bc ca a2 78 bd ed bf 54 3d a7 b7 d2 3a
       -0.0107589355 -0.060702123 0.051940847 0.0016076461
000300 0f 0c db 3c a8 63 c5 bc 4d cc 1f bb d9 15 33 bd
       0.026739148 -0.024095371 -0.0024383247 -0.043722007
000310 c1 4f bc bc 21 7a 91 bc 8b cc 85 bd 1b 29 4f 3d
       -0.022987248 -0.01775843 -0.06533154 0.05057631
000320 56 8f f4 3c 43 0d e9 bc 7b 05 3a 3c ca df b9 bc
       0.029853504 -0.028448706 0.011353846 -0.022689719
000330 43 fc 00 3d 8a 40 35 3d 4e 7b 89 3c 63 c9 87 bd
       0.031490576 0.044251002 0.01678243 -0.06630208
000340 54 2f 78 bc 9b 78 24 bd 32 97 cf 3b 41 ad de bb
       -0.015148003 -0.04015408 0.0063351626 -0.006795556
000350 18 60 f8 3c c6 7b 17 3b b0 d1 2b bc c1 1f 2d bd
       0.030319259 0.0023114546 -0.010487005 -0.04226661
000360 ae e2 bc bc ec e6 07 bd 7a 0e 28 3d 51 89 18 bd
       -0.023057308 -0.03317921 0.04102943 -0.03724033
000370 5b fa b3 3a 5f a2 68 bd 58 ad 8a bd 8c 5b 58 bd
       0.0013731228 -0.056795474 -0.06771344 -0.05282168
000380 85 2e cb bc 64 01 47 3d 51 6e 1c bc 3d c0 fb bc
       -0.024802456 0.04858531 -0.009547786 -0.030731315
000390 f3 67 b8 bc 32 2b 73 bc 92 be f1 bc 39 e4 55 bc
       -0.022510504 -0.0148418415 -0.029509816 -0.013054901
0003a0 eb 89 0e bd 01 5c 63 bd 18 f4 72 3c ac 1a 43 bd
       -0.034799498 -0.055507664 0.014828704 -0.04763286
0003b0 ac 56 49 bd 99 93 8c 3c 16 91 62 bc 6a ba 57 3d
       -0.049154922 0.017160224 -0.0138285365 0.052668013
0003c0 7b 75 14 bc 7c 24 b5 3c 6c 4c b2 3c d8 18 39 3c
       -0.009061213 0.022112124 0.021764956 0.011297427
0003d0 91 26 10 bd 81 a6 61 3c 43 a5 8c bc 0e 54 7c bd
       -0.03519303 0.013772608 -0.017168647 -0.0616036
0003e0 c7 c7 32 bd 3e 93 93 bc 2f de 5c bd d8 30 e3 3c
       -0.043647554 -0.018014546 -0.05392283 0.027733251
0003f0 9f 50 ea bb 30 75 dc 3b bf 70 89 bc 9f 74 4f 3d
       -0.007150724 0.006727837 -0.016777394 0.050648328

layers.4.linear.bias f4 [256]
000000 43 a8 b9 bc e8 09 6b bd 76 2a e6 3c f9 8a 01 bd
       -0.022663241 -0.057382494 0.028096419 -0.031626675
000010 fb b9 0a 3d 43 fb ea 3c 4b d4 b1 3c f2 e1 0a bd
       0.03386877 0.028684264 0.021707674 -0.033906884
000020 c2 6e 64 bd 26 e5 5d bc cc 24 50 bc fb f9 49 bd
       -0.05576969 -0.013543403 -0.012704086 -0.049310666
000030 76 a5 3f bd 6e 03 71 bd 02 f1 83 bd 68 91 a1 3c
       -0.046788655 -0.05884116 -0.06442453 0.019722655
000040 91 d4 5a 3d b3 94 05 bd d6 6e 67 bd a4 26 de 3c
       0.053425375 -0.032612514 -0.056502186 0.027118035
000050 2e f0 80 bd 2d c9 b1 ba 7a c4 6d bd b4 75 bf 3b
       -0.06295811 -0.0013563983 -0.058048703 0.0058428887
000060 96 60 09 3d 5d a6 27 bd 38 5b bb 3a 87 00 13 3d
       0.033539377 -0.04093014 0.0014294153 0.035889175
000070 ff f2 e5 bc b5 3e ce 3b cb 1a 75 bc 07 c7 46 bd
       -0.028069971 0.0062940964 -0.014960001 -0.04852965
000080 f1 89 11 3d 54 4d 66 bd 05 7a 53 3d 4c a3 31 bd
       0.03553194 -0.05622609 0.05163004 -0.043368623
000090 c6 a5 37 3d 26 c1 8b bd d8 1b ad bb e5 39 d7 3a
       0.04483583 -0.068239495 -0.0052828602 0.0016420452
0000a0 ae 2b 44 39 43 ec 12 39 5b dd 81 3b 3f 4f 2d bd
       0.00018708289 0.0001401166 0.003963155 -0.042311903
0000b0 78 a0 d8 3c fa 12 30 bd d7 10 1d bd 78 7e d7 bb
       0.026443705 -0.042986847 -0.038346138 -0.0065763555
0000c0 49 22 72 bc 1f 53 fa bc 8d 36 02 bc a6 87 26 3d
       -0.014778682 -0.030557213 -0.007947576 0.04065671
0000d0 82 6f 22 3d 58 a6 3c 3d 36 a3 d1 bc fb 16 3a bd
       0.039657123 0.046057075 -0.02559052 -0.045432072
0000e0 6d cb 94 3c 5d dd 27 3b 52 d0 2d 3c e6 e9 cf bc
       0.018163407 0.002561412 0.010608749 -0.025380086
0000f0 44 f4 31 3c bc cb 4b bd 5c 82 86 bd cc ce 4f 3d
       0.01086146 -0.049754843 -0.06567833 0.050734326
000100 90 3f ce 3c 01 48 ff 3c c4 06 c2 bc 68 e5 1c 3d
       0.025176793 0.031162264 -0.023684867 0.038304716
000110 3c ae c9 bc 16 a5 a9 3b 04 ff 81 bd 2f ed 71 bd
       -0.024619214 0.0051771505 -0.063474685 -0.059064087
000120 d6 41 31 bd 9c d4 74 3d d9 a3 dd bc 55 12 90 bd
       -0.043275677 0.059773073 -0.027055668 -0.070347466
000130 6e c9 92 bc 3c b4 5e bd 33 d0 40 3d a3 bc 3f bd
       -0.017918315 -0.054371104 0.047073554 -0.046810757
000140 61 da 04 3c f4 84 b9 3c 96 9d fd bb 8d c1 79 bd
       0.008108706 0.022646405 -0.007739733 -0.0609756
000150 48 bc 06 3d d6 d0 ac bc 26 9a d1 39 f5 94 18 bd
       0.032894403 -0.021095674 0.00039978436 -0.03725143
000160 62 99 9e 3c d2 91 5a 3d 61 bd 51 bd 80 67 83 bc
       0.019360248 0.05336172 -0.051205996 -0.016040564
000170 f5 63 38 bd 88 ed 3d bd 35 7b 4b bd 39 5c 87 bd
       -0.0450172 -0.046369106 -0.049678046 -0.06609387
000180 b8 91 0e bd 4b 99 9f bc 16 92 6b bd 58 6d 98 b9
       -0.034806937 -0.019482275 -0.057512365 -0.00029073167
000190 91 4a 1e 3c 27 d7 84 bc 61 e4 64 3c b9 83 44 bc
       0.009661333 -0.016215874 0.013970465 -0.011994296
0001a0 39 75 2f bd 76 60 be bc 4e 5e 74 3d c8 54 9f bb
       -0.0428364 -0.023239356 0.05966025 -0.0048624016
0001b0 70 b9 12 3c e2 11 80 3d 57 ab a3 bb 27 26 87 3c
       0.008955345 0.06253411 -0.0049947905 0.016497685
0001c0 55 3f 63 bc 1d 88 1f bd a8 b2 10 bd 7f 7f fd 3c
       -0.01387008 -0.038948167 -0.03532663 0.030944584
0001d0 00 86 99 3b e8 10 4b bb 37 ba fa 3c 5c 61 7a 3c
       0.0046851635 -0.0030985419 0.030606372 0.015282001
0001e0 e8 0c 05 bd 7f 9a 16 3d bc b5 9e bc 66 39 f4 bc
       -0.03248301 0.036768433 -0.019373767 -0.029812526
0001f0 d5 03 84 3d 1b c9 e1 bc e9 42 88 bd 34 a0 55 bc
       0.064460434 -0.027561715 -0.06653387 -0.013038684
000200 8d 55 4a 3c db 56 b4 3c 52 3b 39 3d 5f e2 10 bc
       0.012349498 0.022014072 0.045222588 -0.008843034
000210 26 b1 5a bd 6a 46 47 3d 1a 05 d8 bc 12 f9 6f bc
       -0.0533916 0.048651136 -0.02636962 -0.014646785
000220 1b 90 4f bd 24 59 80 bc e7 c3 80 bd b8 80 27 bd
       -0.05067454 -0.015667506 -0.062873654 -0.04089424
000230 7b 81 35 bd 90 97 d2 3c 75 9b 90 3c 49 ea c8 3a
       -0.044312935 0.025707036 0.017652253 0.0015328611
000240 e8 b0 4a bd e1 5b 44 bd 75 9f 37 bd d1 69 b4 bc
       -0.049485117 -0.047939185 -0.044829804 -0.022023113
000250 59 05 d7 3c 2f 3d 75 bd 92 db d5 bc 1c 54 18 3d
       0.026247667 -0.059872802 -0.026105676 0.037189588
000260 b8 a7 88 bb 4c ac 78 bd a8 e5 61 bd 9b f6 20 bc
       -0.0041703843 -0.06071119 -0.055150658 -0.00982442
000270 a9 b0 e4 3c b3 45 4f bd ba 60 9e 3d 95 af 45 3d
       0.02791627 -0.05060358 0.07733293 0.04826315
000280 78 91 7e bc 8b 0b 01 bd 3b cb 2b bd d9 14 cf bc
       -0.015537612 -0.03150515 -0.041941863 -0.025278496
000290 be 08 dc 3c da e9 4b bd a7 12 25 3d 2b 41 b8 bc
       0.026859637 -0.049783565 0.04030099 -0.022492012
0002a0 91 ab 75 3c 9a 2e 96 bc 9d 9d 16 3c 99 90 49 3a
       0.014994518 -0.018332768 0.009192851 0.0007689088
0002b0 b0 8e 9d bc c4 49 36 bd a9 e0 c6 ba 5f 39 f2 3c
       -0.019233078 -0.044503942 -0.0015173155 0.029568372
0002c0 3b da 72 3c a6 18 21 bd 2f 15 00 bd ab bd ca 3c
       0.014822538 -0.039330147 -0.031270202 0.024748644
0002d0 33 06 24 3c fb 0a 19 3d fd 23 18 3d b6 d8 03 3c
       0.010011244 0.037363987 0.037143696 0.008047273
0002e0 6e 8b 5c bd 17 fc bd bb bb 01 5d 3a d9 6f 54 bd
       -0.053843908 -0.0057978737 0.0008430739 -0.05186448
0002f0 4f d8 36 bd 43 52 06 3d 91 3e 20 3d 26 e9 bc bc
       -0.04463988 0.032793295 0.039122168 -0.023060393
000300 af 58 c9 3b e4 d2 0e 3d 0a ed 0a bd 8b ed 18 3c
       0.006144605 0.03486909 -0.033917464 0.009333978
000310 1c 82 1f 3d b5 66 bd bc 47 be d4 3c e4 c9 67 3d
       0.03894244 -0.023120264 0.025969638 0.056589022
000320 2b 01 25 bc 6a 05 53 3d 26 40 9d bc 50 30 ef bc
       -0.010071079 0.051518835 -0.019195627 -0.029197842
000330 ac dd 11 3b ae c8 fa bc a2 3f c1 bc f7 84 ac bb
       0.002225737 -0.03061327 -0.023589913 -0.005264874
000340 e2 b2 bc bc 19 98 fd 3c e6 da 63 bc 73 51 5a bd
       -0.023034517 0.030956315 -0.01390717 -0.053300332
000350 89 f8 d4 bc d6 08 7c 3c 06 ee 4e 3d 38 61 36 bd
       -0.025997417 0.015382966 0.050519966 -0.04452631
000360 05 48 29 bd b3 cd b0 3c ae 85 99 3c 44 41 42 bc
       -0.04132845 0.02158246 0.018740501 -0.011856381
000370 71 dc 49 bd 5e e4 1e bd 92 04 26 3d c5 33 4a bd
       -0.049282495 -0.038792007 0.040531702 -0.049365778
000380 cf 4b 1a 3d 83 2f 1c bd f5 7d 39 3d c2 43 4c bd
       0.037669953 -0.03813125 0.045286138 -0.049869306
000390 0a d8 15 bd 6c 1c 2d 3d 6a d0 88 bb e8 25 08 3d
       -0.036582984 0.042263433 -0.0041752355 0.033239275
0003a0 d8 60 e5 3c cb e7 6a bd f0 f6 20 3d 79 66 ce 38
       0.02800028 -0.05734996 0.039297998 9.8419325e-05
0003b0 5a 42 a7 bb b8 cd 32 3c 3e 91 92 bc d4 9e 8e bc
       -0.0051043453 0.010913305 -0.017891522 -0.01740972
0003c0 c2 38 1e 3c f8 47 ff bb 51 6a 49 3c cc a5 90 3c
       0.009657087 -0.0077905618 0.012293414 0.017657183
0003d0 ee 97 d9 3c 13 11 75 bd d6 4a 0d bd 49 ab e8 3c
       0.026561704 -0.059830736 -0.034495197 0.028401988
0003e0 6b c4 68 bd b2 2a 08 bd 0a 7a 88 bc 36 61 d3 3c
       -0.056827944 -0.033243842 -0.016659755 0.02580319
0003f0 61 84 d4 bc 1a 74 f9 3c 1f 4e 4a 3d fb 12 15 bd
       -0.02594203 0.03045087 0.04939091 -0.036395054

layers.6.linear.weight f4 [256, 256]
000000 9e ac 59 bd a4 6a 77 3d 96 16 3f bd 56 36 27 bd
       -0.053143136 0.060404435 -0.0466524 -0.040823303
000010 00 db e6 ba 20 0a f2 3b 7c 74 33 3d 0e 0d 71 3d
       -0.0017612875 0.007386461 0.04381226 0.05885034
000020 b0 43 67 bc c8 4b 4d 3c b0 1c 74 bd c2 fe 0c bd
       -0.014115259 0.012530275 -0.05959767 -0.034422643
000030 e0 a7 78 3b 04 b2 59 3d ae 15 6b 3d 00 26 b2 3a
       0.0037941858 0.053148285 0.057393722 0.0013591647
000040 d8 9b 00 bd 18 13 13 bd 90 ae f7 3c d8 fd 62 bd
       -0.031398624 -0.03590688 0.030234605 -0.055417866
000050 10 14 46 bc 92 24 5c bd 94 6a 7c 3d 60 e9 e8 bc
       -0.012089744 -0.053745814 0.06162508 -0.028431594
000060 f4 db 59 3d 68 9b 6c 3d c0 59 60 3d 14 0a 90 3c
       0.05318828 0.057765394 0.054773092 0.01758293
000070 60 b8 5b 3d c6 07 61 bd 98 1e d4 bc b8 a2 d9 3c
       0.05364263 -0.054939054 -0.025893494 0.026566848
000080 4e c2 6a 3d 08 d7 47 bd fa dc 3f bd 58 bc 13 3d
       0.05731421 -0.048789054 -0.0468416 0.03606829
000090 18 ed 82 3c d8 2a f9 3c e0 53 27 bb e0 42 1e bd
       0.015982196 0.030415937 -0.002553217 -0.038637996
0000a0 00 7d be 39 bc fe 82 bc b6 da 47 bd 7c 29 3f 3d
       0.00036332756 -0.015990607 -0.048792563 0.046670422
0000b0 e0 d9 d9 bb 94 31 8f bc 40 26 da 3c 56 66 18 bd
       -0.006648287 -0.017479695 0.026629567 -0.03720697
0000c0 e0 48 cd 3b 58 5a 55 3d 5c 74 0e 3d aa 3a 63 bd
       0.006264791 0.05208811 0.034778938 -0.05547587
0000d0 7e 0c 76 3d 40 e3 95 3b 80 fe 5e 3a 44 be 84 bc
       0.060070507 0.0045742095 0.00085065514 -0.016204007
0000e0 a4 c3 38 3d 80 f3 7d bb da cd 5c bd 64 9b e5 3c
       0.045108452 -0.0038749874 -0.053907253 0.028028198
0000f0 98 0b 56 bc 54 b1 a3 3c 72 50 0a 3d 58 fb 64 3c
       -0.013064288 0.019982018 0.033768125 0.013975941
000100 e0 e0 73 bc fc 67 5b bd 98 59 a0 bc 60 18 ca bc
       -0.014885157 -0.053565964 -0.019573972 -0.024669826
000110 b0 6e a9 bc 36 ab 56 3d 5c 0c f7 bc bc 7a 7a bd
       -0.020682663 0.052409373 -0.03015726 -0.061152205
000120 68 ba 5a 3c d8 9b 15 3d 72 39 54 bd 80 ea 70 bc
       0.013350107 0.036525577 -0.051812597 -0.014704347
000130 70 ce e2 3b e0 4e 3a 3b 04 24 71 bd d0 dc 51 3d
       0.006921582 0.002842836 -0.058872238 0.051235974
000140 20 09 c2 bc 26 07 25 bd f0 29 46 bc a0 8e f2 3c
       -0.023685992 -0.04029002 -0.01209496 0.029609025
000150 20 bd 2f 3b 08 57 6d bc 4c 27 d4 3c ec bb 4c 3d
       0.0026815608 -0.014486082 0.025897644 0.049983904
000160 a8 87 54 3d 00 81 c0 3a b4 a9 e1 bc 98 a7 34 bd
       0.051887184 0.0014686882 -0.027546741 -0.044105142
000170 48 15 e1 bc 0e 0c 26 bd aa 7a 46 bd 26 ca 5d bd
       -0.027475968 -0.04053884 -0.048456825 -0.054147862
000180 ba 40 5b bd c8 19 4e bd 3e 30 13 3d 80 45 ca ba
       -0.053528525 -0.050317556 0.03593468 -0.001543209
000190 e8 bb f7 bc 40 2f a3 3c 00 f2 9b bc 00 b9 4b 3c
       -0.030240968 0.019919991 -0.019036293 0.012434244
0001a0 cc dd 7a 3d cc f3 3a 3d 80 fc c6 bc 20 02 bd 3c
       0.06124668 0.04564266 -0.024290323 0.023072302
0001b0 d8 22 3e bd 5a 16 7b bd 8c 2a e6 bc be 8b 7b 3d
       -0.04641995 -0.061300613 -0.02809646 0.061412565
0001c0 f8 55 73 3d 6e 43 75 bd a4 ae 8d 3c 04 26 ff bc
       0.059408158 -0.05987876 0.01729519 -0.031146057
0001d0 e0 7f 1d 3c b8 6f fc 3c 88 b5 58 bc a0 f8 bf bc
       0.009613007 0.03081499 -0.013226874 -0.023433983
0001e0 d2 a7 38 bd dc de c5 3c 24 73 8c bc 4c d4 2a bd
       -0.04508192 0.02415412 -0.017144747 -0.04170637
0001f0 42 9e 75 bd d8 5e c2 bc 54 d5 38 3d 00 e4 73 bd
       -0.05996538 -0.023726866 0.04512532 -0.05954361
000200 70 02 b5 3b 64 be 88 3c a2 5e 1c bd 34 9a 75 3d
       0.005523972 0.016692348 -0.038176186 0.059961513
000210 a8 aa d9 3c 82 b2 71 bd 00 99 60 bc 0e f4 57 bd
       0.026570633 -0.05900813 -0.013708353 -0.052722983
000220 48 0f bf 3c 20 2d 43 bd e0 20 4d 3d 16 bf 79 bd
       0.023322716 -0.047650456 0.05008018 -0.06097325
000230 94 b9 73 3d 70 ce f0 3c 60 c3 83 3c f0 39 a2 bc
       0.059503153 0.029395312 0.016084373 -0.019803017
000240 20 a8 d9 bc 90 a7 5f bc 8c 0f 28 3d ac fc 1c bd
       -0.026569426 -0.01365079 0.04103045 -0.038326904
000250 50 ce 6a 3c c0 81 e4 bb 80 6c 06 3d a2 46 3f 3d
       0.014331415 -0.006973475 0.032818317 0.04669822
000260 80 12 44 3b 3c 95 6f bd c6 a9 73 3d 70 be 24 3c
       0.0029918253 -0.05849193 0.05948808 0.010055169
000270 7a a3 02 3d dc 37 db bc d4 f6 92 bc 94 b3 2d 3d
       0.031894185 -0.026760034 -0.017939962 0.042407587
000280 42 5f 77 bd 72 3e 31 bd f6 a1 1e 3d 60 f7 d2 bc
       -0.06039358 -0.043272443 0.038728677 -0.025752723
000290 10 cf 4b bd a0 54 28 bc 38 fa c2 bc a0 d5 09 bb
       -0.049758017 -0.010274082 -0.023800954 -0.0021031871
0002a0 30 c9 de 3c a0 97 f4 3c 90 97 56 3c a0 e7 49 3b
       0.027195543 0.029857457 0.013097659 0.0030808225
0002b0 e4 db de 3c 1c 21 56 bd 60 68 5a bd 3a fb 2f bd
       0.027204461 -0.05227767 -0.053322196 -0.042964198
0002c0 44 22 96 3c e0 76 c5 3c ac 15 37 3d 82 b3 0b bd
       0.018326886 0.024104536 0.044698402 -0.03410674
0002d0 a0 05 e7 3c e8 f2 39 3d 42 05 25 3d 28 4f 05 3c
       0.028200924 0.04539767 0.040288217 0.008136548
0002e0 20 32 bd 3c 80 c7 7c 3a 3e 8f 30 bd c8 68 7f bd
       0.02309519 0.0009642765 -0.043105356 -0.062355787
0002f0 c0 02 fd ba 14 1c c5 3c 5c b0 5f bd 00 8e 31 3c
       -0.0019303188 0.02406124 -0.05461155 0.010837078
000300 d4 45 84 bc 80 25 62 bc 00 e8 09 bb d0 eb 2f 3d
       -0.016146578 -0.013802886 -0.0021042824 0.042949498
000310 0e 53 29 3d e8 15 08 bd 32 56 2f bd 90 dd 92 bc
       0.041338973 -0.033224016 -0.04280681 -0.017927915
000320 ec bc 26 bd 80 f8 1a ba d8 42 65 3c 44 5d 78 bd
       -0.040707514 -0.0005911663 0.013992988 -0.06063582
000330 5c c6 15 bd 52 6b 39 3d 40 70 13 3b 58 2b 58 3d
       -0.036566123 0.045268364 0.0022497326 0.05277571
000340 1c 0e 32 bd a8 09 ce bc e0 72 e1 3c 96 e1 75 3d
       -0.043470487 -0.025151089 0.027520597 0.06002959
000350 30 55 29 bc 10 40 f6 3c e0 6c 07 bb f0 25 05 3c
       -0.010335252 0.030059844 -0.002066426 0.008126721
000360 04 9f 2e 3d e6 cd 4f 3d 98 1b 32 bd 72 f6 63 3d
       0.042632118 0.05073347 -0.043483347 0.05565495
000370 7a 02 23 bd c4 58 a0 bc 16 6e 70 bd 0c fa c0 3c
       -0.039797284 -0.019573577 -0.058698736 0.023556732
000380 cc 35 13 bd 48 1a 47 3d 20 25 dd 3b 50 41 8a bc
       -0.035939977 0.048609048 0.0067488104 -0.016876847
000390 24 55 05 bd 40 1c c0 3b e4 b6 f3 3c 90 e4 28 bc
       -0.0325519 0.0058627427 0.029750295 -0.0103084
0003a0 f0 19 94 3b 5e ae 57 bd c0 25 e4 3a c0 4f b3 3b
       0.0045196936 -0.052656524 0.001740627 0.0054721534
0003b0 c4 14 df 3c e4 57 9d 3c 8c 58 c8 bc 94 33 4a bd
       0.027231582 0.019206949 -0.024456285 -0.049365595
0003c0 c0 80 64 bc 14 7d 36 bd 0c 7b 5a bd 68 c7 cb bc
       -0.013946712 -0.044552878 -0.053340003 -0.024875358
0003d0 88 63 fe bc 82 44 72 bd b0 df 38 3d 32 bc 15 bd
       -0.03105332 -0.059147365 0.0451352 -0.03655643
0003e0 02 1f 2d 3d b0 2b 74 3c 8a 0a 47 bd c0 ba ff 3a
       0.0422659 0.014902994 -0.048594035 0.0019510612
0003f0 22 c3 66 3d c0 9f f5 3a 0c dc 5c bd 64 20 ac bc
       0.056338437 0.0018739626 -0.05392079 -0.021011539
