res/model/new_model.pth (torch, 159192 bytes, 8 tensors)

layers.0.linear.weight f4 [128, 42]
000000 36 45 20 be d3 05 66 3d d5 54 f7 3d 48 ba 92 bd
       -0.15651402 0.0561579 0.12076727 -0.071644366
000010 6f 32 12 be c5 b9 5a bd 90 f6 96 bd 1b ce 97 bd
       -0.14277051 -0.05339982 -0.07371247 -0.074123584
000020 1d fc a3 3d a3 c3 02 3e 73 d0 0c be d2 ef bc 3d
       0.08007071 0.12769942 -0.13751392 0.092254296
000030 00 e1 77 3d ae fa ac bc b2 36 b3 be 94 3c 3a bd
       0.06051731 -0.021115627 -0.35002667 -0.045467928
000040 eb 00 9d 3d 8e 26 99 bd d0 16 27 3d af 0d 15 3b
       0.07666191 -0.07478057 0.04079324 0.0022743752
000050 8d f2 33 3e 85 bf 35 3e 44 bc ce bd fb d5 4b 3e
       0.17572995 0.1774884 -0.100945026 0.19905846
000060 b6 a5 2c 3e 0a ba 85 be e1 fb 81 3d f9 ec 4c 3e
       0.16860089 -0.261185 0.0634687 0.20012273
000070 9f e2 cf bc 7c b8 b7 3e bb 48 74 3d 2c 21 86 bd
       -0.025376616 0.35882938 0.059639674 -0.06549296
000080 63 17 bb bd f0 73 43 3e 14 f6 77 38 d0 0f cf 3d
       -0.0913532 0.19087195 5.9118567e-05 0.10110438
000090 be 5d 48 bb 39 31 90 bd e9 ba 07 3c 36 25 61 3c
       -0.0030573453 -0.070406385 0.008284309 0.013741782
0000a0 8e e6 ef 3b 70 86 9b 3d 56 fd 22 3c ba cd 15 bd
       0.0073211854 0.07594001 0.009948095 -0.03657315
0000b0 d8 3a 15 be 5f 57 6c 3d 84 70 6e bd ba 4b 81 3d
       -0.14573228 0.05770051 -0.058212772 0.06313272
0000c0 6e 16 55 bd 86 27 20 3d ce 9e 1d 39 b6 d9 dc 3d
       -0.052023344 0.039100192 0.00015031846 0.107837126
0000d0 77 43 db bd 13 a8 9c bd 44 73 d4 3d ca 05 3c 3d
       -0.10706227 -0.07649245 0.10373548 0.04590396
0000e0 ec d6 94 bd df 72 6b 3e 2a 7d 41 3e 45 5f e5 bd
       -0.072675556 0.22993039 0.18895403 -0.11199812
0000f0 af 17 77 be d1 46 e7 bd 42 1d 09 bd cc 39 d6 bd
       -0.24130128 -0.11292804 -0.033475168 -0.10460243
000100 24 a8 a4 bc 09 c1 1a 3e 35 38 0a be 01 49 44 be
       -0.020099707 0.151127 -0.13498004 -0.19168474
000110 37 ed 30 3c b2 92 46 3e a7 b5 09 3e a5 d4 ee 3d
       0.010798744 0.19391897 0.13448201 0.116616525
000120 b2 aa af 3d cd fe 3e bd 9e e0 30 3e 3b 25 2a bc
       0.085774794 -0.046629716 0.17273185 -0.010384853
000130 2d 7d 60 3c c9 3a 0c bc 83 d0 bb 3b 4d 40 99 3d
       0.013701719 -0.008558937 0.0057316436 0.074829675
000140 c5 0f 66 3b 88 24 5d bc 46 1f 35 3c bc 1a 1d bd
       0.0035104614 -0.013497479 0.011054819 -0.038355574
000150 6d df ea 3c 37 09 f5 3d 61 83 b8 bd 6a 76 0c 3e
       0.02867099 0.11964648 -0.090094335 0.13717046
000160 4f 07 04 3c 63 3f ed bd 36 e9 3c 3d e3 95 b7 3d
       0.008058383 -0.11584356 0.046120845 0.089641355
000170 df d2 fb 3d 94 4d 22 3d 07 de 01 be ff 78 f8 bd
       0.1229608 0.039624766 -0.12682353 -0.12132453
000180 84 0e 15 be de 4b e0 3c 93 9f fc bd 49 65 4f bd
       -0.14556319 0.027379926 -0.12335124 -0.050633702
000190 32 88 84 3c cc 95 a0 3d cf f1 08 3d 85 4e dc 3d
       0.016178224 0.078410715 0.03343373 0.10757164
0001a0 8f 50 ab 3d a8 41 93 3c 19 9f 01 be 88 74 d3 bc
       0.08364975 0.017975643 -0.12658347 -0.025812402
0001b0 23 eb 4b bc c2 9e 71 bc 3b d2 64 bd 57 14 26 bd
       -0.012446198 -0.0147473235 -0.055864554 -0.04054674
0001c0 f5 36 08 bd 84 ce 9b bc 7c 0b a5 ba 8d 95 a3 3d
       -0.033255536 -0.019019373 -0.0012591924 0.07987509
0001d0 16 44 d2 bd 86 cb f9 bd 29 1d 62 bd 00 18 73 bc
       -0.102668926 -0.12197022 -0.05520359 -0.014837265
0001e0 f8 fd 70 3d 39 f4 ad 3d 5c 40 96 bc 79 dc 03 3e
       0.058835953 0.084938474 -0.018341236 0.12877072
0001f0 24 60 e4 bc 86 c5 21 3d bc 9c 8a 3d aa 25 21 be
       -0.027877875 0.039495014 0.06768176 -0.15737024
000200 79 04 5c bd b5 f1 11 be a1 63 90 bd c6 87 25 be
       -0.053715203 -0.1425236 -0.07050253 -0.16165075
000210 a5 1f 0c 3e 23 21 ec 3d 33 1d 1a bd 5e d2 59 bd
       0.13683946 0.11529758 -0.037625503 -0.053179137
000220 c8 ac 22 be 11 a8 8f bd 46 dd 11 bd 19 54 47 bd
       -0.15886223 -0.07014478 -0.035611413 -0.048664186
000230 80 0b 4e be d6 ed 14 3c c1 d2 ad 3c 30 7d b9 3d
       -0.20121574 0.009089908 0.02121866 0.09057081
000240 92 0b 51 3d c9 ec 18 be b0 97 33 be 1b 47 f2 3d
       0.051036425 -0.14934076 -0.17538333 0.118299685
000250 83 90 40 bd cb 2b 8e bd 21 4c 3c be 6f c4 03 be
       -0.047012817 -0.069419466 -0.18388416 -0.12867902
000260 06 d0 91 3d 41 19 12 3d d9 f2 2c be 8f 95 c5 bb
       0.071197554 0.035668615 -0.16889514 -0.0060297917
000270 c9 c3 32 3d 06 a0 47 be 91 c1 dd bd 69 bf d5 bd
       0.043643747 -0.19494638 -0.108279355 -0.10436899
000280 db 5c a5 bc 9c 95 dc bd 91 7d f2 3d 16 1d b9 bd
       -0.020185879 -0.10770723 0.11840356 -0.09038751
000290 74 4b 33 bd 1e 47 88 bd b7 e9 86 ba 6f e9 f4 3c
       -0.04377313 -0.066541895 -0.0010293041 0.029896466
0002a0 34 a1 ab 3d 55 7c be bd ca fa 6a 3d b6 00 0e be
       0.083803564 -0.09301058 0.057368077 -0.13867459
0002b0 41 b7 76 bd 52 42 07 3d c7 af 93 bc b4 61 d2 3d
       -0.06023336 0.033022232 -0.018028153 0.10272542
0002c0 6d d4 f1 3d 90 11 97 bd 03 fd ef 3d d1 43 1c 3c
       0.11808095 -0.07376397 0.1171818 0.009537653
0002d0 5f c4 2a bd ae d0 b7 bd 67 c1 0f 3d 98 1c 06 3e
       -0.04169118 -0.08975349 0.035096552 0.13096845
0002e0 f3 b3 15 be c9 0b 35 be 7d 3c 56 bd 47 e5 9e bd
       -0.14619426 -0.17680277 -0.05230378 -0.07758575
0002f0 81 5c 1a be fc 3c 4c 3e 4d 2f 27 bd f8 71 0b be
       -0.1507435 0.19945139 -0.040816594 -0.13617694
000300 24 4d 0e be 29 37 53 be 86 aa f3 bc 9c b8 bb 3c
       -0.13896614 -0.2062651 -0.029744398 0.022915177
000310 13 2a ad bd c2 82 19 be 9a e8 ad bb dc 02 93 3d
       -0.08455291 -0.14991286 -0.0053072693 0.0717828
000320 b3 fb 17 3b 71 c7 5a be b1 f9 2c 3c 53 23 37 bd
       0.0023190796 -0.21365143 0.010557578 -0.044711422
000330 8c bf 21 bc 5d 03 1f bc 9c 3d 20 3c dc 07 0f bd
       -0.0098723285 -0.009705392 0.009780314 -0.034919605
000340 48 6e 29 bc 86 e5 a5 bb f8 07 ed bc d2 2d f7 3d
       -0.0103412345 -0.0050627617 -0.028934464 0.120692864
000350 c1 ae ac bd b0 5c b8 bc 3e c6 c5 bd 39 b8 17 be
       -0.08431769 -0.022505134 -0.09656952 -0.14816369
000360 42 fe 26 3c 5a 74 e7 bd b7 30 07 3e 78 c7 11 3d
       0.010192456 -0.11301489 0.13202177 0.03559062
000370 bb b3 18 3d e3 70 c8 bd 8c 9d 9d bd d4 a5 10 3d
       0.03728078 -0.097871564 -0.07696065 0.035314396
000380 98 a3 95 be 3e d4 90 bc bd 0a 54 3d a7 90 b6 bc
       -0.29226375 -0.01767933 0.051768053 -0.022285772
000390 e2 ac 26 3d 46 bb 83 bd bf 68 f1 bd 18 bd a6 bd
       0.040692218 -0.06432204 -0.11787557 -0.081415355
0003a0 7a b3 a6 3e f5 56 2e be fb fc 67 3d 0f 4b 0f 3e
       0.32558805 -0.17025359 0.056637745 0.13993476
0003b0 a8 b2 38 be a0 a0 f2 bd 12 a6 6f be cf 08 23 3e
       -0.18036902 -0.11847043 -0.23403195 0.15921329
0003c0 4b c3 f6 3d 12 20 d3 bc 41 c3 6a 3c b0 8d 73 bd
       0.12048968 -0.025772128 0.014328779 -0.059461296
0003d0 2c 54 eb 3c 82 f0 2b 3d 86 fb e4 ba 53 1a 21 bc
       0.02872666 0.041977413 -0.0017469979 -0.009832936
0003e0 6b b7 77 b9 d2 e2 58 bc 84 96 c6 3b d3 4a 8e bc
       -0.00023624084 -0.013237672 0.0060604233 -0.017369663
0003f0 70 7b ff 3d 63 3e a7 bd af 7a a1 bd 0b 82 f1 3d
       0.12474716 -0.08166196 -0.07884728 0.11792382

layers.0.linear.bias f4 [128]
000000 32 32 59 3c 91 43 d7 bd 97 b1 e9 3d 48 ff 79 3d
       0.013256596 -0.10510934 0.11410826 0.06103447
000010 f7 84 05 be 80 8f 7e bc 00 63 a3 3d 0a ad 66 3d
       -0.13039003 -0.015537143 0.07977867 0.056317367
000020 ae 49 58 bd 9b 48 d4 3d 05 da 6a 3d 33 29 a7 3d
       -0.05280464 0.10365411 0.057336826 0.08162155
000030 6e b9 ff 3d 1f 2b c2 3c e5 3a a0 3c 23 56 cf 3d
       0.1248654 0.023702202 0.019559333 0.10123851
000040 2b 68 0c be f7 32 23 3e e9 f6 90 3d d9 d9 06 be
       -0.13711612 0.1593741 0.070783444 -0.1316904
000050 ea 6a 06 be 78 9d 0d 3d d0 b0 bf 3d 31 78 c0 bc
       -0.13126722 0.034574002 0.09359896 -0.023494812
000060 10 3b b6 bc b1 10 87 3d 6b 31 e3 bc 97 da d9 3d
       -0.02224496 0.065949805 -0.027733525 0.10637396
000070 e1 2e b0 3d c9 e2 d3 bd a1 f3 d7 3d 1e 6a 4b bd
       0.086026914 -0.1034599 0.105445154 -0.049661748
000080 79 b6 ef 3d 18 05 99 3b e5 09 06 3d d7 76 4b 3c
       0.11704726 0.0046697967 0.03272428 0.01241847
000090 bb af 0e bd ea bb 27 3e 0e b0 99 bd 6c 98 fd bd
       -0.03483556 0.16380277 -0.07504283 -0.12382588
0000a0 e4 f1 2a 3e 83 07 05 3d 39 d6 2f 3c fd b1 1b bd
       0.16693836 0.032477867 0.010732227 -0.03801154
0000b0 3e 8e 9c 3d a8 bb 0a 3e 9a a9 04 3e 38 e9 93 bd
       0.07644318 0.13548148 0.12955323 -0.07222217
0000c0 b6 13 af 3d 6a 63 e4 bd 68 67 f8 bc 33 ee 06 be
       0.085486814 -0.11151774 -0.030322745 -0.13176803
0000d0 28 09 9f 3d 40 0a 72 3d 81 72 a4 3d f3 81 f8 3d
       0.07765418 0.059091806 0.080296524 0.12134161
0000e0 44 b2 59 bc 9f 0c 0d be a1 36 8b bc 21 c1 15 3e
       -0.013287131 -0.13774346 -0.016993823 0.14624454
0000f0 96 3b 6f 3d 43 8d b7 bd 95 49 08 3e fd 82 60 bc
       0.058406435 -0.089624904 0.1330932 -0.013703105
000100 48 cb a9 3c 38 aa f2 3a 6f 56 11 3c e8 48 c3 bd
       0.020726815 0.0018513864 0.008870705 -0.0953539
000110 36 09 b5 3d 26 fb 13 3c 2e 90 38 bc d6 03 a6 3d
       0.088396475 0.009032046 -0.011264844 0.081062004
000120 e9 77 b0 bd c1 d7 15 3e 15 d2 ca 3d 40 16 1e be
       -0.08616621 0.14633085 0.09903351 -0.15438175
000130 83 71 04 3e ee 86 f7 3d b6 f9 06 be 33 f9 a7 bd
       0.12933926 0.12086283 -0.13181195 -0.08201828
000140 81 06 c0 3b 68 90 88 bd 21 79 c7 bc e5 7a e8 bd
       0.0058601503 -0.06668168 -0.024349751 -0.11351565
000150 df 6e 0c bc c5 f1 81 bd 35 3c c5 3b 6f 08 fa 3d
       -0.008571356 -0.06344942 0.00601914 0.1220864
000160 01 7c 47 3d 33 00 dc 3d a5 ec e7 bd 63 ca 02 bd
       0.048702244 0.107422255 -0.11324433 -0.031931292
000170 5c bd 9a 3c 8f a2 8b 3d 18 6e fe bc 22 76 a8 3c
       0.018889122 0.06818115 -0.031058356 0.020564143
000180 39 a0 a7 bd b2 a3 e9 bb 5f 9f 69 bc bc 74 cf 3d
       -0.08184857 -0.0071301097 -0.014259188 0.10129687
000190 9c 68 02 3e f3 ea 77 bd a9 38 d2 bc 17 84 0c 3d
       0.12735218 -0.0605268 -0.025661783 0.03430566
0001a0 12 d2 26 be 13 ad c5 3d 4d 07 07 bd 19 3b 9c 3d
       -0.16291073 0.09652152 -0.032965947 0.076284595
0001b0 d9 82 85 bd dc 7e 1a bd b6 5a bc 3d e2 cd b9 bd
       -0.06519098 -0.03771864 0.09196989 -0.09072472
0001c0 45 27 fd 3d fd cf d1 3d 65 64 02 3e 0d c0 34 3e
       0.12361006 0.10244749 0.1273361 0.17651387
0001d0 a8 fe 84 3d ed b8 0a be 9e f4 fd 3d 15 45 3f bd
       0.06493884 -0.13547106 0.12400173 -0.04669674
0001e0 75 41 f1 bb fc d7 0c 3e 0b 44 10 3c 1a 6b 31 be
       -0.0073625394 0.13754267 0.008805285 -0.17326012
0001f0 97 15 d9 3d 93 83 b0 bd c3 fd 24 3d 07 97 eb bd
       0.10599821 -0.08618846 0.04028107 -0.115034156

layers.2.linear.weight f4 [128, 128]
000000 dd 46 b3 3b 84 a2 22 bd cf 22 b3 bc 4a 99 8c bd
       0.005471094 -0.03970577 -0.021867184 -0.06865175
000010 fc d5 97 bd ae 5f 50 bd 7d f6 81 3d 8b 8c 62 3d
       -0.07413861 -0.050872497 0.06345842 0.055309813
000020 71 d8 35 bd 2c 58 92 bd 8e 13 e2 bc 11 5a 97 3d
       -0.044395868 -0.07145724 -0.027597215 0.07390226
000030 30 8f b5 3d 21 c2 ac bd cf 52 ad 3d 33 74 91 3d
       0.088652015 -0.08435465 0.0846306 0.07102241
000040 b3 44 59 bd 1b 4c 2b 3d 30 81 18 3d 4d c3 15 bd
       -0.053044032 0.041820627 0.037232578 -0.036563206
000050 82 b7 ce 3c 30 13 82 bd c4 88 a2 3c 2c ff fd bc
       0.025233988 -0.06351316 0.019840606 -0.031005464
000060 f0 3c 8f bd 9b 09 31 bd 79 90 67 bd 43 11 91 bc
       -0.06994045 -0.04322205 -0.056534264 -0.017708426
000070 39 57 67 bc 80 d2 91 bd cc 98 24 3d b2 10 96 3d
       -0.014119917 -0.07120228 0.04018478 0.07327403
000080 b7 d4 34 3d cf e6 81 3d 40 ff ad bd dc cf 6b bd
       0.044148173 0.06342851 -0.08495951 -0.057571277
000090 71 82 e2 bc 2a 5b cc 3c e1 e6 38 3d 91 60 1e 3d
       -0.02765009 0.024945814 0.04514206 0.03866631
0000a0 76 2a 8e 3d 3b ac 73 bc a8 b3 24 3d 35 b7 45 3d
       0.069416925 -0.014872606 0.040210396 0.048270423
0000b0 ff d7 0e bc 07 9e ad 3d d7 70 63 3d b9 0b 86 bd
       -0.00871849 0.08477407 0.055527534 -0.06545205
0000c0 fd 76 c7 3c 29 2e 21 3d fe 83 45 3b 7d 7f 57 bd
       0.02434873 0.039350662 0.0030138488 -0.052611817
0000d0 25 c7 ec bc 66 f6 6f 3d 1a 46 bc 3d 47 60 87 3d
       -0.028903553 0.058584593 0.09193058 0.0661016
0000e0 6b a3 a4 bc 1e 03 a3 3d 35 7c 19 3d a7 8c 98 bb
       -0.020097455 0.07959579 0.03747197 -0.004655439
0000f0 89 55 93 bc ae ec 1c bd 9a f4 35 bd fc d3 4a bd
       -0.017985122 -0.038311653 -0.044422723 -0.04951857
000100 b5 5d 72 3d 78 cd 39 bd 44 88 4d 3c 38 82 a7 bc
       0.059171397 -0.045361966 0.012544695 -0.020447835
000110 fb 1e 6e bd 2e 30 21 bd f1 09 8e 3d bc f8 96 3d
       -0.058135014 -0.03935259 0.0693549 0.07371661
000120 8d 6e 24 bd a2 ec 39 3c a6 09 b2 bd 32 63 de bc
       -0.040144492 0.011347922 -0.086932465 -0.02714691
000130 2d 7c 80 3d 40 ea ae 3d 87 fd 79 bd 29 0f d9 3c
       0.06273685 0.085407734 -0.0610328 0.026496487
000140 2c 55 09 bd 7f a3 3b 3d c3 ad 91 bd 94 3b b1 3d
       -0.03352849 0.04581022 -0.071132205 0.08653942
000150 8e 81 2b bd 5c 94 d5 3d 71 9c a6 3d 33 8d 7d 3c
       -0.0418716 0.10428688 0.081353076 0.015475559
000160 c3 22 2c bd b3 f0 42 bd b7 bd dd 3c 41 7f 8c 3d
       -0.04202534 -0.04759283 0.027068002 0.06860209
000170 57 08 54 bd a3 16 89 3d ec 6a d3 bc 67 b6 83 3d
       -0.051765766 0.06693771 -0.02580782 0.06431275
000180 6f 5a 95 3d 98 e7 90 3c 16 3c 80 bd fe b9 18 3d
       0.072926395 0.017688558 -0.062614605 0.03728675
000190 57 c4 4d bd 3d 56 8d 3c 41 9e 9e bd 65 ca 73 bc
       -0.050236072 0.017253036 -0.07745028 -0.014879798
0001a0 b2 2c 99 bd 02 63 9d 3c e5 42 0b 3d 99 fd 4f 3d
       -0.07479228 0.01921225 0.033999342 0.05077896
0001b0 c0 ff 27 bd 94 da 2e bc 8b 02 45 3a 89 b5 23 bd
       -0.041015387 -0.01067223 0.00075153325 -0.039968047
0001c0 2d 3f 81 3c 10 e2 35 bd 2e c6 12 3d 59 43 8d bd
       0.015777195 -0.044405043 0.03583353 -0.06897611
0001d0 1c a0 e8 3c e2 d3 34 bd 23 75 34 bc 32 a5 a6 bd
       0.028396659 -0.04414738 -0.011014256 -0.08136977
0001e0 70 a8 8e 3d ba c4 fe bc ae bf cd 3c 04 04 c1 3d
       0.06965721 -0.031099666 0.025115814 0.09424594
0001f0 25 c9 90 bd b7 2c f0 3c cb f6 01 3d f5 18 6d bc
       -0.07069615 0.029318197 0.0317295 -0.014471282
000200 ff 61 c8 bc b6 62 1d be 36 f1 8a bc 9f c1 3e be
       -0.02446079 -0.15369686 -0.016960721 -0.18628548
000210 5b d4 25 3e f4 af 24 3d 49 b0 b6 bc 40 ba 13 bc
       0.16194288 0.040206864 -0.022300856 -0.009016573
000220 2c 77 32 3c 12 a7 c1 bc 79 8c af 3d 4e 1a bf bd
       0.010892671 -0.023639236 0.08571715 -0.09331189
000230 02 22 38 be 5e 5a 1a 3e ad ef 25 bc 1b 6c db 3c
       -0.17981723 0.15073535 -0.010127944 0.026784947
000240 f0 35 5a bc f0 c9 8d bc 55 24 a6 bc d2 66 1d 3d
       -0.013318524 -0.017308205 -0.020280996 0.038428135
000250 3f aa af 3c 42 ee 84 3d bc 55 22 bd f5 f4 10 3d
       0.021443484 0.064907566 -0.039632544 0.03538986
000260 e2 f1 54 3d 8c e8 cd bb c4 69 13 3d 9b ac 3e bd
       0.05198849 -0.0062838253 0.035989538 -0.04655133
000270 a6 e4 8e bc a1 1f 29 3d 7d d5 0e 3c 09 4f 26 3d
       -0.017443012 0.04128993 0.008717892 0.040602718
000280 37 7d d5 bc d1 d1 a8 bd a7 ed b0 3c 6e 0c 87 3a
       -0.026060684 -0.08243144 0.021597696 0.0010303387
000290 12 1b bd bc 34 d1 3b bc 12 0e 91 bd 91 47 d2 3d
       -0.023084197 -0.011463452 -0.07082762 0.102675565
0002a0 76 95 11 bd 53 8f 2b be c7 ec c7 bd 34 a1 b3 bd
       -0.035542928 -0.16753893 -0.097619586 -0.087709814
0002b0 9b 77 d6 ba 65 b1 05 3e 52 ab 94 bd 2b f5 b1 bd
       -0.001636255 0.13055952 -0.07259239 -0.0868934
0002c0 76 83 2f bd 0d 2e b2 bc 21 48 bb 3c d1 9d 6f bc
       -0.04284998 -0.021750474 0.022861542 -0.014625029
0002d0 d3 c8 18 bc 96 c9 bd bd 1f a3 95 3c 7e 1d 8d bd
       -0.009325224 -0.09266965 0.018266259 -0.06890391
0002e0 f7 cf 3e bd 32 2b 8c bd a1 d1 fa 3d 15 12 6a bd
       -0.04658505 -0.06844176 0.12247015 -0.05714615
0002f0 9d 83 97 bc d8 1d e0 bd ba e1 55 3d 17 ad 09 3e
       -0.018495375 -0.10943192 0.052217223 0.13444935
000300 f5 a9 9a 3d f8 9d c6 bc d0 9f 66 be 4c c1 23 3b
       0.07551948 -0.024245247 -0.22521901 0.002498704
000310 d9 c5 64 bd 3f 3f 43 3d 6b 75 50 3d 9f 6d 72 3c
       -0.055852745 0.047667738 0.05089323 0.0147966435
000320 a7 f9 90 bd 09 0c bf bc ed 65 f6 3d f7 3c 19 bd
       -0.070788674 -0.023321168 0.120311595 -0.037411656
000330 14 1e 17 3d 4b 69 2d bd 41 c3 7e 3d 60 bf 5c 3b
       0.03689392 -0.042336743 0.062197927 0.0033683404
000340 e4 f4 90 bd 9d 9f d0 3c f5 33 e5 bd 64 ff 6e 3c
       -0.07077959 0.025466735 -0.11191551 0.014587257
000350 34 a9 8b bd ce d2 96 3d e2 30 94 3c 34 fe 44 bd
       -0.06819382 0.073644266 0.018089715 -0.04809399
000360 19 0a 3b 3c 74 84 28 3d c2 0a 2e bd 90 ed ba 3d
       0.011415982 0.041141942 -0.04249073 0.09127343
000370 2d 06 aa bd c2 c4 4e bd 67 2a 3c 3d 99 bc fd 3c
       -0.08301959 -0.05048061 0.045938876 0.03097372
000380 8c e6 1e bd cd 8e 70 bd 48 27 c9 3d 51 f3 e1 bd
       -0.038794085 -0.058729935 0.098219454 -0.11032737
000390 7b 4c 79 bd 19 b9 0d 3e 77 6a e8 3d 2a d3 0c bd
       -0.060863953 0.1384014 0.113484316 -0.03438107
0003a0 3c 3a 18 3c f0 b2 9d 3d 2c 4a 98 bd 3a 7a 00 bd
       0.009291228 0.07700145 -0.07436022 -0.031366564
0003b0 d4 95 20 bc 2c 29 21 bd 2b 61 34 3c b2 bb 14 be
       -0.009801347 -0.039345905 0.011009495 -0.14524725
0003c0 2f 7d 72 bd 01 77 9b bd 36 5d b9 3d c7 67 9d 3c
       -0.059201416 -0.075910576 0.09050982 0.019214524
0003d0 6e 22 ec bc 42 72 33 3d 90 99 13 3d 81 76 73 3d
       -0.028825011 0.043810137 0.03603512 0.059439186
0003e0 50 17 20 3a 5c 1d d2 3c 1a 48 b1 bd d5 bb 86 3d
       0.00061069895 0.025648765 -0.086563304 0.06578795
0003f0 ff bc 46 bd 00 a9 06 3b 54 a9 13 be 43 c7 0a 3d
       -0.048520084 0.002054751 -0.14420062 0.033881437

layers.2.linear.bias f4 [128]
000000 51 19 80 bc cd ed 71 bc 74 6f 56 3d 3f a0 41 bc
       -0.015637072 -0.014766169 0.052352384 -0.011817991
000010 99 c8 25 bd 30 3c c5 bb 13 b7 62 3c f1 33 31 3d
       -0.040474508 -0.006019138 0.013837594 0.043262426
000020 c3 79 28 bd 61 ee 98 3d 0e 73 8d bd 12 14 a6 3b
       -0.041131746 0.07467342 -0.069067106 0.0050683105
000030 7a 70 9f 3d b8 f9 04 bd 54 97 ac 3d 08 c1 6a 3d
       0.07785125 -0.032464713 0.08427301 0.057312995
000040 32 62 28 bd 12 c6 cb bd 5b 3d 8d 3d 74 90 09 3d
       -0.04110927 -0.09949888 0.06896468 0.033585027
000050 b4 de 94 3d 5a ed 91 3d 45 e0 84 3d 6e 5a c4 bd
       0.0726904 0.07125349 0.064880885 -0.095875606
000060 63 7f a3 bd 4d 1b 20 3d 9e 9e 1e 3d 2e 49 a0 3c
       -0.079832815 0.039088536 0.038725488 0.019566145
000070 5d 2a 91 3d c2 5e d7 3c 34 6e 94 3d 31 2a a8 bd
       0.07088158 0.026290301 0.07247582 -0.08211172
000080 8d 87 18 bd 85 54 81 bd b9 92 b9 3d d6 99 61 3c
       -0.037238646 -0.06314949 0.09061188 0.0137695875
000090 71 23 6d bd 37 db 2b bd 52 1b ae bd 33 9b 68 3c
       -0.057895128 -0.041957106 -0.08501305 0.014197159
0000a0 09 75 9c bd 9f 22 69 3c 36 37 bf bd 24 a5 5c 3d
       -0.0763951 0.014229446 -0.093367025 0.053868428
0000b0 b6 c9 bd bc 6c 19 99 3d 0f 95 68 bd d1 06 a1 bd
       -0.023167472 0.07475552 -0.05678278 -0.07862628
0000c0 d7 ce 6c bd e8 cf 89 3d 2e c7 e7 3c 64 08 b6 bd
       -0.057814445 0.06729108 0.028293218 -0.08888319
0000d0 48 36 b9 bd 23 6c 80 3d 70 eb 8f 3d b6 d0 2c 3d
       -0.090435565 0.062706254 0.07027328 0.04219123
0000e0 b5 e5 2c bd 36 41 e4 3c 4f 2b d7 bc ff c7 13 3c
       -0.042211253 0.027863126 -0.026265768 0.009019851
0000f0 da e7 93 3d 1b aa e9 3c 12 92 5d 3b 2a 97 ba bd
       0.072219566 0.028523495 0.0033808989 -0.091108635
000100 ea e9 94 3c 71 35 1f bd 09 09 3d 3d c0 5d 75 bb
       0.018177945 -0.038869325 0.046151195 -0.0037439913
000110 38 c4 24 3d 93 a0 32 3d 62 c3 2d bd a4 4b 84 bd
       0.04022619 0.043610167 -0.04242266 -0.0645974
000120 2e 54 1e 3d 7d d2 55 bc f2 19 6d 3d e0 5d a7 bc
       0.0386545 -0.013050673 0.05788607 -0.020430505
000130 ec fd 57 bc ab f1 65 bb fc 67 99 3d 87 56 ba bc
       -0.013183098 -0.0035086672 0.074905366 -0.022746338
000140 7b 26 02 bd 58 0a ef bc 21 86 49 3d 5f f5 96 3d
       -0.03177498 -0.029179737 0.04920018 0.073710196
000150 06 b1 5f bd 90 6f a5 3c e9 de 93 3d 5c 2d 9f 3d
       -0.054612182 0.020194799 0.07220251 0.077723235
000160 e3 7d 87 3d 87 c2 9a bd 08 5d 4a 3c 73 49 88 3c
       0.06615808 -0.075566344 0.012351282 0.016636586
000170 ff 43 7a bd ae cb 2b bd 21 da bd 3d 9e 5a ed bc
       -0.061100002 -0.04194229 0.092701204 -0.028973874
000180 50 ff a8 3d 98 e1 31 bd 68 c6 bf bd f6 97 a0 bd
       0.08251822 -0.043428034 -0.09364015 -0.07841484
000190 b2 9a 26 be b1 c7 46 bd e4 02 8f 3d 26 5f 35 3d
       -0.16269949 -0.048530284 0.06982973 0.044280194
0001a0 0c 5f b8 3d b1 38 0c bc 26 b1 df bc 71 bd 1c bd
       0.09002504 -0.008558438 -0.02730615 -0.038266603
0001b0 c1 4d c5 3b c0 bb a7 3c e1 1e c1 bd 2b 11 39 bc
       0.006021232 0.020475268 -0.09429718 -0.011295597
0001c0 b9 20 1a 3d af 5e 87 bd 75 77 3e 3c de 80 ae 3d
       0.037628863 -0.06609856 0.01162516 0.08520673
0001d0 8f ba 7e 3d 32 37 b8 39 d1 6f 1c bd 44 1f 2b 3d
       0.062189635 0.0003513634 -0.038192574 0.041777864
0001e0 31 ea 72 bc 4a 01 c3 bd 87 c1 d8 bd 5b fa 7c 3d
       -0.014826343 -0.0952173 -0.105837874 0.061762195
0001f0 c3 52 48 3d b8 95 46 bc 13 b2 cf bc cd 29 54 bd
       0.048907053 -0.012120657 -0.025353467 -0.051797677

layers.4.linear.weight f4 [128, 128]
000000 4c d5 e8 3b 9d 1d 8c 3d bd 97 94 bd 7b 0b 3f bc
       0.007105505 0.06841586 -0.07255504 -0.011660452
000010 b9 2f b4 3d 3f b2 10 bd 1f f3 a5 3c 01 41 fa bc
       0.08798165 -0.03532624 0.02025753 -0.030548574
000020 c3 6b 88 bc 1d 1a ae 3d dc f8 74 bd c3 12 c3 bc
       -0.016652947 0.085010745 -0.059807643 -0.023812657
000030 c1 53 af 3c f4 5d 18 bd 34 5b b7 3d ea 08 a0 3d
       0.021402242 -0.037198976 0.089529425 0.078142
000040 a7 4d cc ba 24 90 cf bd f3 7c 95 bd 8a 64 9b bd
       -0.0015587107 -0.101349145 -0.07299223 -0.07587536
000050 94 0e d9 3c 1f 31 1b bc 9d 9e 3e bd 81 b3 78 3c
       0.02649621 -0.009472161 -0.046537984 0.015179516
000060 ed 95 15 bc 83 32 61 3d 30 d3 b4 3d 7b 07 a8 3c
       -0.009129983 0.054979812 0.08829343 0.02051138
000070 c3 1f 5a 3d 5b 96 00 bd ae 1a 89 3c 02 a2 9a 3d
       0.053252947 -0.03139339 0.016736355 0.07550432
000080 f2 44 9f bc 73 0f 6f bd 9c 4d 11 3c 45 c8 8a 3c
       -0.019442055 -0.058364343 0.008868601 0.0169412
000090 54 b1 8b 3d 66 72 6c 3d 94 d4 ca bb ec c1 49 3b
       0.06820932 0.057726286 -0.006189892 0.0030785752
0000a0 df f1 80 bb 8e 7a 3d bd 94 8c ce bc 7c 72 08 bd
       -0.0039350833 -0.046259455 -0.025213517 -0.033312306
0000b0 70 8d 15 bd 0a 35 3b 3d f5 97 90 3d 45 2b a2 3d
       -0.03651184 0.04570488 0.070602335 0.07918409
0000c0 8b 0d cd 3c 53 8c 3e bc 30 20 9e 3d c0 73 11 3d
       0.025030872 -0.011630136 0.07720983 0.03551078
0000d0 11 16 c3 3d 32 21 ec 3c bb d0 01 bd 8d be c9 3b
       0.09525693 0.028824423 -0.0316932 0.0061567486
0000e0 df 82 8d 3b d1 d2 4e 3d 4f b7 2b 3d e4 89 10 3d
       0.0043185796 0.05049402 0.041922864 0.035287753
0000f0 21 fa 67 3d 33 d8 b8 3d da 29 9d 3d f0 86 cc bc
       0.056635026 0.09025612 0.07673998 -0.024966687
000100 11 5c bc 3d f8 aa 8b bc 71 e1 fa bc 93 3b 02 3d
       0.09197248 -0.017049298 -0.030625077 0.031795096
000110 88 18 ab 3d c8 c3 dd 3c b2 97 d0 bd 8f 28 6c 3d
       0.08354288 0.027070895 -0.101851836 0.057655867
000120 ae ab df 3c 23 9d 07 3d c4 77 0c bd dd 9c b8 3d
       0.027303543 0.03310884 -0.034293905 0.09014294
000130 e2 45 1d 3b 1c 03 57 bd 94 7f b9 3d 43 7d 29 3d
       0.0023997952 -0.0524932 0.09057537 0.041379225
000140 20 41 4c 3e 53 39 cb 3d 04 2b b9 bc 4e b1 59 bd
       0.19946718 0.09923043 -0.02260352 -0.053147607
000150 4f f3 96 3d 22 99 f9 3c 54 bf eb 3a fc 53 85 3d
       0.07370626 0.030468527 0.0017986097 0.065101594
000160 81 87 09 3d 51 42 6a 3d 8f 5b 0b 3e 76 2a 47 3d
       0.033576492 0.05719215 0.13609146 0.04862448
000170 aa 4c 2e 3e 94 00 c6 3d b9 5b f9 3a 50 37 70 3a
       0.17021433 0.09668079 0.0019024528 0.00091635156
000180 c8 b6 87 3d e4 46 85 bd 22 da ac 3d 20 b5 6c 3d
       0.0662666 -0.06507662 0.08440043 0.05778992
000190 c3 46 6b be 9f 69 9a 3b b5 6e 8d bd 17 6e a5 b8
       -0.22976212 0.004712298 -0.06905881 -7.888319e-05
0001a0 42 c9 8d bd 5e ce 6e 3c 72 66 be bc 5e 10 47 3d
       -0.069231525 0.014575569 -0.02324221 0.048599593
0001b0 b3 73 89 bd e2 d5 1d 3d c3 8e 48 3c 04 b1 8c bd
       -0.06711521 0.038534053 0.012241068 -0.068697006
0001c0 25 f2 a0 bd 7e 1e f8 bb ea 7a 84 3d e3 11 c3 3d
       -0.078586854 -0.0075719943 0.064687565 0.09524896
0001d0 0d 88 d3 3d b7 a2 fb bc 7c 64 91 3d a3 18 c5 3b
       0.10328684 -0.030717237 0.07099244 0.0060149
0001e0 93 14 98 3d e6 d5 f6 3c a4 dc 81 3c 83 52 a9 3d
       0.07425799 0.030131292 0.01585228 0.08267691
0001f0 8b a3 94 bc f5 27 e0 bc 34 9e ca 3d e1 a8 98 3d
       -0.01814439 -0.027362803 0.09893456 0.07454086
000200 1d 02 1c bc a5 a4 b9 3d 08 47 84 bc 49 f4 8e bd
       -0.009521988 0.090646066 -0.016147152 -0.069801874
000210 a1 b1 ea bc 24 d7 5a bc 85 bb b4 3d 33 a6 9b 3d
       -0.028649153 -0.013356958 0.08824829 0.07600059
000220 1a 3e 3e 3d 53 4c a3 39 23 84 8e bd 8e 94 e1 bb
       0.046445943 0.0003114665 -0.06958797 -0.006884164
000230 63 64 a4 3d 72 d5 2d 3d 3d 1f 6d bc 1c eb 93 3d
       0.0802696 0.042439885 -0.01447278 0.07222578
000240 ff a0 33 3c aa b3 41 be 13 65 2c bb 87 92 e5 bb
       0.010963677 -0.18916193 -0.0026305362 -0.007005993
000250 12 70 52 39 ef 40 57 3c 8a 49 87 3d 94 81 43 3d
       0.0002006891 0.01313804 0.06605823 0.047730997
000260 6e 38 6c bd a8 32 82 bd 5c 4b ad 3d dd 65 a6 3d
       -0.057671003 -0.06357318 0.08461639 0.08124898
000270 52 95 9a 3c 4e a1 76 3c c4 00 26 bd 8d 3e 5c bd
       0.01887003 0.0150531065 -0.040528074 -0.05377059
000280 85 4b e1 3d 39 ea 63 3c 41 de b6 3d 03 37 97 3d
       0.11000732 0.0139108235 0.0892911 0.073835395
000290 08 bf a3 3d 1b bb d3 3b 33 36 c1 3d 1b 66 4c bd
       0.07995421 0.0064615137 0.09434166 -0.049902063
0002a0 f0 dd 5c 3d b7 55 c4 3a 81 71 81 3d bb 07 85 3d
       0.053922594 0.0014979158 0.06320477 0.06495615
0002b0 94 08 3a bd 6e a7 b2 bc 2b cc 8f bd df 52 96 3d
       -0.045418337 -0.021808352 -0.07021364 0.07340025
0002c0 6e cb a7 3d 17 17 1b 3d 6d c6 56 3d 7f c5 88 3c
       0.08193098 0.037863817 0.052435327 0.016695736
0002d0 fc 9d 97 bd 91 3d 26 bd d1 ad fd 3c 42 c3 b3 bd
       -0.0740318 -0.040586058 0.030966671 -0.08777477
0002e0 c7 60 53 3d c6 53 bd 3c 96 5f 2c 3e 56 20 36 3d
       0.051605966 0.023111235 0.16833338 0.04446443
0002f0 f7 97 93 bd a2 b8 80 bd 68 50 82 bd 9e f9 ae 3d
       -0.07206719 -0.06285216 -0.063629925 0.085437045
000300 ce b3 5b bc 1c cf e0 bc 70 33 72 bd c8 29 3f 3d
       -0.013409568 -0.027442507 -0.059131086 0.046670705
000310 33 64 f2 bc 8c 08 52 bb 26 52 96 bd 8a 5e ee bc
       -0.029588794 -0.0032048551 -0.07339887 -0.029097814
000320 c8 34 d5 bc 1b 8d 23 3d 2e dd eb bc 72 09 5a 3c
       -0.026026145 0.03992949 -0.02879199 0.013307916
000330 ae 91 ab 3d 0f 41 bb 3c e1 a3 34 3d 84 68 82 3b
       0.083773956 0.02285817 0.0441016 0.0039797444
000340 d0 8e 11 3e 8c 81 8f 3d 82 2e 3d 3d 31 93 de 3d
       0.14214635 0.07007131 0.04618693 0.10867918
000350 2f b3 b2 3c 84 77 4e 3d 08 d9 5b bd 08 8c 31 3d
       0.021813957 0.050406948 -0.053673774 0.043346435
000360 a0 96 63 3d ca 72 9e 3a 97 d2 e4 3d 48 26 b6 3d
       0.05556357 0.0012088653 0.11172979 0.0889402
000370 a6 3a 26 3d eb 1c 5d 3c 48 2d 7b 3c e0 ac 08 bd
       0.040583275 0.013495664 0.01533062 -0.03336799
000380 43 0a 72 3d 50 3c ab 3c 6d 0d 0b bd 74 68 f5 bc
       0.059091818 0.020902783 -0.03394835 -0.029957034
000390 f1 61 c0 be a4 34 a3 3c d0 36 08 3d 1b 52 b3 3d
       -0.37574723 0.019922562 0.0332554 0.08755895
0003a0 45 09 8a bc 66 6e 1e bd e0 79 01 bd 5f 2e 9a 3d
       -0.016850123 -0.038679503 -0.03161037 0.07528376
0003b0 c0 09 30 3b d6 7e 30 bd 1e 1d 78 3d 2a 8c 40 bd
       0.002686128 -0.04308971 0.060574643 -0.04700867
0003c0 70 b7 36 bd ae 18 a7 3c c8 cc 57 bc d8 01 5c 3d
       -0.044608533 0.02039751 -0.013171382 0.053712696
0003d0 27 9f 77 bc 3f 24 8f bd 09 bc 80 bd a0 63 93 bd
       -0.0151136285 -0.06989335 -0.06285865 -0.07196736
0003e0 4b 69 06 3d e1 2c 9c 3d 9b 43 81 bd 46 79 75 bc
       0.03281526 0.076257475 -0.06311723 -0.014982527
0003f0 5d d8 d5 3b b1 10 84 bd 0c 42 91 bd cd 2e 49 bc
       0.0065260367 -0.06448496 -0.070926756 -0.012279225

layers.4.linear.bias f4 [128]
000000 dd 4a bc 3d c7 5f 19 3d 55 4d 2b bc c5 6d dc 3c
       0.091939665 0.037444856 -0.010455449 0.026907811
000010 f4 4e b9 bd e4 4c 6a bd 3b da 31 3c 65 f5 ae bd
       -0.09048262 -0.057202235 0.010855253 -0.08542899
000020 e8 cb 8f 3d db 4a 72 3d fc 25 a2 3d f4 90 74 bc
       0.07021314 0.05915342 0.07917401 -0.014927138
000030 0d e2 76 bd ef 33 c2 3d 85 f0 8a bd 86 73 2d 3c
       -0.060274173 0.09482562 -0.06784157 0.010586625
000040 6e f4 3d bd 6a 80 9c 3d 34 b9 e7 3c 37 f0 9d bd
       -0.046375684 0.076416805 0.028286554 -0.07711833
000050 78 a8 08 bd a0 66 3b 3d 1c 47 71 3c 02 18 65 3d
       -0.03336379 0.045752168 0.014726426 0.0559311
000060 55 0f 5a ba ce 99 ac bd 4d c7 ae bc 28 d5 f8 bc
       -0.00083183247 -0.084277734 -0.021335268 -0.030375078
000070 8d 5a ae bd e1 be a4 bd 8f ee 56 bd d7 70 3a ba
       -0.08513365 -0.0804422 -0.0524736 -0.00071121514
000080 e6 2e 1a bc ce 94 6d 3d d5 38 51 3d 00 68 b5 3d
       -0.0094105955 0.05800324 0.05107959 0.08857727
000090 a3 28 1a bd e2 98 79 3d ee 85 ca 3d da b3 1f 3d
       -0.03763641 0.060936816 0.09888826 0.03898988
0000a0 61 b6 c1 bc 6c e3 5b 3d f7 f1 16 3d 66 60 82 bd
       -0.023646535 0.053683683 0.03685185 -0.06366043
0000b0 63 2a 73 bd f3 24 8f bd a0 f6 71 bc a5 b3 66 bd
       -0.059366595 -0.069894694 -0.014768273 -0.056323666
0000c0 77 15 68 bd 3e 2c 89 3d 61 34 a8 3c d0 f7 26 bd
       -0.056661095 0.06697892 0.020532789 -0.040763676
0000d0 58 eb c1 bd 6f 68 8f 3d 70 5b 1d 3d 7b 18 c2 3d
       -0.094687164 0.07002341 0.03841728 0.094773255
0000e0 a4 af a1 bd 0e 36 b2 bd bb e7 42 bd 93 c6 5a bd
       -0.07894829 -0.08701716 -0.047584277 -0.05341203
0000f0 aa 8a 2d bd 49 9a 3b bc 5c 6d 99 bd 69 a4 6d 3c
       -0.04236857 -0.011450359 -0.07491562 0.0145045305
000100 42 d8 b3 3d 45 1b 13 3d 62 98 63 bc a8 f4 77 bd
       0.08781482 0.035914678 -0.013891311 -0.060536057
000110 28 ca dd bc e7 82 80 bd ef 67 46 bd 40 64 8b bd
       -0.027073935 -0.06274968 -0.048438963 -0.068062305
000120 d2 85 90 3d 52 69 a9 bc 67 9f 91 3d ce 37 17 bd
       0.07056774 -0.020680103 0.07110482 -0.036918454
000130 7d d4 57 bd f7 09 4a 3c 32 de 1a 3d cc 06 80 bd
       -0.05269288 0.012331477 0.03780956 -0.062512964
000140 b1 c5 30 3d 90 68 6c bc db f3 a7 bd a5 94 38 bd
       0.043157283 -0.0144292265 -0.082008086 -0.045063633
000150 47 b4 a3 bd 3f 19 d2 bc 49 77 8c bd 72 7f 49 bd
       -0.079933695 -0.025646804 -0.06858689 -0.049193807
000160 6a c2 8c 3d c0 d5 ae 3d b7 d6 e5 bb 1b 81 0d bb
       0.06873019 0.08536863 -0.0070141214 -0.0021591845
000170 f1 98 50 3d 16 0f 93 3c 51 d5 0b 3d 4b a6 6f bc
       0.050927106 0.01795153 0.03413898 -0.01462705
000180 13 e1 4a 3d 3b 51 61 3d b8 56 85 bd 71 3f bf 3d
       0.049531054 0.055009108 -0.06510681 0.09338272
000190 18 2f a6 3c ab 5c 05 3d 72 97 24 ba d6 d8 11 3c
       0.020286128 0.03255908 -0.00062786706 0.008901795
0001a0 1e 4e 95 3c 69 6c 83 3d f0 1b a7 3c fe b8 9c bd
       0.018225726 0.06417162 0.020399064 -0.07652472
0001b0 a7 5d 99 bd 46 69 87 bd 23 46 50 bd 0a 43 9a 3c
       -0.07488566 -0.06611876 -0.050848138 0.018830795
0001c0 dc f4 10 3d 36 92 32 bd 41 07 75 3c 35 ff 45 bd
       0.035389766 -0.04359647 0.014955343 -0.048339088
0001d0 b2 ff af 3c 27 32 9c bd ea 98 5f 3c 49 e4 3b bd
       0.02148423 -0.07626753 0.013647297 -0.045872007
0001e0 ca b3 5d 3d 89 94 9d 3d 56 21 4c 3c 04 82 8f bd
       0.05412654 0.076943465 0.01245912 -0.070072204
0001f0 3f 4d 8b bd 63 59 29 bd fd 8c 9d bd 33 21 32 3d
       -0.06801843 -0.04134501 -0.07692907 0.043488692

layers.6.linear.weight f4 [3, 128]
000000 d2 67 b0 3d 0f c7 8d 3d f0 34 41 3d bd 28 8d 3d
       0.08613552 0.06922733 0.047169626 0.06892536
000010 c4 5c fd 3c 4f f9 13 bd ce a5 8c bd 7f 4c c4 3d
       0.030928023 -0.03612643 -0.06867562 0.09584903
000020 70 9e 88 3d 61 d3 8c 3d 91 61 11 3d 6e 92 ea bc
       0.066708446 0.06876255 0.035493437 -0.028634276
000030 7d 36 fa 3c de 00 20 3c 29 1f 0d 3e da 19 60 3d
       0.03054356 0.009765832 0.13781418 0.054712154
000040 07 e2 64 3c 91 0c b4 bc 92 b6 9e 3d 52 95 3c bd
       0.013969905 -0.021978648 0.07749666 -0.04604084
000050 cf 3c 14 bd 6a 31 05 bd dd eb ac be b3 cd 2d bd
       -0.036190804 -0.032517828 -0.337737 -0.0424325
000060 97 f8 4e 3d 18 53 95 be 3c 75 4e bd cc ee 20 3d
       0.050530042 -0.29164958 -0.050404772 0.039290234
000070 53 26 3f bd be b7 86 3b cb 5e b7 3d 57 30 4c bc
       -0.04666741 0.0041112592 0.08953627 -0.012462697
000080 bb 23 93 bd 11 6f 4b bd 91 d6 23 3d 75 e1 79 bd
       -0.071845494 -0.049666468 0.03999955 -0.06100603
000090 bb 50 4b 3d 1b ea 26 bd 76 07 cf 3c ca d9 aa 3d
       0.049637537 -0.040750604 0.025272112 0.08342321
0000a0 d2 4c c0 3c 01 25 70 bb da 5e 62 bd 95 79 ec 3c
       0.02347413 -0.003664315 -0.05526624 0.028866569
0000b0 bf cd 72 3d df c5 f1 3e d5 e9 9c 3b 51 8a 94 bd
       0.059278246 0.47221276 0.004788617 -0.07252944
0000c0 82 10 ca bd 02 c1 af 3d c7 bf b0 3c 6c a9 3e bc
       -0.0986643 0.08581735 0.021575822 -0.011637073
0000d0 e3 c6 82 3b 83 0a 9c 3d ee 5c 70 3c f2 56 0f bd
       0.0039909943 0.076191925 0.014670594 -0.034995027
0000e0 26 a4 cd 3b 93 2a 24 3d 13 1f 63 3d 15 d1 90 bd
       0.0062756715 0.040079664 0.055449557 -0.07071129
0000f0 3e 22 34 3d 11 53 13 bd 2d 8d 28 bd 8d 55 46 bd
       0.04397797 -0.03596789 -0.04115026 -0.04842143
000100 87 0b 97 3d ec 50 06 bd 7b dd b0 bd e5 37 3f 3d
       0.073752455 -0.032792017 -0.08635994 0.046684165
000110 e3 68 1f bb 78 d8 07 3b 99 9f f4 bc b5 2f 16 bd
       -0.0024323992 0.002072839 -0.029861258 -0.03666659
000120 20 e4 81 3d e8 55 a7 3d b2 e6 22 bd 17 4b 1f bc
       0.063423395 0.08170682 -0.03977079 -0.009722493
000130 6c 18 8d bb 1b 0f eb 3c cb 73 5f bd e7 bf ab 3d
       -0.00430589 0.028693726 -0.05455379 0.08386212
000140 24 ba 91 bc 11 4f a6 3d 5a 7c 0f 3e bf 34 3f 3c
       -0.017788954 0.081205495 0.1401228 0.0116702905
000150 e4 54 06 3e 45 6b dd 3b 40 36 97 3d b0 a0 19 3d
       0.1311832 0.0067571723 0.07383394 0.03750676
000160 45 17 46 3d eb a6 89 3c 58 c1 39 3d 1b 48 b6 3d
       0.048362035 0.016803226 0.045350403 0.08900472
000170 79 4e 1f 3e a7 b1 83 3d a0 8a c6 3d 19 1f 6c 3d
       0.15557279 0.06430369 0.09694409 0.057646845
000180 86 8c ce be ad 29 8c bc fa af 07 bd af 8b a9 3d
       -0.40341586 -0.017109716 -0.03312681 0.08278596
000190 1f 69 04 bd 84 37 b5 3d b9 09 c5 be 4d 6a 95 3d
       -0.032326814 0.088484794 -0.3848398 0.07295666
0001a0 3e 2c 5d bc 1d 62 54 bd cc 23 04 3d 1f 69 8d bd
       -0.013499318 -0.05185138 0.0322607 -0.06904816
0001b0 22 d9 ba 3d d9 8c 09 bd 9a 0c a6 bc e4 7e 6d 3d
       0.09123446 -0.03358159 -0.02026968 0.05798234
0001c0 7e 85 92 3d 48 51 4f 3e 62 23 b9 3d 2c b0 e4 3b
       0.07154368 0.2024585 0.09039952 0.006979009
0001d0 24 c0 35 bd 2a d5 a4 bc d6 62 a4 3d 5d 17 68 3d
       -0.044372693 -0.020121176 0.08026664 0.056662906
0001e0 8a 56 3c bd f6 70 6e 3d b5 3e c3 3c d4 4d 16 bc
       -0.045980968 0.058213197 0.023833612 -0.009173829
0001f0 44 bb 5e bd 75 b6 83 bd ef 56 9c bc 13 30 a9 3d
       -0.05437781 -0.06431285 -0.019084422 0.082611226
000200 8e 27 96 3d af 76 2c 3d b7 60 5c 3d 21 7a 58 3c
       0.07331763 0.042105373 0.053803172 0.013212712
000210 f0 7a 3b bd 1e a5 29 bd 9a 60 8c bb 94 8a 37 bd
       -0.04577154 -0.041417234 -0.0042839767 -0.044809893
000220 d3 e9 12 bd fa 3b 1e bd 21 64 de 3c 89 69 62 3d
       -0.035867523 -0.038631417 0.027147355 0.055276427
000230 21 3e 71 bd 91 e0 3d 3d 9b 73 24 3e fd ec 7a bd
       -0.05889714 0.04635674 0.16059725 -0.061261166
000240 60 e0 55 bc 7f 7b a2 bc bc 17 8f 3b fa 54 ae 3d
       -0.013053983 -0.019834278 0.004366843 0.08512302
000250 60 80 a1 bd dc a2 b0 3d 6f 9e b6 be 9a 30 94 bc
       -0.07885814 0.08624813 -0.3566775 -0.018089581
000260 fb b5 d0 3c dd bd 8c be 91 32 25 3d 5b 8d 43 3d
       0.0254774 -0.27488604 0.040331427 0.04774223
000270 6c 8a 35 3d 97 ad 87 3d e5 77 74 bd 82 f0 10 3d
       0.044321463 0.066249065 -0.059684653 0.035385616
000280 87 5e e4 bc c5 ce b8 3d 66 b1 7e bd a2 ee 89 bc
       -0.027877105 0.09023813 -0.0621809 -0.016837422
000290 26 51 86 bd 68 ab 35 bb 4c 88 62 3c 96 10 f0 bc
       -0.065584466 -0.0027720574 0.013826441 -0.029304784
0002a0 2d 09 34 bd a8 e8 f0 bb 4c a8 59 3d 3d 24 09 3d
       -0.043954063 -0.0073519535 0.053139016 0.033481825
0002b0 66 d6 32 3d a5 7c 01 3f 21 ea f5 bc 72 c6 60 3d
       0.043661498 0.5058082 -0.030018868 0.054876752
0002c0 8b fa ba bd 8d b5 74 bd 54 cc f8 3c 16 a1 bd 3d
       -0.091298185 -0.059743453 0.030370869 0.0925924
0002d0 b2 e1 27 bd 6e 5b 39 bd 3e 22 d1 3c a7 ee 08 3d
       -0.040986724 -0.04525321 0.025529023 0.03343072
0002e0 77 b4 83 3d 34 26 90 bd 80 fa 39 bd a7 6b 16 3d
       0.06430905 -0.07038537 -0.04540491 0.03672376
0002f0 d9 cf 2f 3d 48 6f d1 3b 16 59 ba bc 8b 16 32 3d
       0.04292283 0.0063914396 -0.022747558 0.04347853
000300 1b 5f b0 3d 09 e3 f2 3c 00 8b 75 bd 4c c9 7f 3c
       0.0861189 0.029649274 -0.059947014 0.015611958
000310 f5 1f 94 3d 39 4b 59 3d 84 02 73 bd b5 3b 8c 3d
       0.07232658 0.053050254 -0.05932857 0.06847326
000320 f6 50 32 3d cd 6d b0 bc 0a 6a 53 3d cc 82 42 3d
       0.04353424 -0.021536732 0.0516148 0.04748802
000330 a2 67 ff bc ce 01 7e 3d dd f2 0a bc ca 20 82 bd
       -0.031177346 0.06201344 -0.008480755 -0.0635391
000340 5c 1c 3c 3c 13 9d 04 bd 10 40 49 3d e1 e3 48 3d
       0.011481371 -0.03237636 0.04913336 0.049045447
000350 fb 53 d0 3d 0c 87 71 3d 54 0b 58 bc 09 b5 61 bd
       0.10172268 0.05896668 -0.013186295 -0.05510429
000360 d2 31 c9 bc db b8 27 bd 04 ea 28 3d c5 1e 96 bd
       -0.024559889 -0.040947776 0.0412388 -0.073300876
000370 2f 54 5e 3d 30 be cf 3d 8f d2 69 3c 71 87 51 bd
       0.054279502 0.10143697 0.0142713925 -0.051154558
000380 43 99 c0 be 08 55 81 3d a5 90 26 bc fd 14 b6 3c
       -0.3761693 0.063150465 -0.010166322 0.022226805
000390 c9 b7 78 3d 8e 94 1b bb 51 e5 a9 be a6 41 29 bc
       0.060722146 -0.0023739669 -0.33182767 -0.010330593
0003a0 8a c8 41 bd a8 eb 3f bd 46 51 37 3d 4a 07 01 3d
       -0.04731039 -0.0468556 0.044755243 0.031501092
0003b0 b5 eb e1 3c 2e 4d 3e bd d0 89 96 bd 8e db 2e bd
       0.027578214 -0.046460323 -0.073505044 -0.042689852
0003c0 fa 9f b0 3d f9 5c 56 3e db 09 2b bd 45 ff 61 3d
       0.08624263 0.20933904 -0.041757446 0.055175085
0003d0 56 5e 88 3d 87 43 6e 3d 51 4c 9e 3d 4a be 29 bd
       0.06658618 0.058169868 0.077294 -0.04144124
0003e0 31 9a e3 b9 9c ce 46 3d af 0d 16 3d ae 3e c4 3d
       -0.00043411696 0.04853688 0.036634143 0.09582268
0003f0 a2 9c 8e 3c c9 03 13 3d 6d 01 58 3b 37 c8 9a bd
       0.017408673 0.03589228 0.0032959834 -0.07557719

layers.6.linear.bias f4 [3]
000000 80 3b c6 3d 91 8b b4 3d e5 f8 41 3c
       0.096793175 0.08815683 0.011839126
