res/model/new_model.pth (torch, 225876 bytes, 10 tensors)

layers.0.linear.weight f4 [128, 42]
000000 76 7d a7 bd d1 47 cf 3d 1a 44 1e 3e a5 70 7a 3d
       -0.08178227 0.1012112 0.15455666 0.061142582
000010 7c 29 8c bd ec f9 fb bd 8f 4c 15 3e c0 98 87 bd
       -0.0684385 -0.12303528 0.14579986 -0.066209316
000020 f6 e0 01 3e dc 2e f1 3d d3 0d 0e be e8 f2 3b 3c
       0.12683472 0.11776516 -0.13872461 0.011471488
000030 91 40 cb bd a4 e4 e8 3d 9a 77 11 be 86 ef a6 3d
       -0.099244244 0.11371735 -0.1420578 0.08151154
000040 ff d0 04 be bc 91 11 3e 57 25 42 be 2e e1 4b be
       -0.1297035 0.1421575 -0.18959557 -0.19910118
000050 5e ab 8d 3d 7e 35 1a 3e 1d b1 b6 bd 74 d2 12 bd
       0.06917451 0.15059468 -0.089205004 -0.035845235
000060 35 18 16 be 3f 7c 80 bd e2 34 20 bc 21 e5 02 3e
       -0.14657672 -0.06273698 -0.009778233 0.12782718
000070 db 46 67 bd 1d 67 f4 bd f7 c9 77 3c 69 6c c9 3d
       -0.056464057 -0.1193373 0.015123836 0.09835131
000080 a2 35 70 3d d9 9b 2b bd b0 14 03 3d 05 5b bd bd
       0.0586449 -0.041896675 0.03200215 -0.09245876
000090 c2 cc c0 bd 0f 84 22 bc 97 00 9b 3d ca 88 50 bc
       -0.094140545 -0.009919181 0.07568472 -0.012727926
0000a0 55 3d 2b 3d f6 57 4e 3d 13 1f fe bc 06 de c9 bc
       0.041806538 0.050376855 -0.031020677 -0.024642002
0000b0 86 e6 b4 bd 68 79 ca 3c 93 5a 3b 3d 99 dc da bd
       -0.08833031 0.024716094 0.045740675 -0.10686607
0000c0 7a c2 ec 3d 13 80 0f bd ba 93 93 bc c0 8c 02 be
       0.11560531 -0.03503425 -0.018014777 -0.12749004
0000d0 6f c2 8e 3d 58 f7 3f be 35 18 88 bd 2b 46 cc bd
       0.06970679 -0.18746698 -0.06645242 -0.09974321
0000e0 bb 50 bb 3d ed 92 6c 3e c0 36 00 be 38 df 58 3d
       0.091462575 0.23102923 -0.12520885 0.052947253
0000f0 83 b7 71 3d 39 9f 3f bc fb 81 ca bd 76 63 21 be
       0.0590129 -0.0116956765 -0.09888073 -0.15760598
000100 cb ee 60 3e 0e ec 12 be 56 d6 b6 3c 4e 27 6e 3e
       0.21966092 -0.1434786 0.022319 0.23257181
000110 50 58 cf bd 0b 65 53 bb 64 d0 ae bd 14 3c de bd
       -0.10124266 -0.0032256271 -0.08535841 -0.10851303
000120 86 0f b9 3d 51 a8 04 3c 73 cc 3e bd f4 b6 17 bd
       0.09036164 0.00809677 -0.046581697 -0.037039712
000130 e4 a7 ea bc 39 06 5f 3c b4 86 88 3c 00 3e 80 3b
       -0.02864451 0.013612323 0.016665794 0.003913641
000140 82 14 85 3c 73 62 14 3d a5 dd b8 3b e0 e5 34 bc
       0.01624513 0.0362267 0.0056416565 -0.011041135
000150 38 38 22 3d 29 a2 5b 3d e3 27 78 3d 22 36 79 bd
       0.039604396 0.053621445 0.060584914 -0.06084264
000160 68 72 07 bd 2c 37 9e bd 67 b0 0f 3d 47 2f ea bc
       -0.03306809 -0.07725367 0.03508034 -0.028586997
000170 07 3e 43 bd e0 5e fd bd 47 dd 06 3e 0a 0b 28 be
       -0.047666576 -0.123716116 0.13170348 -0.16410461
000180 6c 4d aa 3d 1a 43 9c bd ea 08 2c be 7b 1a 9d bc
       0.08315548 -0.07629986 -0.16800275 -0.019177666
000190 dc f4 3c 3e 6a a2 88 3d db fe f4 bd 51 e6 b7 bc
       0.18452781 0.06671603 -0.11962672 -0.02244869
0001a0 33 f0 f0 bc 37 07 f8 3c b9 e7 d3 3d fb 73 35 3d
       -0.02941141 0.030276878 0.10346932 0.04430006
0001b0 4e cf 9a bd 93 e8 9a 3e 22 e2 1d be f6 64 b1 bd
       -0.075590715 0.30255565 -0.15418294 -0.08661835
0001c0 65 70 32 be c8 2a 3d 3d 41 8f 9d 3b c2 04 43 3c
       -0.17425688 0.046183378 0.004808337 0.01190299
0001d0 56 78 21 3d 87 38 20 bd e8 50 cd 3c ac 0f 1f bd
       0.039421402 -0.03911641 0.025062993 -0.038833305
0001e0 f6 de b2 bb 35 dd da 3b c1 14 44 bc 05 32 0e 3d
       -0.005458708 0.006679202 -0.011967839 0.03471567
0001f0 a6 ba 84 bb c6 79 8c bc fd 47 c8 bd 60 60 57 bd
       -0.0040505705 -0.01714791 -0.09779356 -0.052582145
000200 6a bf 1c 3e bd 1b c0 3d 06 0c 46 3e 4c 5c bc bd
       0.15307394 0.09380291 0.19340524 -0.09197292
000210 4b db 65 bd 30 c2 dc bd f9 82 e3 3c 5c 7c db 3d
       -0.056117337 -0.10779226 0.027772414 0.10717079
000220 fa 79 06 3d 83 72 31 3e 79 cd 9c 3b 14 a6 0a 3e
       0.03283117 0.17328839 0.0047852364 0.13539916
000230 44 ee c6 3d 2b c7 81 3d c1 bc 75 3d 57 a4 e4 3d
       0.09713414 0.063368164 0.059994463 0.11164158
000240 1f f5 f6 3d 97 d8 14 be df 5c 25 be 47 00 59 3c
       0.12058472 -0.14535747 -0.16148709 0.013244695
000250 c6 0a dd 3d 96 94 57 be 4c 56 37 be 9b 7f 36 3e
       0.107930705 -0.21052775 -0.17904013 0.17822115
000260 3e a1 d4 bc e0 d2 f8 3d 6b 7e 01 be a1 e3 1d 3d
       -0.025955793 0.12149596 -0.12645881 0.038547162
000270 8f 8a a5 3d 0e d4 1d be 36 69 d1 3d f1 bf 1e 3e
       0.080830686 -0.15412924 0.102251455 0.15502907
000280 d2 c3 1a 3d b3 6a 53 3d bc c0 8d bc 09 16 cb 3c
       0.037784405 0.05161543 -0.017303817 0.02479078
000290 c3 c6 75 3c aa 9d 89 3d 92 4c a2 3c 7a 2c 74 bc
       0.015001002 0.06719525 0.019811902 -0.014903182
0002a0 e6 31 b3 3d 6d cd 9c 3c f6 4e 1d 3e c0 8d 75 bd
       0.08749752 0.019140923 0.15362152 -0.059949636
0002b0 db 1f 5c bd e2 d4 76 bd 85 ad 05 be af 5c d9 3d
       -0.053741317 -0.060261615 -0.13054474 0.10613381
0002c0 7a 79 d4 3d 58 8c 04 bd a2 16 a0 3d d2 cd 08 3e
       0.10374732 -0.032360405 0.07816817 0.13359764
0002d0 d1 4d d2 bd 49 40 3b 3e 0a 9c 37 bd c0 ee e5 3d
       -0.102687486 0.18286242 -0.044826545 0.112271786
0002e0 7e f0 66 3d 35 65 b7 bd d7 bc 10 3e d3 cc 7b bd
       0.056381695 -0.089548506 0.14134537 -0.061474632
0002f0 29 99 30 bc 45 72 43 bd 05 23 57 bd 02 61 09 be
       -0.010778704 -0.047716398 -0.05252363 -0.13415912
000300 19 a9 1e 3e 36 c4 54 bd 94 1f 82 3d ae 17 5b bd
       0.15494193 -0.051944934 0.06353679 -0.05348938
000310 d5 4e 0d bd b3 a2 fc bc f5 85 72 bd d7 4b 4b 3d
       -0.03449901 -0.0308393 -0.059209783 0.049632873
000320 17 94 1a be f9 d6 d8 3d 59 f7 16 3d 88 95 ba 3d
       -0.15095554 0.10587878 0.036856983 0.09110552
000330 b7 a3 a6 3c 31 4e 4f 3b e0 75 46 3d e5 2d 0e bd
       0.020341737 0.00316323 0.048452258 -0.034711737
000340 c5 5d 82 3d 0d bb 28 bd 54 84 d6 bd cc 4d 11 be
       0.06365541 -0.04119401 -0.10474458 -0.14189833
000350 b4 aa a0 3d 2e ce cc 3d 91 f1 cd 3d 2e b1 4f bd
       0.07845059 0.10000263 0.10055841 -0.05070608
000360 e1 27 6d 3d 23 f5 09 bd e6 68 03 bd 17 53 3b bd
       0.05789936 -0.033681046 -0.03208246 -0.045733538
000370 89 3c dd bd 1c 3e 71 3d a4 3b 9f bd 5f 81 10 3e
       -0.10802562 0.058897123 -0.077750474 0.14111851
000380 51 99 4e be 51 21 29 3e 5b 62 3d be d7 15 98 39
       -0.20175673 0.16516615 -0.18494551 0.0002900797
000390 88 cf db bd db a8 99 bd 98 8f 11 3e 66 45 07 3e
       -0.10732943 -0.0750291 0.14214933 0.13210067
0003a0 62 d4 3f 3d ef c7 9a 3d 16 7f ba 3d 17 a6 97 bd
       0.046833403 0.075576656 0.09106271 -0.07404726
0003b0 f3 d2 69 bd 60 d3 11 3d 8e 2f 18 3d 8a 2d 82 3d
       -0.057085942 0.035601974 0.037154727 0.06356342
0003c0 45 a7 28 3d 24 66 78 3d 83 3c 94 3d eb 23 08 3e
       0.041175146 0.060644284 0.07238104 0.13294952
0003d0 61 c4 c9 bc 4d 10 c8 3c 71 ed 11 3d c2 b3 2f 3e
       -0.024629774 0.024421835 0.035626832 0.17158416
0003e0 53 cf fd 3c 38 0e 9e bd 36 ea 9d ba a0 c3 06 3d
       0.030982649 -0.07717556 -0.001204795 0.032901406
0003f0 3c fb 46 bd d1 ff a2 3d d3 fa 39 3c c8 c8 cb 3d
       -0.04857944 0.07958949 0.011351305 0.09950405

layers.0.linear.bias f4 [128]
000000 fb 64 16 3b 78 e6 d6 bc 0e e3 0a 3a 3a 5d 88 3d
       0.0022948373 -0.026232943 0.0005298116 0.066584066
000010 55 34 f2 bc 66 ed 8f 3c d9 62 ae 3d ac 20 a5 3c
       -0.02956597 0.017569255 0.085149474 0.02015718
000020 66 77 08 3d d4 e2 40 3d 00 39 e3 bd 39 44 10 be
       0.033316992 0.04709132 -0.11094856 -0.14088525
000030 65 01 29 be 7b 00 83 bc b0 9b f8 bc 42 43 d5 3d
       -0.16504438 -0.01599144 -0.030347675 0.10413219
000040 c2 06 13 be dd 2b 45 3c 7c dd 0f 3e 14 70 43 bd
       -0.14358047 0.012034384 0.14049333 -0.047714308
000050 81 18 2e 3d 69 3e e1 3d 58 e0 07 be 6e 1a 5a 3d
       0.042503837 0.10998232 -0.13269174 0.05324786
000060 a7 fa 1d 3e 7a c0 b7 3d 67 ce 08 3c 62 13 ca bd
       0.15427648 0.08972259 0.008349991 -0.09866978
000070 22 88 c4 bd 65 c4 54 bc 6c 5e 12 bd fe 98 86 3c
       -0.09596278 -0.012986277 -0.03573458 0.016430374
000080 e2 8b 86 bd fd a7 09 be 79 b5 b9 3d 53 02 a3 3b
       -0.06569649 -0.13442989 0.09067816 0.0049746423
000090 1d 50 f8 bd ce c3 07 3d 3f 74 23 3e c4 d4 95 3d
       -0.121246554 0.03314572 0.15962313 0.073159724
0000a0 87 14 ca 3c c5 f5 05 3e 8a 9c a8 bd b4 8a 8f 3d
       0.024667991 0.13082035 -0.082329825 0.070088774
0000b0 39 8d 21 3e 8a 0e 68 3d cb 13 b9 3c d0 df eb 3d
       0.15776528 0.05665449 0.022592446 0.11517298
0000c0 af 67 d3 bd e1 39 bc bd df 78 e9 bd e9 ca 5c 3d
       -0.103225105 -0.09190727 -0.114000075 0.053904448
0000d0 10 61 3b bd 10 40 e1 bd 63 ab de bc 60 89 cd bc
       -0.045746863 -0.10998547 -0.027181333 -0.02508992
0000e0 7f 67 af bd e5 d2 c5 bd 09 8f f0 bd 4f 1b b3 3d
       -0.08564662 -0.096593656 -0.11746032 0.08745443
0000f0 20 9a f9 bd a1 38 2d 3d 2d 57 00 be e8 c8 a8 bd
       -0.121876 0.042290334 -0.12533255 -0.08241445
000100 75 7c 62 3c c5 44 b5 bd 6c 2a 1b be 9f 6d 11 3e
       0.013823618 -0.08851007 -0.15152901 0.14201973
000110 b8 86 f3 bc f1 30 6e 3d 3b 2c c5 3d eb cd 6f bd
       -0.029727325 0.058152143 0.09627577 -0.058545988
000120 29 91 b4 3a 86 7f 7b bc 91 09 b3 bd a4 f9 b0 3d
       0.0013776171 -0.015350228 -0.08742059 0.08641365
000130 2a 22 d9 bd fa 0c 00 bd 4f 34 15 be 01 68 80 3b
       -0.106022194 -0.031262375 -0.14570735 0.003918648
000140 0d 6a 22 3d 5d d7 01 be b1 66 c7 bd d1 0e 7c 3d
       0.03965192 -0.12679811 -0.09736384 0.061537568
000150 02 fb f6 3d 17 bf ba bd 54 a5 0f 3e 9e e1 01 bd
       0.12059595 -0.09118479 0.14027911 -0.031709306
000160 25 7c 5e 3d 34 30 09 bd d5 54 bb 3d 4b 39 88 bd
       0.054317612 -0.033493236 0.0914704 -0.06651553
000170 1d 7b 96 bc c5 2d 0d bd 35 39 2c bd 88 8f 15 bd
       -0.018369252 -0.034467477 -0.042046744 -0.036513835
000180 36 df 90 bd 97 31 29 be 91 e0 16 3e 8e ea d4 bd
       -0.07073824 -0.16522823 0.14734103 -0.103963
000190 4c 21 0f be 84 1c ae 3d e1 7c dd 3d 74 70 6a 3b
       -0.13977545 0.08501533 0.108148344 0.0035772594
0001a0 5b 89 f8 bd 9a 7e e5 bc a1 ae 2e 3d df 3a 9f bc
       -0.121355735 -0.02801447 0.042647008 -0.019437252
0001b0 63 88 85 bd 40 3d 73 bd f2 f9 6f bd 70 9b df 3d
       -0.06520154 -0.059384584 -0.058587976 0.10918319
0001c0 48 af db 3d 6f ce 92 3d 20 bc ca 3c b7 6d ab bd
       0.107267916 0.0716828 0.024747908 -0.08370536
0001d0 4b 83 aa 3d e7 e1 fc 3d aa f8 bc 3d b1 b9 25 be
       0.083258234 0.12347775 0.092271164 -0.16184117
0001e0 c7 16 13 bd c6 04 fa bd 10 3d 54 3d db a0 78 3d
       -0.035910394 -0.12207942 0.051816046 0.06070028
0001f0 ae 76 08 bd 09 2d d0 3d 0c de a9 bd f3 0b 97 3d
       -0.033316307 0.1016484 -0.08294305 0.07375326

layers.2.linear.weight f4 [128, 128]
000000 41 07 8f 3d 7a 8e af bd 57 11 04 3c be fa 46 bc
       0.069838054 -0.08572097 0.008060775 -0.0121447425
000010 ec 39 9c bd 2e c3 8a 3d 83 36 e4 bc 0b 17 4b bd
       -0.07628235 0.06775509 -0.027858024 -0.049582522
000020 0c bd 9e bd b8 4d 30 bd 97 13 78 bd f0 03 71 bd
       -0.077509016 -0.04304287 -0.060565557 -0.058841646
000030 41 86 83 bc d8 aa bd 3c e4 8f 8b 3c 82 57 00 bd
       -0.016055228 0.023152754 0.017036386 -0.031333454
000040 b4 24 ad bd 39 2b 69 bc 22 6c 11 3d a3 ab 65 bd
       -0.08454266 -0.0142314965 0.035503514 -0.05607189
000050 27 c7 51 bd dc 15 98 3b b0 f6 f4 bd 43 9b 70 3d
       -0.051215317 0.0046412777 -0.119611144 0.05874182
000060 d7 d9 b9 3d 9f 7d 5f 3d 7c 52 0f bd 0f 20 1b 3a
       0.09074753 0.05456316 -0.034990773 0.0005917558
000070 b2 b6 11 bd 78 57 bf 3c 8e cf 83 3d 3f 37 9a 3d
       -0.035574622 0.023357138 0.06436072 0.075300686
000080 36 4c b4 3c be 34 43 bc 6a 9b 4c bd cb 63 f8 bc
       0.022008996 -0.01191443 -0.049952902 -0.030321022
000090 d8 23 c5 bd 29 f0 34 bd af 95 07 bd 80 30 8e 3d
       -0.09625977 -0.044174347 -0.033101734 0.069428444
0000a0 a2 e3 4c 3c f1 1e 12 bc d8 64 01 bd f2 2c 45 bd
       0.012505444 -0.00891851 -0.031590313 -0.048138566
0000b0 81 e2 11 bd f9 17 e2 bc f8 c7 28 3c 86 b3 78 bd
       -0.0356164 -0.027599322 0.0103015825 -0.060718082
0000c0 61 c7 c7 bb 3e 79 b0 bd 76 df f4 bc de 15 3e bb
       -0.006096766 -0.08616875 -0.02989171 -0.0029004733
0000d0 9f 07 f9 3c dd a1 c4 3c 69 0a 93 3d c5 e6 ce 3b
       0.030399142 0.024002964 0.0717972 0.006314131
0000e0 de 3a 8d bd 4b 7b b3 bd 63 99 f2 bc 29 c8 38 3c
       -0.06895994 -0.08763751 -0.029614156 0.011278191
0000f0 cb d8 01 bc 39 de 63 bd 62 d7 90 3d 0f 5e d8 3c
       -0.007925223 -0.05563185 0.07072331 0.026412038
000100 58 91 a7 3c a0 99 47 3c 99 96 e6 3c 3d ab 84 bd
       0.020455047 0.012182623 0.028147982 -0.064779736
000110 4d b0 10 3a 5b ad b6 bb cb 6b 52 3d 83 1b 53 bd
       0.0005519435 -0.005574865 0.05137233 -0.05153991
000120 ac 76 b6 bc 47 d3 d6 bc 26 08 9c 3d 79 f7 a6 3d
       -0.022273384 -0.026223792 0.07618742 0.081526704
000130 09 4d 3d 3e 45 f0 a1 3c 56 9e 04 3b 08 5e e9 3c
       0.18486418 0.01976789 0.0020235977 0.02848722
000140 ff 6e bf 3b 04 63 40 3c e7 db c7 3d fc 29 89 bc
       0.005842089 0.011742357 0.0975874 -0.016743653
000150 8b 0e a1 bc b4 a9 43 bc 12 18 02 bd fe 98 a7 bd
       -0.019660255 -0.011942316 -0.031761236 -0.08183478
000160 5a 0c 79 bd dc 9a c8 bd 83 9e 91 3c 2a 77 af bd
       -0.060802795 -0.09795162 0.01777578 -0.085676506
000170 6b 55 9e 3b c8 c7 94 bc c8 66 74 bc a1 8f 56 3c
       0.00483196 -0.01816167 -0.014917083 0.013095767
000180 b8 ed 7c 3d 8c 0c c4 3d 36 fc 91 bd 71 3e 88 bd
       0.061750144 0.095727056 -0.071281835 -0.06652535
000190 bd 35 af bc d8 85 a5 3d f2 0f fb bc 0a 26 24 bd
       -0.02138793 0.08082169 -0.030647252 -0.04007534
0001a0 86 c1 32 3d d2 30 78 3c ac 4c bf 3d d3 7b fc 39
       0.04364159 0.015148358 0.09340796 0.00048157442
0001b0 99 6e a4 3d 03 c2 2e bd 6f 91 19 be a2 70 9c 3c
       0.08028907 -0.042665493 -0.14996885 0.019096676
0001c0 17 94 79 bd 36 1f 54 3d 9f 8a 9d bc b3 b1 47 3d
       -0.060932245 0.051787578 -0.019231139 0.04875345
0001d0 16 09 21 bd 85 10 99 3a 7d c4 49 bc 7d 70 aa 3c
       -0.039315306 0.0011677897 -0.012314913 0.020805592
0001e0 f3 07 46 3c 49 09 56 bd 61 e1 21 bd 0c 2a 82 3c
       0.012086856 -0.05225495 -0.03952158 0.01588919
0001f0 09 a0 89 bc 80 28 51 bd 0d 0b 73 3d 73 32 93 3d
       -0.016799944 -0.051064014 0.05933671 0.07187357
000200 3c 84 cf 3d 07 65 e8 3c 7c 90 b9 bc a8 8b 8c 3b
       0.101326436 0.028368486 -0.022651903 0.0042891093
000210 92 ec 0d bd ab 6c bd 3b d8 b6 90 bd 9d 5f 89 3d
       -0.03464944 0.0057807765 -0.07066125 0.0670769
000220 59 b7 c6 3c 36 d6 b2 3c e4 1a 62 bd a1 a9 50 bd
       0.024257349 0.02183066 -0.055201426 -0.05094302
000230 cc 0d ef ba 45 d7 a8 3d 92 6f b2 3c c8 a1 e9 bc
       -0.0018238365 0.082441844 0.021781716 -0.028519526
000240 97 4f 49 bd 8f 46 72 3c f5 be 11 bc c5 22 b3 3d
       -0.04914817 0.01478733 -0.008895625 0.08746866
000250 c7 f1 8e bd 5d 82 53 bd b0 67 11 bc f7 c4 34 bb
       -0.06979709 -0.051637996 -0.008874819 -0.002758322
000260 71 78 c3 3c 84 ac 66 bd 4a 41 71 bd aa a7 a8 bc
       0.023861142 -0.056316867 -0.058900155 -0.020587761
000270 8a a6 19 3d 52 4f 67 bd 24 2b a3 bc 19 35 b7 3d
       0.03751234 -0.05647213 -0.019918032 0.089456744
000280 ba aa 91 3d 23 6f 13 bd 2a 54 31 3d 09 01 81 bd
       0.07112642 -0.03599466 0.043293156 -0.062990256
000290 20 de b4 3c 08 a6 5b 3d dc 4a 5c 3c a7 68 c1 3c
       0.022078574 0.053625137 0.013445582 0.023609472
0002a0 67 70 8f 3d c9 4e 89 bd 0c d7 cc 3d a2 fd 83 bd
       0.07003861 -0.0670448 0.100019544 -0.06444861
0002b0 b7 b8 95 3d 3e a2 61 bd 43 0b 69 bd f8 e7 4e bd
       0.07310622 -0.055086367 -0.056895506 -0.05051419
0002c0 ba af c6 3d 58 ca 42 3a b1 f7 e5 3b 80 6f 22 bd
       0.09701486 0.0007430664 0.0070180525 -0.039657116
0002d0 bb bb 1b 3d 44 b8 43 bd 3c d3 c1 3d 6d c0 87 3d
       0.03802083 -0.04778315 0.09464118 0.06628499
0002e0 17 30 93 3d 52 f5 7d 3d 70 f5 2f 3c 61 32 b8 3d
       0.07186907 0.062001534 0.010739669 0.08993984
0002f0 6e 92 c8 3b 6d 01 27 bc a5 e6 a1 3d ea d3 2e 3d
       0.0061209714 -0.010193211 0.0790532 0.042682566
000300 1f 52 de bc 22 8c 64 bd a6 5c 13 3b c1 9b 2d bb
       -0.027138768 -0.055797704 0.0022485643 -0.0026490542
000310 f7 7f cb 3b a5 95 33 bd b9 91 6c bc 56 2d 2a 3b
       0.006210323 -0.043843884 -0.01443904 0.0025966964
000320 b6 ac 15 bc 8a 54 b2 3c 1d 59 d7 3d ea 43 a3 bd
       -0.009135416 0.021768827 0.10515044 -0.07971938
000330 77 eb 58 3d b1 58 b6 3d af 39 8f 3d 3c ca 9a 3d
       0.05295893 0.08903635 0.06993424 0.075581044
000340 11 a5 86 bd 86 6c 08 3c 9e 92 53 bd 73 d5 d0 3d
       -0.06574453 0.008326655 -0.051653497 0.10196962
000350 74 77 50 bc 32 37 89 3c 5a 14 06 bd ea 30 ad 3d
       -0.012723792 0.016749952 -0.032734253 0.08456595
000360 57 9f 9a bc 0e d4 7c 3c 91 96 90 bb e4 17 1e bc
       -0.018874807 0.015431417 -0.00441248 -0.009649251
000370 0d 47 b0 3d 10 87 15 3d 7f 5d b0 bd eb 20 9b 3d
       0.08607302 0.03650576 -0.08611583 0.07574638
000380 ef d9 df 3b 51 49 0c 3e 77 15 53 bd 63 d4 d0 3d
       0.0068313996 0.13699843 -0.051534142 0.101967596
000390 5d dc 9c 3c 8b d4 bb 3d 64 20 d7 3d ad 90 1b bd
       0.019148046 0.09171399 0.10504225 -0.03797977
0003a0 c5 24 83 bc a4 89 91 bd 02 4a 4f 3d 03 cf a3 bc
       -0.016008744 -0.07106331 0.05060769 -0.019996172
0003b0 9b 01 d3 3c 03 ae 15 3d e1 77 92 bd 72 89 60 bc
       0.025757601 0.036542904 -0.07151771 -0.0137046445
0003c0 2c 92 38 bc d4 fb a2 3c 8c 5c d3 3d 19 33 4d 3d
       -0.011265319 0.019895472 0.10320386 0.05009756
0003d0 16 dc 8c 3d 18 a6 f0 bc 31 e8 86 3d 5a c9 96 3d
       0.068779156 -0.029376075 0.06587256 0.073626235
0003e0 a0 66 78 3d 07 67 15 3d 72 8e 5f 3d f0 6f 59 3b
       0.060644746 0.036475208 0.054579206 0.0033178292
0003f0 6e 52 26 bd 3f 38 a0 bc e5 fc da bc d4 c2 96 bd
       -0.040605955 -0.01955807 -0.026731918 -0.07361379

layers.2.linear.bias f4 [128]
000000 33 e2 bb 3d 64 07 8e 3d 2c 5e 64 bd 52 d3 a8 bd
       0.091740035 0.069350034 -0.05575387 -0.08243431
000010 07 1a 7f bd 90 b2 0c bd cc 9d f1 3b 44 de a1 bd
       -0.06228068 -0.034349978 0.007373547 -0.07903722
000020 ca ac 54 bd 9d a1 61 bd f3 5a fe bc a1 95 48 bd
       -0.051922597 -0.055085767 -0.031049227 -0.048970822
000030 1e db 0f 3d 1f a4 7c 3d 19 b1 18 3d da 92 18 bc
       0.035121076 0.061679956 0.03727827 -0.009312356
000040 61 ef 37 3d b8 0b d6 bc 12 d5 3c bd ef 35 30 3d
       0.044906024 -0.026128635 -0.046101637 0.043020185
000050 94 79 4a bd 2a 20 9a bd f9 dd 98 bd aa 21 63 bd
       -0.049432352 -0.07525666 -0.07464213 -0.055452026
000060 16 27 54 3d 7b ea 5d 3d 6c bd a5 bd 80 c4 22 bd
       0.051795088 0.054178696 -0.0809277 -0.03973818
000070 83 95 e6 bb ee 78 63 3c 2e 49 d3 3c 66 36 5a 3d
       -0.007036866 0.013883812 0.02579173 0.053274535
000080 c9 5a 3b bd d3 61 8a bd ee 8e 0e bd 5e 82 43 bd
       -0.045740876 -0.0675694 -0.034804277 -0.04773175
000090 8d 1b 78 3d fc 28 df bc dd c5 85 bc ba eb a0 3c
       0.06057315 -0.027241223 -0.0163297 0.019643653
0000a0 ae 15 e5 bc 27 28 83 bd b0 0a f9 3a 3f 93 9b bd
       -0.02796444 -0.06404143 0.0019000378 -0.07596444
0000b0 02 56 b8 3d 56 5c 9a bd fc 80 aa 3d f6 d3 91 3d
       0.0900078 -0.07537143 0.08325383 0.071205065
0000c0 24 9f 14 bc ce 45 73 3d c8 12 c2 3d 84 22 ea bc
       -0.009071145 0.059392743 0.094762385 -0.028580911
0000d0 ad 9c 33 bd df 21 72 3c 99 57 a7 bd 06 66 8f 3d
       -0.04385059 0.014778583 -0.08171005 0.07001881
0000e0 36 b5 a4 bd cf 0c 4c 3b c2 99 20 bd 44 e8 03 be
       -0.08042376 0.0031135564 -0.039209135 -0.12881571
0000f0 e0 e6 ba 3d 67 71 82 bd 95 a3 9f bd a8 a4 ad bd
       0.09126067 -0.06369286 -0.07794873 -0.08478671
000100 63 1b 0f 3d cb aa 65 3d 8f 99 9e bd 7a 41 c7 ba
       0.034938227 0.056071084 -0.07744133 -0.0015202009
000110 d5 62 7a bd 96 b5 78 3d 7e 31 93 3d e3 02 a8 bd
       -0.06112941 0.06072005 0.07187174 -0.082036756
000120 33 be 80 bb fa 24 15 3d ee ee 2c bc 7b 2d 95 bd
       -0.0039289235 0.036412217 -0.010555012 -0.07284065
000130 09 35 c6 bd 87 d3 8d bd fb 2e a8 3d 9b 68 e9 bc
       -0.096780844 -0.06925111 0.08212086 -0.028492263
000140 86 fc 80 bc 77 d2 67 3d ba b7 b3 bd 93 ea 87 3d
       -0.015745413 0.0565972 -0.087752774 0.06636538
000150 50 a6 b3 bc 0f 38 69 3d 8e 82 a7 bd 6a 2f d7 bc
       -0.02192989 0.056938227 -0.08179198 -0.026267726
000160 f7 76 8b bd 08 bc 64 3d b6 56 38 ba 37 29 90 3d
       -0.068098 0.055843383 -0.0007031964 0.07039111
000170 64 8e 69 3b 50 ca 5e bd ba c8 3f 3d 0f 3f b1 3d
       0.003563785 -0.05439216 0.046822287 0.086546056
000180 9a 01 c1 bd 95 7c 12 3c 95 a3 19 bd 17 e7 2e 3d
       -0.094241336 0.0089408355 -0.03750952 0.042700853
000190 6d ac 15 bb cd 0e e5 3c 97 66 0e 3d 4a e9 97 bd
       -0.002283837 0.02796116 0.034765806 -0.07417543
0001a0 cf a2 cb 3c ae ad 97 3d 4c ac 7f bd f2 07 9a 3d
       0.024857907 0.07406174 -0.062420174 0.07521047
0001b0 28 f0 c6 bd b5 f5 55 3c f4 fd de bc 9b 36 c3 3b
       -0.09713775 0.013059069 -0.027220704 0.005957437
0001c0 d4 9e 05 3d ac 8b d7 bb 02 d3 72 bd f2 3d 9f bd
       0.032622173 -0.0065779295 -0.059283264 -0.07775487
0001d0 19 5c a3 bd c6 75 7a 3d 5c f6 99 3d ae b3 62 3d
       -0.079765506 0.061147474 0.075176924 0.055347137
0001e0 af 5c 42 bd 0a 4b 00 be ce 40 86 3d 0e 39 89 bc
       -0.04745167 -0.12528625 0.06555329 -0.016750839
0001f0 1c 73 a8 3d b5 cd 8d bd 31 fe a2 3d d9 58 0b bd
       0.0822508 -0.06924001 0.079586394 -0.03402028

layers.4.linear.weight f4 [128, 128]
000000 f0 fa 29 bd 5c 4e dc 3c 76 c7 04 bd 27 97 bd bd
       -0.04149908 0.026892833 -0.032416783 -0.09257346
000010 6b fd 33 bd 55 7f d0 3c 91 5f a6 bd 68 ae 5b 3d
       -0.04394285 0.025451342 -0.081236966 0.053633124
000020 4b 3b af 3d d4 47 6e bc cc 11 9e ba 65 82 6a bd
       0.08556231 -0.014543492 -0.0012059747 -0.05725326
000030 18 d2 81 bd 67 c0 83 bc 34 c2 87 3d 37 aa 9b bd
       -0.063389 -0.016082956 0.06628838 -0.07600825
000040 c2 d5 a2 bd bc 82 f8 bb 9a 41 7b bd ad 03 e9 bc
       -0.07950927 -0.007583944 -0.06134186 -0.028444136
000050 45 70 59 3d c1 6a 97 bc 89 12 31 bd 8b 8d ac bc
       0.053085584 -0.018483521 -0.043230567 -0.021063587
000060 73 0f 87 bc 5f 3a 17 bd 58 b0 82 3d a7 e8 5b 3c
       -0.016486859 -0.0369209 0.06381291 0.013422168
000070 b1 c0 b6 3c 45 d0 9c bd 5b fa a3 bd be 4f 18 bd
       0.02230868 -0.07656912 -0.08006736 -0.037185423
000080 7d bf 2a bd 82 6f 5d bd 9f 53 30 bd 55 e7 af bd
       -0.041686524 -0.05406142 -0.043048497 -0.08589045
000090 91 9f f2 3a ca 62 8b bd c0 d7 95 3d cf 76 5e 3a
       0.0018510689 -0.06805952 0.07316542 0.0008486332
0000a0 c1 b5 3d 3d 50 73 8e 3c 6b 3f 49 3d 5d ca 46 3d
       0.046315912 0.01738897 0.049132746 0.048532832
0000b0 b6 2d 5a bb 3c c9 17 bd 6b 44 3b bd 27 90 3d 3c
       -0.0033291406 -0.037057146 -0.045719545 0.011570013
0000c0 89 44 ac bb bd b2 16 3d 26 f5 3c bc 04 48 a2 bd
       -0.0052571935 0.03679155 -0.011533057 -0.07923892
0000d0 e0 f0 d7 bc d5 fd 17 3d a6 6f c0 bc dd 9d aa 3c
       -0.026359975 0.037107307 -0.023490738 0.020827228
0000e0 50 f6 91 ba ef ec 88 3b 07 7f 85 3d 14 3f 96 3c
       -0.0011136029 0.0041786353 0.06518369 0.018340625
0000f0 81 58 09 3d 12 98 3b bd 8d 38 38 3d 45 f6 3a bc
       0.03353167 -0.045799322 0.044975806 -0.011411254
000100 bc 3f f7 bc 86 48 43 bd 02 dc 1e 3d 35 03 a0 3d
       -0.030181758 -0.047676586 0.038784035 0.07813112
000110 9a 94 b0 bd d3 f2 5a bd cb 6c 13 3d 2a f8 a0 bc
       -0.086220935 -0.05345423 0.035992425 -0.019649584
000120 c7 05 95 3d 57 b3 08 bc 37 b0 a9 bc 93 9a 52 3d
       0.072764926 -0.008343539 -0.020713909 0.051416945
000130 6b c0 80 3a 86 7f 9d bc a2 bd a2 3d a6 9f 8e bd
       0.000982297 -0.019225847 0.07946326 -0.06964044
000140 a7 e1 72 3c 4e 65 c3 3b 2f c1 2f 3d 81 19 b7 3c
       0.0148243075 0.005963004 0.042908844 0.022351028
000150 d3 3d 6c 3c 7e 42 a5 bc a4 3b 0b bc db a8 99 3d
       0.014419037 -0.020173308 -0.008498106 0.0750291
000160 9e 86 18 3d 14 72 8e 3d 52 28 02 3d b5 93 22 3d
       0.037237756 0.069553524 0.031776734 0.039691646
000170 2a ce a2 bd bf 38 64 3d 11 fe a9 3d 60 16 98 3d
       -0.07949479 0.05571818 0.083004124 0.07426143
000180 08 66 b5 bd 59 1a 31 bb c1 13 70 bd e7 ec ab bd
       -0.088573515 -0.002702376 -0.05861259 -0.08394795
000190 8f d2 4c 3d e1 03 9f bc 5b 3e c7 3c 52 74 8b bd
       0.05000549 -0.01941103 0.024321726 -0.06809296
0001a0 8b 37 e8 bb fd 79 99 bd 29 51 72 bd 30 e9 b3 bc
       -0.0070866994 -0.074939705 -0.05915943 -0.021961778
0001b0 4c cd 93 3d 57 ab 46 3d 4d df ec bc 87 9a 6a 3d
       0.07216892 0.048503246 -0.028915072 0.057276275
0001c0 f3 ce ab 3c 13 1c 67 3d 3d 24 65 bd 8a d2 bc bc
       0.020972705 0.056423258 -0.055942763 -0.023049612
0001d0 67 d4 1d bc d5 27 98 3d dd 13 81 bd c0 05 9b bd
       -0.00963316 0.07429472 -0.06302617 -0.07569456
0001e0 db 83 97 3c 6e 43 21 3d 03 81 2d 3c 7d af bb bb
       0.01849549 0.039370947 0.010589841 -0.005727707
0001f0 e7 8e 34 bc b1 8c 23 bd 24 69 6f bd ea 1c 8f bd
       -0.011020399 -0.039929096 -0.05844988 -0.06987937
000200 c3 01 a8 3c b5 08 c0 bd ef 38 cb bd 89 90 75 bd
       0.020508653 -0.09376661 -0.099229686 -0.059952293
000210 97 48 44 bd af 80 51 bc 66 3c 51 bd 88 2b 1b bd
       -0.04792079 -0.012787028 -0.05108299 -0.03788331
000220 51 ee dd bc 82 38 5a bd 8f 6e 52 3d 16 e5 37 bd
       -0.027091177 -0.053276546 0.05137497 -0.044896208
000230 34 fb cc 3b 58 56 29 3c ca 9f 8e 3d 72 9b a0 3c
       0.0062555317 0.010335527 0.06964071 0.019605372
000240 84 d2 9c 3c 61 b4 91 bd 2d fe 66 3c 73 fc 62 bd
       0.01914335 -0.07114483 0.014098686 -0.055416536
000250 00 4d 86 bd bc 10 61 bd 3d f2 84 3d f7 44 b9 bd
       -0.06557655 -0.0549476 0.06491516 -0.09046357
000260 a8 d5 c2 bd df 18 0c bc 02 7c a3 bc 8a 18 16 3c
       -0.09513408 -0.008550852 -0.019956592 0.009161124
000270 a2 60 99 bd b3 51 c9 bc e7 96 0e 3d 2e c4 25 bd
       -0.07489134 -0.02457509 0.03481188 -0.040470295
000280 94 54 b3 bc 27 39 d1 bd 98 78 1b bd 90 52 8f 3b
       -0.021890916 -0.10215979 -0.037956804 0.004373856
000290 47 9d 50 3d 22 9c 10 bd 9a be 6c 3d c5 26 47 3d
       0.05093124 -0.03530515 0.05779896 0.048620958
0002a0 2d 1d 5c bd b9 04 79 3c 74 78 81 3d 15 60 13 bd
       -0.05373876 0.01519888 0.06321803 -0.035980303
0002b0 cf 36 04 3d 25 c4 65 bd 22 d2 97 bb 7f dc 85 bd
       0.032278832 -0.05609526 -0.004633204 -0.06536197
0002c0 0f c9 b1 bd 28 d6 3b bd 78 0b 7b 3d a0 bf 1a bd
       -0.08680927 -0.045858532 0.061290234 -0.037780404
0002d0 29 bc 80 bd 67 dd e0 bc 66 82 1c 3d 0f 57 04 bd
       -0.06285889 -0.027449323 0.038210295 -0.032309588
0002e0 0a e0 c7 bc 29 cd ae bd d3 30 b3 bd 61 90 97 3c
       -0.024398822 -0.08535225 -0.08749547 0.018501462
0002f0 0c 9b 6d bd 88 b9 62 bd 5e 76 b4 bd c2 ff 00 3b
       -0.058009192 -0.055352718 -0.08811639 0.0019683694
000300 44 2e 94 bd 2d 14 e2 3c 0b 2a 95 3c 00 1c 06 bd
       -0.07235387 0.027597511 0.018208524 -0.032741547
000310 c5 44 96 3c 3d cf 93 3d 00 a8 91 3d e4 74 bc bd
       0.018343339 0.07217262 0.071121216 -0.092019826
000320 2e 5e dd 3b 37 cd 73 3d 8a 28 97 3c 90 47 ab 3c
       0.006755612 0.05952188 0.018451948 0.020908147
000330 9f b5 9a 3d 63 03 3f 3c d0 0f b7 bb 68 30 4b 3d
       0.07554173 0.011658522 -0.005586602 0.04960671
000340 65 b7 7f bd 68 24 91 3c 44 2c 79 bd 1d 5b 42 3d
       -0.062430758 0.017717555 -0.06083323 0.047450174
000350 04 75 8d bd 18 39 4a bd 73 f5 be 3c 77 4b a3 bd
       -0.069070846 -0.049370855 0.023310399 -0.07973378
000360 34 25 c5 bc 2f 8a 2e 3c 42 5b d9 bc 4e 27 79 3c
       -0.024065591 0.010653063 -0.026532773 0.015207125
000370 1f c1 a8 3c 67 92 02 bd 80 f5 9a bd c7 3f c0 bd
       0.0205999 -0.0318779 -0.07566357 -0.093871646
000380 e0 02 98 3d 6b 32 58 bd 1a a6 db bc 55 7c 68 bd
       0.07422423 -0.052782457 -0.026812602 -0.056759197
000390 ec b0 3c 3d ee 67 96 3c 71 71 41 3d a4 1e 57 bc
       0.046067163 0.018360104 0.047227327 -0.013129864
0003a0 93 3e 84 bd fb b5 33 3c 76 93 45 bd 2c c4 11 3c
       -0.064572476 0.0109686805 -0.048236333 0.008896869
0003b0 4c 64 35 3c d9 c3 2f 3c 06 ae b6 bd 88 df af 3b
       0.011071276 0.010727846 -0.08919911 0.005367223
0003c0 4f cb ee bc 53 71 9a bc e3 96 c1 bd 83 5a a3 3c
       -0.02914968 -0.018852865 -0.094526075 0.01994062
0003d0 02 b0 87 bd 0b d9 b7 3c e3 97 45 bd 03 96 84 3d
       -0.06625368 0.022442361 -0.048240554 0.06473925
0003e0 1c b3 57 3d 2c c9 50 bc cf e5 09 3a e0 8f d4 bc
       0.052661046 -0.012743276 0.00052603794 -0.025947511
0003f0 51 8b 15 bd 79 7d b9 3c d2 b1 8b 3d 2d 5d 50 bd
       -0.036509816 0.022642838 0.06821026 -0.05087011

layers.4.linear.bias f4 [128]
000000 d3 c1 2e bd 3b a7 8c bd c6 87 5c 3d 98 34 44 bd
       -0.042665314 -0.06867834 0.05384042 -0.04790172
000010 42 84 ad bd f9 31 5c bc 35 d3 89 bd 12 06 92 3d
       -0.08472492 -0.013439649 -0.06729738 0.07130064
000020 64 92 46 3c 80 79 ba bd 11 67 20 bd 73 49 78 3c
       0.012119863 -0.091052055 -0.03916079 0.01515423
000030 3f 14 94 3d 26 c9 35 3d 0e 5f 6d 3d bd 61 8f bd
       0.07230424 0.044381283 0.05795198 -0.07001064
000040 05 56 c1 bd 95 08 f2 bc a8 a5 c5 3c 75 e0 a9 3c
       -0.09440235 -0.029545108 0.024126843 0.020736912
000050 ca 33 b7 3d 80 00 e9 bc f7 62 2b bd 5f 8b b1 bc
       0.08945425 -0.028442621 -0.041842427 -0.021672903
000060 46 3a b1 3d f1 00 74 3b 48 11 96 bd eb 58 d0 bb
       0.08653693 0.0037232006 -0.07327515 -0.006358256
000070 4a fd 95 bc 53 fe 83 bd 05 b2 6c 3d 4d ae ab 3c
       -0.018309254 -0.06444993 0.05778696 0.020957137
000080 ce 10 ce 3c 9f 01 9c bd 3c 49 a0 3d 18 49 ac 3d
       0.025154497 -0.07617497 0.07826468 0.08412379
000090 97 2a 54 3d 00 33 2d bc dd 43 17 bd aa ff 05 bc
       0.05179843 -0.010571241 -0.036929954 -0.008178631
0000a0 17 5f 32 3d a6 2e c5 bc 97 6c 0d 3d 50 a2 8f 3d
       0.043547716 -0.024070095 0.034527387 0.070133805
0000b0 e0 13 06 3d a0 41 c1 bd db d0 a3 3c 7b f7 ce 3c
       0.032733798 -0.09436345 0.019997051 0.025264492
0000c0 7a e6 32 3d 71 01 2a 3d 68 3a 50 3d e7 c1 68 3c
       0.04367683 0.04150528 0.05083695 0.014206386
0000d0 55 49 b7 3c 4c f7 a9 bd aa eb ad bd 34 41 35 bd
       0.022373835 -0.08299121 -0.08492215 -0.044251636
0000e0 5a 36 c4 3d b4 3f aa bd f7 47 b2 3d a4 48 a9 bb
       0.09580679 -0.08312932 0.087051325 -0.00516613
0000f0 0b 0d dc 3c 33 c6 a1 bb 0f f3 5c bb 9f 15 97 bd
       0.026861688 -0.0049369573 -0.003371421 -0.07377171
000100 5a 84 70 b9 2a 69 bc bc 6a cf 80 bb d5 d3 b7 3d
       -0.00022937488 -0.022999365 -0.0039309757 0.08975951
000110 a8 e0 9c bd 48 8a ee 3c f4 36 d5 3b 00 17 69 bc
       -0.07660037 0.029118672 0.006506795 -0.014226675
000120 44 e4 30 bd 3e 4d ca 3c d7 a2 1d bd e8 1d 4a bc
       -0.04318644 0.024695035 -0.038485374 -0.012336232
000130 9c 28 74 bd f9 3e cb 3d 17 2a b2 3d 70 54 51 bd
       -0.05960904 0.099241205 0.08699434 -0.051105917
000140 e8 1c 42 bd b4 02 b1 bc 34 45 0a 3e cb 12 81 3d
       -0.04739085 -0.021607734 0.13502961 0.063024126
000150 1f a6 68 3d 78 1f dd bc b0 a9 63 3c 3f 99 a4 bb
       0.05679905 -0.026992545 0.013895437 -0.005023151
000160 83 16 ed 3b 5f 63 5e bb 08 15 22 bd 75 d6 a6 3d
       0.0072353496 -0.0033933742 -0.03957084 0.08146373
000170 d6 ea 04 bc f4 06 65 3d b2 ea 1f 3d d6 35 c7 bd
       -0.00811263 0.055914834 0.039042182 -0.09727065
000180 f8 4f d4 3c aa 28 d6 3c 96 8c 9c bc d3 87 a2 3d
       0.025917038 0.026142437 -0.019110005 0.07936063
000190 1d 64 9b bd 5f 09 1a 3d 66 2c cc 3c 06 30 d7 ba
       -0.075874545 0.037606593 0.024923515 -0.001641751
0001a0 e3 ff ef bc c7 f8 38 3d 54 bd ad bd c9 92 91 bd
       -0.029296821 0.045159128 -0.08483377 -0.07108075
0001b0 cb 97 ce 3c a4 ce 4c 3c 82 17 d8 bd 05 76 16 3d
       0.025218865 0.012500439 -0.10551359 0.036733646
0001c0 b9 e5 c9 3d 0a a1 34 bc 45 54 81 bd b3 cf af 3d
       0.09858269 -0.011024723 -0.06314901 0.08584537
0001d0 e2 28 19 3d f2 fd 08 bd 88 58 06 3d 9d f5 ee bc
       0.037392505 -0.033445306 0.032799274 -0.029169852
0001e0 56 a7 0c bd 68 eb 4c 3c b5 c3 a3 3d 1a d0 48 bd
       -0.03433927 0.012507297 0.079963125 -0.049026586
0001f0 5a cf 89 3c 0d 57 17 3d 4a 75 8a bd 40 a8 fe bc
       0.016822506 0.036948252 -0.06760652 -0.031086087

layers.6.linear.weight f4 [128, 128]
000000 4e 7e b6 bc 68 e5 c3 3c a6 b3 78 bb ac 33 77 3d
       -0.022277024 0.0239131 -0.0037948876 0.060352013
000010 19 d9 e1 bc 90 d5 c2 bd 01 b6 44 bc 11 6c 15 bd
       -0.02756934 -0.0951339 -0.012006284 -0.036480013
000020 f6 92 df 3c ff ff ce bb 27 7c 00 3d 99 9d 31 3d
       0.027291756 -0.006317138 0.0313684 0.043363187
000030 01 c4 91 3d 3d 3b 9c bd 31 fd ab 3c d2 aa 95 bd
       0.07117463 -0.07628486 0.020994755 -0.07307972
000040 d7 66 99 bd 4f d6 0d 3d ef 0c 97 bc ec 8a 39 bd
       -0.07490318 0.03462821 -0.018438784 -0.0452985
000050 f2 2a 1e bd d0 aa d6 bc 9f b6 8b bd 1e f1 53 bd
       -0.038615175 -0.026204497 -0.068219416 -0.05174362
000060 9f f4 0f 3d 89 2c 51 bd 74 60 de bc d1 60 54 3d
       0.0351454 -0.051067863 -0.027145602 0.051850144
000070 c9 81 eb 37 d8 e2 99 3d 83 8d 96 3d 44 b6 bb 3a
       2.8074619e-05 0.0751397 0.0735121 0.0014321287
000080 f3 65 59 3d 59 50 a2 3d fc 6b f0 3b 44 11 5b bd
       0.053075742 0.07925481 0.0073370915 -0.053483263
000090 e5 52 35 3c 29 21 d7 3c 73 29 fd 3b bd 23 88 3d
       0.011067127 0.02626093 0.0077258884 0.066474415
0000a0 c7 2e 0e bc 59 c7 58 bd f3 5f 10 bc a0 b1 77 bd
       -0.008678145 -0.052924488 -0.008811939 -0.06047213
0000b0 75 d7 7a bd 6e 31 99 bc 87 a4 88 3d 51 de 00 bc
       -0.061240632 -0.018700328 0.06672006 -0.007865504
0000c0 cb ea 3a bd 46 e0 c1 bd e8 db 93 3d b2 c6 c2 bd
       -0.045634072 -0.09466605 0.07219678 -0.095105544
0000d0 db f6 29 3d f2 b3 11 bd 99 de 8b 3d 2c 45 35 3d
       0.041495185 -0.035572 0.068295665 0.04425542
0000e0 a5 ad b5 bd c9 e7 0c bc 1f d6 3c 3d de a3 ab bd
       -0.08871011 -0.008600184 0.04610264 -0.083808646
0000f0 c1 ea 8b 3c 46 f7 99 bd c9 b4 5e bd b9 48 30 3d
       0.017079713 -0.07517867 -0.05437163 0.043038104
000100 4b 8d 3e bd 0c 59 98 3d 90 b6 17 bc 01 7d 2b bd
       -0.046521466 0.07438859 -0.009259835 -0.04186726
000110 fb 9e 99 bd 26 c3 b4 bd 28 2f 8c bd d7 7d a7 bc
       -0.07501026 -0.08826284 -0.06844932 -0.020445747
000120 e7 14 25 3c 00 c3 55 3d bf 4b 9f bd 6f e8 5d bd
       0.010075784 0.05218792 -0.07778119 -0.054176744
000130 14 a3 c4 3c bb ea 49 bc 3f 75 57 3c 8a 9d 38 3d
       0.024003543 -0.0123240305 0.013150512 0.045072116
000140 c3 78 23 bd ba cd f5 bc 7a 34 9b 3b ab e7 08 bb
       -0.03991009 -0.030005325 0.0047364803 -0.0020890038
000150 90 6b 5c 3d 04 ce c1 bd 83 18 0e bd 4b 2d 81 3d
       0.053813517 -0.094631225 -0.034691345 0.06307467
000160 c2 2b 31 3d 1a 29 a2 3d f5 26 02 3d 7b 55 92 3c
       0.04325462 0.07917996 0.031775434 0.017863026
000170 f6 67 13 bd 7c a1 92 bc 80 7d 78 bc 79 c0 ad bd
       -0.035987817 -0.017899267 -0.01516664 -0.08483977
000180 ef 1b 1f bd c7 3a 20 bd ce 65 9a 3d 16 27 8b 3d
       -0.038845 -0.039118554 0.07538949 0.067945644
000190 fd 42 43 bd 77 3a 3b bd 61 8b 5e 3d c1 b3 bb 3c
       -0.047671307 -0.045710053 0.05433214 0.022912862
0001a0 a2 9a 61 3c 60 c8 66 3d d7 3b 75 3d 31 86 26 bd
       0.0137697775 0.056343436 0.05987152 -0.04065532
0001b0 6d f5 85 bd e2 66 4a bd 70 04 09 bd 26 48 09 3c
       -0.06540952 -0.049414523 -0.033451498 0.008379018
0001c0 2c e5 03 3b 33 f8 a2 bd a2 ff 56 3d f0 d2 c6 bc
       0.002012561 -0.079574965 0.052489884 -0.024270505
0001d0 ad c2 0a bc 6e 1f a0 bc eb 2e 81 bd bb 9c 9f bd
       -0.008469266 -0.019546237 -0.06307777 -0.07793566
0001e0 32 8b 6a 3d 43 5c 77 3b bc 62 82 3d f0 3e 02 bd
       0.057261653 0.0037744201 0.06366488 -0.031798303
0001f0 e6 ce 4c 3d e2 2c 77 3c 07 47 f3 bb f3 46 b7 bd
       0.050002 0.0150863845 -0.0074242386 -0.08949079
000200 72 62 7c 3d 62 e8 18 bd f7 e2 e7 bc de 5b 8a 3d
       0.061617322 -0.037330993 -0.028306467 0.067558035
000210 aa a5 e7 3a 94 10 b4 bd 00 5a a2 bd f7 b5 fd bc
       0.0017673273 -0.087922245 -0.079273224 -0.030970557
000220 68 02 b6 bd 6b f9 8e 3d d1 19 0b bd b3 d0 8c ba
       -0.08887178 0.069811665 -0.033960167 -0.001074335
000230 29 2c c9 3c 5f 69 bb bd ef 19 bb bd 5e df 23 bd
       0.02455719 -0.09150957 -0.09135806 -0.04000794
000240 a6 d9 89 bd 0d 9f d4 bd 01 6a 39 3d 81 f0 8d 3d
       -0.06730966 -0.10381899 0.04526711 0.06930638
000250 f8 1a 92 bb 05 1d 4d 3d 87 ae a2 bd 6b 43 6e 3c
       -0.0044587813 0.050076503 -0.07943445 0.014542441
000260 4f 7f b3 3c 29 e2 89 3d 5e 47 2c 3d 98 6e 91 bd
       0.021911291 0.0673259 0.04206025 -0.07101172
000270 eb 17 91 3c 36 2e 05 3d e6 a7 20 bd 24 01 86 bc
       0.0177116 0.032514773 -0.03922262 -0.016357966
000280 c9 30 2a bd 24 8a be 3c 20 54 c3 3b c4 8c 64 bc
       -0.04155043 0.02325923 0.005960956 -0.013949577
000290 e4 28 18 bd ea c2 8a bd a9 6e a5 bd 8d 3c aa 3c
       -0.03714837 -0.06775458 -0.080777474 0.020780826
0002a0 93 e8 3c 3d 76 44 f8 bc ae c5 46 bd 2b 40 65 3b
       0.046120238 -0.030306082 -0.048528366 0.0034980874
0002b0 bb 95 90 3d 86 a3 b0 3c 3c fc ba bb e4 dd bd bd
       0.07059809 0.021562349 -0.005706338 -0.09270838
0002c0 03 5c 9e bd 1d 66 2a 3d c1 a9 ab bd 1a ae 5c bd
       -0.077323936 0.04160129 -0.08381987 -0.053876974
0002d0 46 c4 5d bd a4 59 1e bc f8 ab 74 bd 73 bd 51 3c
       -0.05414226 -0.009664927 -0.059734315 0.012801516
0002e0 f7 3d 8d bd 86 3d d6 3c b2 1e b0 bc ce b0 61 3c
       -0.068965845 0.026152384 -0.021499012 0.013775064
0002f0 a7 36 85 3c 24 44 ef 3c b8 93 10 bc 75 fd e9 bc
       0.016261412 0.029207297 -0.008824281 -0.02856324
000300 59 c4 07 3d 5d 4c 36 bc 81 0a a8 bd 12 9f 93 bc
       0.033146236 -0.011126605 -0.082051285 -0.018020187
000310 af e8 89 3d ea bf 85 bd 32 24 2f bd c8 ad 64 3b
       0.06733834 -0.06530745 -0.042759128 0.003489362
000320 1d 93 e4 3c ca 6e a0 bc c2 49 ed 3c 34 0d a9 3c
       0.02790218 -0.019584078 0.028965835 0.020636179
000330 db 8f aa 3b 1b 5a 0c 3d 9f ca 86 3d 4b cc a1 bc
       0.005205137 0.03426562 0.06581616 -0.019750735
000340 15 61 cb bd 9d c2 09 bd 98 9f 6e bc 05 3e 60 bd
       -0.09930626 -0.033632863 -0.014564417 -0.054746646
000350 b9 2f 35 3d 97 c0 7c 3d 6c 2e 4f bd 73 c9 77 3a
       0.044234965 0.061707105 -0.05058138 0.00094523205
000360 36 01 95 bd ef 81 3d 3d 9e d8 6e bd 26 56 85 bc
       -0.072756216 0.046266492 -0.05831205 -0.01627643
000370 30 67 1e 3d 8e 52 04 3c 0b f4 7c 3d 9d ac 5c 3b
       0.038672626 0.008076323 0.061756175 0.0033672221
000380 ae 23 72 3c 01 98 5b bd a9 36 8e bd 57 fe cc bc
       0.0147790145 -0.05361176 -0.06944019 -0.025023622
000390 26 5b ac bd 0b 24 1b 3d 5d 37 3a bc e3 2c 06 3d
       -0.08415823 0.03787617 -0.011365739 0.03275765
0003a0 53 62 83 bd 75 a8 18 3d 30 26 bf 3b 1b 3b 1b bd
       -0.06415238 0.03727003 0.0058334097 -0.037898164
0003b0 9c 6b 7f 3c 1c 37 c1 bc 6a 78 8e bb ce a9 06 3b
       0.015589621 -0.023585849 -0.0043478506 0.0020547989
0003c0 9f 06 63 3d 4b 26 03 3d d4 88 06 3c e2 93 f4 bc
       0.055426236 0.03201894 0.008211333 -0.029855672
0003d0 e3 79 c9 bb 95 01 a2 bd 11 76 a6 bd 44 bc 96 3d
       -0.006148563 -0.07910458 -0.08127988 0.073601276
0003e0 e0 4a 7a bd dc 7d 80 3d 5c be 6c bc a8 dc b9 3c
       -0.061106563 0.06274006 -0.014449682 0.022688225
0003f0 05 38 68 bd cc 44 a1 bd 03 bd a2 bc dd 87 61 bd
       -0.05669405 -0.0787445 -0.019865518 -0.05506121

layers.6.linear.bias f4 [128]
000000 27 85 f5 bc 13 cf 7e bd 04 5f 68 bd db a2 6c 3d
       -0.029970719 -0.0622092 -0.05673124 0.0577725
000010 88 2c 5e 3c 31 a0 13 bd e2 b3 82 bd 87 6a d8 3c
       0.013560422 -0.036041442 -0.06381966 0.026417984
000020 31 5c 57 bd 99 b9 b6 bd 5c 6e 96 bd c7 b9 91 bd
       -0.052578155 -0.08922119 -0.07345268 -0.07115512
000030 6c c2 a4 3d 8a a6 ca 3d 98 31 9e bd be c5 bc 3d
       0.080448955 0.09895046 -0.07724303 0.09217404
000040 3e 31 ba bc a1 03 f7 3c 4f 8a 7a bd 09 38 22 3c
       -0.022728559 0.030153098 -0.061167058 0.009901055
000050 73 12 29 bd 8d 5f 8d 3d 2c f6 a5 bd 66 51 92 bb
       -0.04127736 0.069029905 -0.08103594 -0.00446527
000060 74 f5 6e 3d f7 e5 79 3c 62 41 d4 3d 84 12 18 bd
       0.05833955 0.015252582 0.10364033 -0.037127033
000070 8a 7b 10 3b 0b 3e 8c bd 50 ab c0 3c 10 d8 a7 bd
       0.0022046291 -0.06847771 0.023519188 -0.081955075
000080 37 2c e2 3d 90 21 9b bd b8 9b 89 bd d8 1e da bd
       0.110435896 -0.07574761 -0.06719154 -0.10650414
000090 2b 6d 02 3d cd 02 83 bd 45 6d b8 3d 4d 5a 5a 3d
       0.031842392 -0.063970186 0.090052165 0.053308774
0000a0 4e 93 b2 bd ea d5 ee bc 71 60 07 3d 04 fa 78 bb
       -0.087195024 -0.029154737 0.033050958 -0.0037990818
0000b0 8a 81 63 3c c0 91 3e bd 82 0e 4f bd 81 72 df bc
       0.013885865 -0.046525717 -0.050550945 -0.02727628
0000c0 42 f9 bb 3d 3a b5 54 3d a4 32 84 bd b7 bc a5 3c
       0.091784015 0.051930644 -0.064549714 0.020231588
0000d0 38 25 f2 bc a2 41 87 ba ea 33 1b 3d 74 26 79 3d
       -0.029558763 -0.0010319243 0.037891306 0.060827687
0000e0 69 f6 30 bd 17 c5 55 3d c7 8c 9e bc 42 55 03 3d
       -0.043203745 0.052189913 -0.019354237 0.03206373
0000f0 58 d9 37 bd 31 d5 04 3d e6 b7 2b bd bb bb 4b bd
       -0.04488501 0.032429878 -0.041923426 -0.04973958
000100 a9 a9 9b bd 20 93 5b bc d2 30 21 bd 5a f6 97 bd
       -0.076007195 -0.013401777 -0.0393532 -0.07420035
000110 5c 7a 3a bd 92 f1 7c 3d f0 ab 82 3c d1 48 d5 3d
       -0.045526847 0.061753817 0.015951127 0.10414279
000120 af 5e 19 3d de e7 22 3d a9 9a 50 3d 1d 1c fb bc
       0.037443813 0.039771907 0.050928745 -0.030653054
000130 17 da 30 bd cc 49 25 3d be 84 37 3d a8 7a 9d bd
       -0.043176737 0.04035358 0.044804327 -0.076894104
000140 16 af c2 3d 42 36 f8 bc 4c 32 a1 bd ef 4e a6 3c
       0.09506051 -0.03029931 -0.078709215 0.02030131
000150 00 24 b5 3c ba 73 1e bd 3c ad 38 bb 36 9d 9d bd
       0.022111893 -0.038684584 -0.0028179428 -0.07696001
000160 73 0f 67 3b e2 41 6a bd d0 a2 a1 bd 2c 1d 2e bd
       0.0035257011 -0.057191737 -0.07892382 -0.04250829
000170 15 2d ac bc c2 c9 9a bd 1e 92 82 bd 10 82 b8 bc
       -0.02101759 -0.075580135 -0.06375526 -0.022522956
000180 ba 06 9a bc 39 8b 44 3c 59 7a 89 bd bd 30 a4 bd
       -0.018802036 0.011996084 -0.06712789 -0.080171086
000190 b5 05 82 3b 22 a7 7f 3d 6b 3f 82 3c 2b bd 37 bd
       0.0039679655 0.06241525 0.01589938 -0.04485814
0001a0 94 23 74 bd 2d 9d 51 3d b7 dd c8 3c 01 80 9f 3d
       -0.059604242 0.051175285 0.024519784 0.07788087
0001b0 d4 91 13 bb f9 db 9b 3d 02 78 65 3d b0 68 23 3d
       -0.002251734 0.07610316 0.05602265 0.03989476
0001c0 e7 b8 82 3d d7 da 5b 3c da 9a aa 3c ec f7 8a 3d
       0.063829236 0.013418875 0.020825792 0.067855686
0001d0 70 d9 12 3d b4 7d 95 bd 90 71 ab bd 04 51 1f 3d
       0.035851896 -0.072993666 -0.0837127 0.038895622
0001e0 3b 19 42 bd 14 e7 43 bd 4d 0b a3 3c f2 8f 7b 3d
       -0.047387343 -0.047827795 0.01990285 0.061416574
0001f0 67 99 9a bd 08 7c f7 3c dc 12 70 3d ed f9 5b bd
       -0.075487904 0.03021051 0.058611736 -0.053705145

layers.8.linear.weight f4 [3, 128]
000000 b8 ef 21 bd 9f 3f 5b 3d 70 f8 6e bd 57 8b e6 ba
       -0.039535254 0.05352747 -0.058342397 -0.0017589134
000010 70 be 95 bd eb fe 8f bd a6 92 aa be d5 1a f9 bc
       -0.07311714 -0.070310436 -0.3331501 -0.030408302
000020 46 d3 0d bc 0d 24 a3 3c d8 b3 8d 3d 85 17 42 3d
       -0.008656329 0.019914651 0.06919068 0.04738571
000030 e7 d6 77 3d c2 9e 98 3d c0 ff fa 3c 64 4b 04 bc
       0.06050768 0.07452156 0.03063953 -0.008074615
000040 4d 52 b6 bc 11 52 33 3d fc a2 3d 3d 51 15 62 bd
       -0.022256041 0.043779436 0.046298012 -0.05519611
000050 b4 89 b5 3d e8 7b 97 bd 5c 13 58 bd cc 94 00 3b
       0.088641554 -0.0739668 -0.052752838 0.001961994
000060 20 8d 91 b9 16 8b 06 3c 0a d9 c2 3d 00 e8 89 39
       -0.00027761701 0.008211872 0.09514053 0.0002630353
000070 01 f7 71 3d 1f fd 04 bc f3 77 24 bd 25 f4 8b bd
       0.059073452 -0.008116989 -0.040153455 -0.06833676
000080 f9 36 96 bc 1f b3 a1 3d 9a b2 25 3d 36 ab 2f bd
       -0.01833676 0.07895493 0.04045353 -0.04288789
000090 1a 02 14 bd 7f c2 10 bc b2 9f 59 3d 2c eb 53 3d
       -0.036134817 -0.008835434 0.053130813 0.05173795
0000a0 60 61 dc 3c f6 4d 70 3d 88 26 c6 bc 79 83 a1 3c
       0.0269019 0.0586681 -0.024188295 0.019716011
0000b0 b8 97 99 bc 7c 89 46 3d b4 dd 6d bd 13 ad 40 bd
       -0.018749103 0.04847096 -0.05807276 -0.047040056
0000c0 bf 5f b5 3d 68 06 96 3d f3 25 4d 3d 66 6f 5e bd
       0.08856153 0.07325441 0.05008502 -0.054305457
0000d0 a3 48 54 bd ff 47 4f bd a2 ba 76 bd 25 83 b9 bb
       -0.051827084 -0.05060577 -0.06023658 -0.0056613856
0000e0 b3 cb 1f bd 70 44 4a bd 46 27 8c 3c d1 e1 ee 3a
       -0.039012622 -0.049381673 0.01710857 0.0018225258
0000f0 2f 2b 22 bd b3 66 a9 ba 44 e0 5e bd d4 e4 6f 3d
       -0.039591964 -0.0012924284 -0.054413095 0.058567837
000100 b1 3d 9b 3d a9 c0 21 3d 63 8e d6 be 00 12 b3 3a
       0.07580126 0.039490376 -0.41905507 0.0013661981
000110 81 95 84 3d 6f 0e 8d 3d be dd d3 3e 3a 27 19 3d
       0.06473828 0.068875186 0.41380113 0.037390925
000120 e6 75 06 bb e3 5e b5 bc e4 c7 c6 3d df 88 c4 3d
       -0.002051705 -0.022139972 0.09706095 0.095964186
000130 32 b6 cd 3e a8 68 20 3d 6a 93 bf bc 58 a5 99 bc
       0.40178066 0.039162308 -0.023385722 -0.0187556
000140 82 17 49 3d 60 c2 87 bd 92 a8 9e 3d 04 99 aa 3c
       0.049094684 -0.06628871 0.07746996 0.020824917
000150 eb 39 93 bd 5a df 89 bd 06 72 1d bd c3 a1 0c 3d
       -0.07188781 -0.06732054 -0.03843882 0.034333955
000160 b0 67 bb 3d aa 34 c0 3d 45 e3 8d bd f0 66 16 bc
       0.09150636 0.09385045 -0.06928114 -0.009179816
000170 ad 3e d8 bc b2 d7 96 3d ea e9 ce 3c a3 c3 7f 3d
       -0.026397074 0.07365359 0.025258023 0.062442433
000180 4a f0 d3 3e e5 cc c5 3c f3 ad 28 bd 70 21 ab bd
       0.41394264 0.024145553 -0.041181516 -0.08355987
000190 43 43 f6 3b 25 48 a4 3d a4 7c 95 3c f1 c4 8f bd
       0.0075153424 0.08021573 0.01824791 -0.070199855
0001a0 bd b6 a2 3d 4e e6 bd 3d 9c 7e d5 3b fa f5 a4 3d
       0.07945011 0.09272443 0.006515337 0.08054729
0001b0 4e 2f 4a 3d da 5e 54 bc aa 84 21 bd ea eb 15 bd
       0.04936152 -0.0129620675 -0.03943316 -0.03660194
0001c0 af 49 1e bd d0 5e 1e bc 6c 73 3f 3d 87 d0 5f bd
       -0.03864449 -0.00966616 0.046740934 -0.054642227
0001d0 f7 55 60 bd 00 ae 9a 3d e8 bd e4 bc b6 0c 06 3d
       -0.054769482 0.07552719 -0.027922586 0.032726966
0001e0 59 58 90 bd b6 5f f0 bd eb a0 da 3c 6a dc 1c 3d
       -0.07048101 -0.117370054 0.02668806 0.03829614
0001f0 d6 b3 34 3d ab 51 a2 bd 4b e5 bd 3d 4f 45 eb bc
       0.044116817 -0.07925733 0.0927225 -0.028719572
000200 f2 fe 35 3d 60 0a 69 bd 94 aa d5 bc db 07 8e bd
       0.044432588 -0.05689466 -0.026082315 -0.06935092
000210 c9 53 cc 3d 49 d3 96 3d 42 c1 d3 be 19 38 fb bc
       0.09976918 0.07364518 -0.41358382 -0.030666398
000220 0d 39 0c bd 32 c2 50 3c bc af 27 bd d3 fc 14 3d
       -0.034234095 0.012741612 -0.040939078 0.036373924
000230 59 19 af 3d ba e7 82 3c e5 9c 08 bd fc 1f b8 3d
       0.085497566 0.015979636 -0.03335275 0.089904755
000240 cd 9c 56 bc 00 80 81 bd ad 48 44 bd 5f e8 8a 3d
       -0.013098908 -0.06323242 -0.04792087 0.067826025
000250 3b 55 c8 3c 8f a8 94 bc 00 1d 72 bc 0f 6e 37 ba
       0.024454704 -0.018146781 -0.014777422 -0.0006997296
000260 21 5d 89 bd 7a ab 96 3c d1 13 8b 3d a0 c3 19 3b
       -0.06707216 0.018392313 0.06790889 0.002346255
000270 cb 0e 3b bc 14 0c 9c 3c 54 d4 8a bd ac 79 4b bd
       -0.011417101 0.019048728 -0.067787796 -0.049676582
000280 93 3e cb 3d d9 42 8b bd 00 66 dc bb a6 86 e8 3b
       0.099240445 -0.067998596 -0.0067260265 0.0070961295
000290 65 df c8 3c 17 e8 77 bd aa 63 86 3d 86 f7 92 bd
       0.024520585 -0.060524072 0.06561978 -0.071761176
0002a0 60 7c 63 bb 02 e1 05 bb f6 6f 58 bd 24 5b 58 bd
       -0.0034711584 -0.0020428305 -0.05284115 -0.052821293
0002b0 ec 38 99 bd 59 4d b1 3d 2f d6 e8 3b 86 47 ac 3c
       -0.0748156 0.08657331 0.007105611 0.021030199
0002c0 32 e1 0f 3d eb 88 b7 3b 5d 17 3d bc bc 4e 1b 3c
       0.035126872 0.0056010387 -0.011541215 0.009479221
0002d0 5c 02 89 3c fd 39 27 3d c2 15 1a 3d 02 31 2f 3d
       0.016724758 0.040826786 0.037618406 0.042771347
0002e0 3d 9d a5 3c 90 e2 37 3c b2 f5 a4 bd e4 6e 98 bd
       0.020216579 0.01122345 -0.08054675 -0.07443026
0002f0 b5 f3 84 bb 92 cc c6 bc 8e 5c 39 3d 90 19 60 bd
       -0.0040573725 -0.024267469 0.045254283 -0.05471188
000300 aa fd 0d 3d 6e 92 88 3d 9f 19 ba be 09 94 64 bd
       0.03466574 0.06668554 -0.36347672 -0.05580524
000310 7d b7 27 bd e5 a0 8a 3d c9 79 c5 3e f6 b4 29 3d
       -0.040946472 0.067689694 0.38569477 0.041432343
000320 c1 ed 3a bd ae 47 91 bc e2 15 86 bd cb b4 14 3d
       -0.045636896 -0.017734375 -0.065471426 0.03630523
000330 2d 7e f8 3e 7a 50 bf 3c 65 95 af bc a0 03 a1 bc
       0.48533764 0.023353804 -0.021433542 -0.019655049
000340 51 71 c6 3c a1 0c 5e bd 77 f1 81 bd 61 7c 66 3b
       0.024223955 -0.054211263 -0.06344884 0.003516935
000350 39 2e 89 3d 3d b5 88 bd c4 ac 74 bb 12 b5 9b bd
       0.066982694 -0.066751935 -0.0037334422 -0.07602896
000360 ff da d4 bc 3a 92 7a bd 40 03 da ba 41 2a 94 3c
       -0.025983332 -0.06117461 -0.0016633049 0.018086554
000370 ca 6e f3 bc 89 b8 6a bd 46 0f db 3a 41 3d 38 3c
       -0.029715914 -0.057304893 0.0016712926 0.011245073
000380 67 83 02 3f a6 c9 8b 3c 07 d6 86 3c 20 d3 b9 bc
       0.50981754 0.017063927 0.016459478 -0.02268368
000390 7b 6d 67 bd d7 a4 34 3d 99 3e 66 bd b4 f7 8c bd
       -0.056500893 0.044102516 -0.05621204 -0.06883183
0003a0 16 2b 43 3d 61 25 24 3d a1 fa eb 3c 81 78 38 bc
       0.04764851 0.04007471 0.028806033 -0.011259199
0003b0 27 76 32 bc 3e 06 1f 3c 8c b2 5f bd 44 e1 b3 3d
       -0.0108924275 0.009706078 -0.054613635 0.087832004
0003c0 05 15 f2 3c 43 cc 5e 3d 4f 2e be bc c2 75 94 bd
       0.029551039 0.054394018 -0.023215441 -0.07249023
0003d0 9d 7e 11 3d 78 46 4f 3d bc 8d 9c 3d 5d ba 8c bd
       0.03552114 0.050604314 0.07644221 -0.068714835
0003e0 17 59 f7 3c 80 a0 81 bd 7a 90 5d 3d b2 83 94 3d
       0.030193849 -0.06329441 0.05409286 0.072516814
0003f0 40 36 5b 3b 33 a9 1d bc da 8f 0b 3c 0f a0 8f bd
       0.0033449084 -0.00962286 0.008518184 -0.07012951

layers.8.linear.bias f4 [3]
000000 3b 72 60 bd 39 90 32 bd 51 15 9e 3d
       -0.05479644 -0.043594573 0.077189095
